sac_actor.pth (torch, 74345 bytes, 8 tensors)

fc.0.weight f4 [128, 4]
0.10831381 0.45739904 0.23721862 -0.8160834 -0.63209796 -0.298786 0.610909 0.5279542
-0.13154131 -0.30838627 0.86573225 -0.122931495 -0.34660524 -0.46549234 -0.024705693 0.41713178
0.27025342 0.14629002 -0.5419279 0.22280401 0.64140815 -0.09024135 -0.60854477 0.4041195
-0.10999018 -0.11618039 0.2362955 -0.53907555 0.6451565 -0.43021137 0.042522956 0.00056808686
0.15238754 0.0414207 0.49396452 0.14651455 0.2574951 -0.06560057 -0.26538807 0.3179802
0.3040584 0.25851145 0.39457378 -0.82872134 0.3872896 -0.32704896 -0.6068547 0.4900101
0.7389637 0.079159714 -0.6211944 -0.2635855 -0.39898646 0.56729996 -0.24379925 0.3051766
-0.009303941 0.29069746 -0.3845659 0.47182035 -0.33118084 -0.3240384 -0.14985318 0.4342475
0.5783556 -0.35673344 -0.6633327 0.36819404 0.3957354 0.5786388 -0.2423339 -0.6074687
-0.47870824 -0.37930438 0.43785927 0.27759787 0.16977574 -0.03128683 -0.28606242 -0.23490688
-0.34547293 -0.42677987 0.12589414 -0.4645697 -0.5491312 0.2020726 0.6881561 -0.33947253
-0.37081552 0.36959332 0.3048809 -0.3737054 -0.51390034 -0.5380544 0.66543096 -0.34260735
0.48074928 -0.1107939 -0.41057798 0.405758 -0.16170475 0.006783406 0.4407662 -0.55802405
0.6917807 0.207706 -0.7791456 0.031505074 0.5754298 -0.034163248 -0.45430797 0.00758023
-0.5082636 -0.30751964 0.65066093 0.31275302 0.07328871 0.21044956 -0.2801865 0.23447189
0.23754612 0.34658077 0.17957194 0.16564423 -0.05085037 0.026657023 0.16690654 -0.4637429
-0.44904274 0.2077139 0.1360301 -0.029731017 0.32707414 -0.6141453 -0.41362914 0.5781096
0.2797713 -0.4296664 -0.17001519 0.09642352 0.011237997 -0.38989052 -0.06105907 0.1614091
0.22406936 -0.19754012 -0.556509 0.23478477 -0.2696427 -0.3225421 0.21612261 -0.40758285
-0.6193699 0.58233786 0.48670474 -0.072963655 0.31273118 -0.026206657 0.25885347 0.28429073
0.2496297 0.5446017 -0.48500833 0.12206596 0.23691168 -0.5425386 -0.1910021 0.61039394
-0.11016484 0.42749527 0.081001796 0.3381808 -0.32732478 0.2786262 -0.11757863 0.28370818
-0.069508664 -0.3129503 0.45398977 0.23790802 0.36787573 -0.3795602 0.006583169 0.21747793
-0.4034977 0.31676462 -0.17500831 -0.3416219 0.42356014 0.06277948 0.10730125 0.13342711
-0.027470648 0.0087918835 -0.09838437 0.18103388 0.20090505 0.55262214 -0.24643974 -0.38059124
0.060817134 -0.30508423 0.41244966 0.38881224 0.352677 -0.11247854 -0.48822483 -0.31976414
-0.34382582 0.29007927 0.5015186 -0.43547705 -0.28876367 -0.50854117 0.5840474 0.42103922
-0.007471091 0.1041 -0.53223294 -0.1416707 -0.253109 0.106041245 0.06304105 -0.18327343
-0.35726827 0.009753281 0.121318795 0.22186574 -0.6264822 0.32783112 0.6173723 -0.38309526
-0.14367384 0.50605696 0.13627791 -0.45579213 0.2657011 -0.45660827 0.20282882 0.38265273
0.68620324 0.3032192 -0.20071109 -0.111854225 0.004284225 0.22200914 0.07858849 -0.31238136
-0.23705302 0.3144919 -0.4645221 -0.23245293 -0.11054015 0.0332946 -0.2136498 0.35794747
00000000: a1d3 dd3d 3530 ea3e 70e9 723e d7ea 50bf
00000010: 2cd1 21bf 7bfa 98be 8864 1c3f 0228 073f
00000020: c4b2 06be cee4 9dbe a1a0 5d3f 82c3 fbbd
00000030: 3e76 b1be 0355 eebe 9863 cabc 4c92 d53e
00000040: a85e 8a3e 0dcd 153e c9bb 0abf bc26 643e
00000050: 5333 243f 75d0 b8bd 97c9 1bbf c0e8 ce3e
00000060: 8842 e1bd fcef edbd 73f7 713e db00 0abf
00000070: fa28 253f aa44 dcbe 8d2c 2e3d aaeb 143a
00000080: 7b0b 1c3e c0a8 293d ebe8 fc3e e907 163e
00000090: 66d6 833e 9759 86bd f2e0 87be 4dce a23e
000000a0: 8bad 9b3e 9d5b 843e 9305 ca3e 1527 54bf
000000b0: d34a c63e f672 a7be d45a 1bbf 9be2 fa3e
000000c0: ba2c 3d3f 7d1e a23d 9906 1fbf aef4 86be
000000d0: f447 ccbe 923a 113f 83a6 79be 1b40 9c3e
000000e0: 8f6f 18bc 4cd6 943e d2e5 c4be 7092 f13e
000000f0: 8990 a9be 5ce8 a5be 1d73 19be b055 de3e
00000100: 1d0f 143f c4a5 b6be 2cd0 29bf ee83 bc3e
00000110: d59d ca3e ac21 143f 6126 78be 1283 1bbf
00000120: 3f19 f5be 2f34 c2be 172f e03e 4f21 8e3e
00000130: b1d9 2d3e 9e26 00bd c676 92be 6e8b 70be
00000140: d4e1 b0be e482 dabe 65ea 003e 14dc edbe
00000150: dd93 0cbf 1fec 4e3e 002b 303f 58cf adbe
00000160: 88db bdbe 563b bd3e 5919 9c3e 5056 bfbe
00000170: f98e 03bf efbd 09bf af59 2a3f 3b6a afbe
00000180: c524 f63e eae7 e2bd 4737 d2be 83bf cf3e
00000190: ee95 25be 5547 de3b 1bac e13e aada 0ebf
000001a0: 8a18 313f e2b0 543e 1676 47bf 770b 013d
000001b0: 5e4f 133f c3ee 0bbd 0e9b e8be 9463 f83b
000001c0: 901d 02bf 3773 9dbe b791 263f 2a21 a03e
000001d0: 6418 963d 1780 573e 9b74 8fbe 6619 703e
000001e0: 4a3f 733e 0973 b13e b5e1 373e a49e 293e
000001f0: 7a48 50bd d45f da3c 8ce9 2a3e b66f edbe
00000200: eee8 e5be f4b2 543e 794b 0b3e 768e f3bc
00000210: 4376 a73e a038 1dbf 33c7 d3be fefe 133f
00000220: 2f3e 8f3e 3cfd dbbe 7618 2ebe b279 c53d
00000230: 931f 383c bb9f c7be 1319 7abd 6d48 253e
00000240: 7072 653e f547 4abe 6077 0ebf 6b6b 703e
00000250: 9c0e 8abe 3d24 a5be 3f4f 5d3e b3ae d0be
00000260: 078f 1ebf 1814 153f 5d31 f93e f86d 95bd
00000270: 4d1e a03e 58af d6bc 7188 843e 8e8e 913e
00000280: ee9e 7f3e 046b 0b3f 0353 f8be b8fd f93d
00000290: fa98 723e cfe3 0abf 0e96 43be c742 1c3f
000002a0: 1b9e e1bd a9e0 da3e 45e4 a53d 0926 ad3e
000002b0: 1d97 a7be 18a8 8e3e 11cd f0bd 3342 913e
000002c0: 8f5a 8ebd 063b a0be 5971 e83e 299e 733e
000002d0: 355a bc3e b755 c2be a0b7 d73b 89b2 5e3e
000002e0: 4097 cebe f92e a23e 6135 33be 11e9 aebe
000002f0: e0dc d83e 8792 803d c2c0 db3d 1ea1 083e
00000300: 200a e1bc d50b 103c bf7d c9bd f260 393e
00000310: 0eba 4d3e a578 0d3f b35a 7cbe dbdc c2be
00000320: 631b 793d 0034 9cbe 9a2c d33e 6612 c73e
00000330: 1492 b43e 265b e6bd 9bf8 f9be 20b8 a3be
00000340: f009 b0be 4585 943e 8663 003f d9f6 debe
00000350: d5d8 93be c12f 02bf 2184 153f 7492 d73e
00000360: 0ed0 f4bb 6132 d53d 6b40 08bf 2012 11be
00000370: 8197 81be 272c d93d ab1b 813d 08ac 3bbe
00000380: deeb b6be 3acc 1f3c fd75 f83d c630 633e
00000390: 2361 20bf 7bd9 a73e 1c0c 1e3f 1025 c4be
000003a0: 3c1f 13be f38c 013f 708c 0b3e 965d e9be
000003b0: f909 883e 8fc8 e9be 5cb2 4f3e 0feb c33e
000003c0: 04ab 2f3f 8c3f 9b3e 3587 4dbe d413 e5bd
000003d0: af62 8c3b 5d56 633e 01f3 a03d 73f0 9fbe
000003e0: 07be 72be 1505 a13e d7d5 edbe 2408 6ebe
000003f0: e062 e2bd eb5f 083d 03c7 5abe e444 b73e

fc.0.bias f4 [128]
0.05352613 -0.41412154 -0.6779946 -0.2544384 0.18502533 -0.20487522 -0.13335572 0.047822695
-0.2141686 0.34324235 -0.17737366 -0.18157333 0.018244743 -0.51795316 -0.4810878 0.04726241
0.018463708 -0.21927136 0.05789159 0.2650246 -0.4722061 0.11791868 -0.10505641 -0.31469294
-0.58332944 -0.4493807 0.3387314 0.16543637 0.16185476 0.04190288 0.1289376 0.0088928025
-0.21316917 0.11842312 0.038424082 0.4434988 -0.28742272 -0.6025105 -0.5164054 0.27201238
-0.10416995 0.095147766 -0.65273005 -0.14621703 -0.4995776 0.42839584 -0.47708112 0.2608653
0.14107037 0.23096323 -0.14125897 0.23523499 0.29096654 0.34021994 0.20683017 0.029538563
0.20008457 -0.017389417 0.11548613 0.53646845 -0.23599118 -0.027050024 -0.37826678 0.106570736
0.1981401 -0.072657935 0.10460544 0.062587805 -0.18274143 0.15402068 0.16166598 0.08371126
-0.26094013 -0.068206124 -0.52969766 0.2857496 -0.34851995 0.014779077 -0.24988508 -0.48946962
-0.03686551 0.37340358 -0.13682441 0.32710582 -0.30085114 -0.10128435 -0.048218783 -0.20502791
0.09166725 0.28233758 -0.33735412 0.10913001 0.056291427 0.09308983 -0.64711595 0.027344681
0.089638285 -0.044183686 0.04970972 0.30819717 0.16648428 -0.4272646 -0.49171358 0.4139669
0.16968396 -0.09081842 0.41799763 0.055291172 0.15413845 0.11818604 -0.5008622 -0.5266894
-0.3912606 -0.124309584 -0.07391799 0.26610282 0.13494533 0.124142125 -0.12833764 -0.36256886
-0.4562935 -0.112765014 0.22890808 -0.4152117 0.082733326 0.22903255 0.11905704 -0.53021234
00000000: 373e 5b3d bd07 d4be 0e91 2dbf c045 82be
00000010: 4877 3d3e cfca 51be 678e 08be bbe1 433d
00000020: 034f 5bbe 76bd af3e 71a1 35be 5cee 39be
00000030: 0076 953c 9498 04bf 2451 f6be 3b96 413d
00000040: 3441 973c ac88 60be bb1f 6d3d 4eb1 873e
00000050: ffc4 f1be 597f f13d d127 d7bd 6f1f a1be
00000060: 1455 15bf 3a15 e6be 346e ad3e 2768 293e
00000070: 41bd 253e 5ba2 2b3d 3808 043e 1eb3 113c
00000080: 0549 5abe d287 f23d 9262 1d3d 4612 e33e
00000090: 1229 93be 213e 1abf 2533 04bf 3545 8b3e
000000a0: 0e57 d5bd d5dc c23d 5119 27bf ebb9 15be
000000b0: a3c8 ffbe b356 db3e fa43 f4be 2390 853e
000000c0: c074 103e a081 6c3e 31a6 10be 71e1 703e
000000d0: 91f9 943e 4f31 ae3e 4acb 533e dbfa f13c
000000e0: f8e2 4c3e 4074 8ebc fe83 ec3d ff55 093f
000000f0: aca7 71be 0398 ddbc 2fac c1be c241 da3d
00000100: 3de5 4a3e afcd 94bd 603b d63d 092e 803d
00000110: 9220 3bbe 99b7 1d3e c48b 253e cf70 ab3d
00000120: f299 85be a7af 8bbd 449a 07bf c64d 923e
00000130: 3571 b2be f123 723c e0e1 7fbe c39b fabe
00000140: 4a00 17bd c12e bf3e b31b 0cbe 6a7a a73e
00000150: 2909 9abe 2b6e cfbd 0f81 45bd d6f2 51be
00000160: 0abc bb3d 8d8e 903e aeb9 acbe 8e7f df3d
00000170: d791 663d e1a5 be3d 64a9 25bf f401 e03c
00000180: 4794 b73d f4f9 34bd 6b9c 4b3d 05cc 9d3e
00000190: db7a 2a3e 6dc2 dabe e2c1 fbbe 78f3 d33e
000001a0: a2c1 2d3e 02ff b9bd c903 d63e ff78 623d
000001b0: 78d6 1d3e 860b f23d 8138 00bf 1ed5 06bf
000001c0: 4f53 c8be 0696 febd 5162 97bd a13e 883e
000001d0: 1c2f 0a3e 3a3e fe3d f16a 03be a0a2 b9be
000001e0: 4d9f e9be 58f1 e6bd e166 6a3e a196 d4be
000001f0: 1770 a93d 8287 6a3e 2dd4 f33d ffbb 07bf

fc.2.weight f4 [128, 128]
-0.2392715 0.006338822 -0.26158044 0.2263979 0.04027747 -0.11518395 -0.50529116 -0.12959285
-0.0026878463 0.028305674 -0.31442383 0.029764134 -0.37438914 -0.22052355 -0.52321035 0.10006508
-0.08275101 0.14802696 -0.0064389165 0.09789605 -0.080491275 0.024156727 0.13636865 -0.13888384
-0.03785168 0.24255423 -0.044633236 -0.5351459 0.015963435 0.06672033 -0.1975211 0.15298995
0.058806 -0.12646392 -0.841087 0.11631053 -0.06059571 -0.20513709 -0.5546204 -0.21687494
-0.2271127 0.011315446 -0.13534553 0.086089045 -0.38066587 -0.31984353 -0.011039613 0.027571034
0.03488189 -0.006418947 -0.15694933 -0.120311886 0.08778236 0.1232109 0.015101536 0.079956196
0.104692236 0.10702625 0.11719798 -0.11148173 -0.21531282 -0.26968318 0.112493 0.09919705
0.039509106 -0.67543185 -0.037577163 -0.043389156 -0.1295787 0.10757803 -0.09031286 -0.04159729
-0.49723583 -0.30026332 -0.20661247 0.008047164 -0.65277094 -0.08784526 -0.043917157 -0.36452234
0.15802504 -0.16430414 -0.04997219 0.026699059 -0.21561389 0.0211009 -0.021913955 -0.019927172
-0.1347732 0.06642129 0.011975928 -0.05004379 0.06230205 -0.019973895 -0.06980801 -0.08626857
-0.04210805 0.082724296 -0.022189012 -0.28855106 -0.09981936 -0.05642758 -0.09521227 0.0060452805
-0.024475547 -0.089130715 -0.24980147 0.06589983 -0.020322496 -0.6486888 -0.0670022 -0.39483157
0.055665884 0.08370528 0.07420689 -0.03024475 0.036913436 -0.38207936 -0.014385971 -0.037412476
-0.91939217 0.05406537 -0.024852632 -0.06374751 -0.27405822 0.06714185 0.07514533 -0.27999687
-0.3556345 -0.05897705 0.015185226 -0.12684827 -0.078183465 -0.25499293 -0.2223727 0.05733765
0.032846358 0.03643839 -0.22866924 -0.14712012 -0.18465926 0.11310581 -0.18469007 0.026586998
-0.039862186 0.057214778 0.106096864 0.05209151 0.05458438 0.03832535 0.09027225 0.12979224
-0.0653843 -0.11437163 -0.21165222 -0.17152947 0.15771037 0.027082834 0.14900658 0.14241353
-0.14239411 -0.095128745 -0.025179064 0.14742677 -0.10609918 -0.16910626 0.009831965 0.07397931
0.10136098 -0.08192698 0.25226533 0.015294853 -0.3848804 0.022280322 -0.20287386 0.04377528
-0.07087267 -0.12348776 -0.02188839 0.09570875 0.15113927 0.18096115 0.025742766 0.06807821
0.1332938 -0.036311004 -0.05440686 0.030459154 -0.1976079 -0.008856792 -0.049012735 -0.015711052
0.13033305 -0.15303262 0.015302725 0.023472302 -0.27425647 0.12363283 -0.4566115 -0.76182365
-0.12081692 -0.35518625 -0.05700686 0.050843652 0.06279837 -0.22191331 0.11693196 0.1016536
-0.07804969 -0.08825322 -0.08297648 -0.025112487 0.0009856904 0.1432 -0.26942742 0.09993278
0.009969643 0.08065237 -0.12537926 0.07121005 0.13951857 -0.02029506 0.16503593 -0.07013239
0.065297745 -0.028149469 -0.03368353 0.081885055 -0.45452783 0.013126232 -0.31916323 0.049427673
0.09502432 0.07472993 0.02939974 -0.0023395964 0.06651253 -0.08573224 -0.36119616 0.07665521
0.07466133 -0.0005236831 -0.13928355 -0.14727452 0.041245103 -0.16633643 -0.13920446 -0.27409592
0.080701254 -0.057915106 0.12973927 0.15008916 0.11303128 0.1329617 0.09721358 -0.40135804
00000000: 9703 75be e5b5 cf3b dfed 85be dad4 673e
00000010: fdf9 243d 90e5 ebbd c35a 01bf fdb3 04be
00000020: 9426 30bb 4de1 e73c 29fc a0be ead3 f33c
00000030: efaf bfbe edd0 61be 1df1 05bf ecee cc3d
00000040: 5d79 a9bd 6194 173e 8cfd d2bb b97d c83d
00000050: 9cd8 a4bd 54e4 c53c 39a4 0b3e 9137 0ebe
00000060: 5d0a 1bbd 2360 783e 57d1 36bd 52ff 08bf
00000070: c0c5 823c aba4 883d f942 4abe 66a9 1c3e
00000080: 8fde 703d c27f 01be 7a51 57bf 3734 ee3d
00000090: 3533 78bd 750f 52be 9afb 0dbf 7714 5ebe
000000a0: 3b90 68be 6c64 393c 0598 0abe 744f b03d
000000b0: a3e6 c2be 88c2 a3be 7edf 34bc a6dc e13c
000000c0: 50e0 0e3d 0856 d2bb 53b7 20be 1466 f6bd
000000d0: 3dc7 b33d ff55 fc3d 6f6c 773c 13c0 a33d
000000e0: e268 d63d 9430 db3d 7f05 f03d 8950 e4bd
000000f0: f77a 5cbe ea13 8abe bb62 e63d d327 cb3d
00000100: 4dd4 213d 1ae9 2cbf 83ea 19bd d4b8 31bd
00000110: 47b0 04be df51 dc3d f3f5 b8bd ec61 2abd
00000120: b295 febe 1dbc 99be 3892 53be 41d8 033c
00000130: ff1b 27bf 37e8 b3bd 7ae2 33bd aca2 babe
00000140: 51d1 213e 583f 28be a4af 4cbd fcb7 da3c
00000150: e3c9 5cbe cbdb ac3c e584 b3bc 4f3e a3bc
00000160: fc01 0abe e307 883d af36 443c b8fa 4cbd
00000170: 6f30 7f3d 4ba0 a3bc 80f7 8ebd 93ad b0bd
00000180: 7e79 2cbd 5b6b a93d bbc5 b5bc f7bc 93be
00000190: 186e ccbd 9b20 67bd a7fe c2bd 7d17 c63b
000001a0: f180 c8bc 2a8a b6bd f5cb 7fbe 7df6 863d
000001b0: 5d7b a6bc 7810 26bf 7338 89bd 5d27 cabe
000001c0: e901 643d ad6d ab3d c8f9 973d d7c3 f7bc
000001d0: 8b32 173d e89f c3be 23b3 6bbc d33d 19bd
000001e0: 495d 6bbf a673 5d3d bf97 cbbc 0e8e 82bd
000001f0: 5c51 8cbe ab81 893d cbe5 993d c05b 8fbe
00000200: ba15 b6be eb91 71bd 74cb 783c 83e4 01be
00000210: a71e a0bd 6f8e 82be abb5 63be e2da 6a3d
00000220: e789 063d 6c40 153d 4528 6abe a8a6 16be
00000230: 5117 3dbe 05a4 e73d 651f 3dbe facc d93c
00000240: 8846 23bd 0b5a 6a3d 5049 d93d e85d 553d
00000250: df93 5f3d 0bfb 1c3d a8e0 b83d 42e8 043e
00000260: 34e8 85bd ac3b eabd 5cbb 58be 6ca5 2fbe
00000270: d47e 213e d2dc dd3c 2e95 183e dad4 113e
00000280: c3cf 11be dcd2 c2bd 5344 cebc 0bf7 163e
00000290: 874a d9bd 312a 2dbe 4016 213c 7782 973d
000002a0: 5896 cf3d 55c9 a7bd ec28 813e 4397 7a3c
000002b0: 0b0f c5be 3985 b63c 2abe 4fbe b54d 333d
000002c0: b125 91bd 27e7 fcbd 484f b3bc f302 c43d
000002d0: 41c4 1a3e e14d 393e 7ee2 d23c 976c 8b3d
000002e0: 2b7e 083e d9ba 14bd bad9 5ebd 7a85 f93c
000002f0: ba59 4abe 141c 11bc 94c1 48bd 77b4 80bc
00000300: 0776 053e 95b4 1cbe 48b8 7a3c fc48 c03c
00000310: 586b 8cbe 3633 fd3d fcc8 e9be e006 43bf
00000320: dd6e f7bd f9da b5be 0680 69bd 6f41 503d
00000330: 6f9c 803d 3e3d 63be 067a ef3d c32f d03d
00000340: 84d8 9fbd 1bbe b4bd 93ef a9bd b4b8 cdbc
00000350: 4832 813a 05a3 123e 64f2 89be 8fa9 cc3d
00000360: b757 233c 122d a53d 6c63 00be 93d6 913d
00000370: f5dd 0e3e d341 a6bc 2eff 283e 92a1 8fbd
00000380: d3ba 853d b799 e6bc bef7 09bd 5ab3 a73d
00000390: dfb7 e8be 680f 573c 5d69 a3be ac74 4a3d
000003a0: 1c9c c23d 010c 993d b9d7 f03c ea53 19bb
000003b0: b937 883d 6294 afbd b4ee b8be 68fd 9c3d
000003c0: 0ae8 983d c747 09ba 59a0 0ebe 22cf 16be
000003d0: a0f0 283d 1954 2abe 9d8b 0ebe 4d56 8cbe
000003e0: b346 a53d 6438 6dbd 5fda 043e f9b0 193e
000003f0: f27c e73d 1d27 083e ea17 c73d cd7e cdbe

fc.2.bias f4 [128]
-0.057805624 0.025695832 0.019952886 0.049713887 0.09725049 -0.16614982 0.04424726 0.009554226
0.14592779 0.020928254 0.058982708 -0.05918233 0.13225746 -0.13212505 0.08516834 -0.07453794
0.084702544 -0.12924142 0.07513696 -0.0077112424 0.12024734 -0.0041243504 0.0115629 0.046104465
0.073332965 0.024896538 0.049503636 0.14484204 -0.072935596 0.06829093 -0.045989472 0.0699262
-0.07159381 -0.084645644 -0.08436704 0.030121407 -0.020013155 0.04224254 -0.094942786 -0.028443795
-0.104975276 0.04307094 0.0688389 -0.033247024 0.044697072 -0.051407754 0.06615992 -0.040299345
-0.0038710725 -0.05541261 0.06485718 0.054560725 0.0361325 0.0018872854 0.058552034 0.025790762
-0.055242892 -0.0698118 -0.011910165 -0.11677168 -0.006064397 -0.00990278 -0.059669435 -0.040970434
-0.02139064 0.13118853 -0.01155939 0.0054784203 0.16620775 0.048108075 0.04606469 0.12111142
-0.002483189 0.008696854 0.03752941 0.049042888 -0.099858664 -0.012185988 -0.0784807 -0.08335282
0.001251027 0.080595724 -0.021407092 0.08336774 0.031787626 -0.04384385 -0.09691622 -0.09955413
-0.14489856 0.10828567 0.08876752 -0.033043362 0.06246249 -0.046902493 -0.09883108 0.19485733
0.16401505 0.035321355 0.0822616 -0.040152904 0.01422187 -0.15763886 0.050408848 0.16563702
0.0017543056 0.07886681 0.12538199 -0.027865358 0.07325826 0.03674115 -0.011569731 0.15205635
-0.13270009 0.10848645 -0.0211447 0.05841034 0.058109254 -0.02427197 0.17735994 0.019974446
0.038082346 -0.022264881 -0.013245588 0.118785925 0.1320371 0.05861296 0.027384665 -0.022125425
00000000: 97c5 6cbd 1180 d23c 3c74 a33c caa0 4b3d
00000010: 442b c73d 2e23 2abe 9d3c 353d 5489 1c3c
00000020: 186e 153e bb71 ab3c da97 713d 2c69 72bd
00000030: 806e 073e ca4b 07be bd6c ae3d 59a7 98bd
00000040: 8778 ad3d dd57 04be 68e1 993d 97ae fcbb
00000050: 3d44 f63d 8f25 87bb 5172 3d3c 09d8 3c3d
00000060: 982f 963d d3f3 cb3c 53c4 4a3d 7951 143e
00000070: 425f 95bd 1ddc 8b3d 755f 3cbd 7835 8f3d
00000080: c79f 92bd b25a adbd a0c8 acbd 2bc1 f63c
00000090: a1f2 a3bc 8306 2d3d 5d71 c2bd f602 e9bc
000000a0: 47fd d6bd 276b 303d 69fb 8c3d 082e 08bd
000000b0: 4714 373d f090 52bd da7e 873d ed10 25bd
000000c0: d2b1 7dbb 55f8 62bd d7d3 843d 117b 5f3d
000000d0: acff 133d ca5e f73a 42d4 6f3d 2647 d33c
000000e0: 5f46 62bd 7df9 8ebd da22 43bc fe25 efbd
000000f0: d9b7 c6bb 453f 22bc f067 74bd 9dd0 27bd
00000100: 6c3b afbc 4956 063e 9963 3dbc 5284 b33b
00000110: 5d32 2a3e f90c 453d 54ae 3c3d 4409 f83d
00000120: 00bd 22bb 407d 0e3c 70b8 193d 32e1 483d
00000130: b382 ccbd bda7 47bc 7dba a0bd e2b4 aabd
00000140: 80f9 a33a 5f0f a53d ed5d afbc b5bc aa3d
00000150: be33 023d 9c95 33bd 037c c6bd 09e3 cbbd
00000160: 4a60 14be e1c4 dd3d bfcb b53d 7a58 07bd
00000170: abd8 7f3d d41c 40bd f367 cabd ae88 473e
00000180: 90f3 273e 20ad 103d c578 a83d 5f77 24bd
00000190: d902 693c 156c 21be 8279 4e3d c09c 293e
000001a0: baf0 e53a ec84 a13d 2364 003e e445 e4bc
000001b0: 6d08 963d e37d 163d f88e 3dbc a9b4 1b3e
000001c0: 88e2 07be 252e de3d a637 adbc ae3f 6f3d
000001d0: f803 6e3d 03d6 c6bc d89d 353e 73a1 a33c
000001e0: 3cfc 1b3d d764 b6bc 0604 59bc 0946 f33d
000001f0: bc34 073e 2514 703d ce55 e03c 6140 b5bc

mean.weight f4 [2, 128]
-0.1461079 0.35761076 -0.13074057 0.00467066 -0.026397578 0.61984116 -0.042584226 0.14054373
0.028883418 -0.3103032 0.08153655 0.04226258 -0.028509106 -0.05852107 -0.009009677 0.022674834
-0.2116627 0.4498244 0.009270267 -0.17289947 0.115940265 0.39388072 0.053004112 0.19664669
0.026048418 -0.062335983 -0.00676897 0.05275314 0.050779495 0.010101176 -0.10516323 -0.17260054
0.15122782 0.034453627 0.0034787876 -0.05879299 -0.41247642 0.0130270505 0.113036 -0.1738026
-1.2662213 0.06697984 0.024806116 -0.0768037 0.15097897 -0.25151926 0.044783417 0.1395319
0.04202023 -0.14457528 0.09779824 -0.10590235 0.44482216 -0.004487616 -0.13078211 -0.68062663
-0.15936446 0.07698028 -0.039303347 -0.5796138 -0.08721832 0.0024910767 -0.2946987 -0.16119249
-0.5142337 -0.022740282 -0.013868035 -0.28749144 0.077433154 0.7931463 -0.13876441 -0.16671273
0.041410886 0.086692706 0.012322626 -0.093761176 -0.10415618 0.196142 0.7280696 -0.014349333
0.06449769 -0.18970641 0.036082637 0.075903825 0.011276888 -0.06398428 -0.07101835 0.20794633
0.21215793 -0.035719182 0.027297651 0.06910346 0.032765973 -0.040287733 -0.096676156 0.10329962
0.09905764 -0.41038436 0.119161114 0.38445914 0.0066594845 0.06310877 0.34453124 0.07176837
0.037130322 0.01092599 0.037557606 -0.0660351 0.20663106 0.20169587 -0.024945755 -0.015762556
-0.14573047 -0.07050297 -0.17457944 -0.027954848 -0.012432644 -0.02307377 0.060412243 -0.01564316
0.041297875 -0.019183874 0.09352815 0.07574007 0.16201763 0.04171366 -0.25363198 -0.06458563
0.19758272 0.17890689 0.2710381 0.5215279 0.07396958 -0.1708691 -0.13549851 -0.09700065
0.01681811 0.011943887 -0.16304173 0.01928845 -0.22660495 0.08676831 -0.031694926 -0.17572682
-0.005152798 0.10300877 0.17858538 -0.24885863 -0.18842585 0.099706136 0.049654063 0.097441025
0.0021962207 -0.07266116 0.14051624 -0.08887615 -0.043387838 -0.016005108 0.046013694 -0.36481932
0.19927604 0.05838039 -0.03612681 0.019650681 -0.26587504 -0.0029278654 0.124101594 -0.051161334
0.15912387 0.06292636 0.036792494 -0.06695343 0.035344444 -0.13157403 0.07454636 0.05021755
-0.2267702 0.20435089 -0.6155664 0.13702269 0.05584038 0.05395296 0.06922225 0.013839333
0.10910862 0.027586937 -0.0047357306 0.04205811 0.07254811 -0.010761274 0.19888592 0.09291015
0.06750137 0.121090665 0.04333032 -0.3701032 -0.016651778 -0.058807697 0.2751613 0.08504955
-0.0114974305 -0.041648578 -0.057693027 0.08744952 0.25921822 -0.13790454 0.07019555 0.35394388
-0.06839944 -0.119476266 -0.059401955 0.07190149 -0.09750703 -0.49459934 -0.035607427 -0.2108262
0.73764926 0.10495693 -0.4688875 -0.0053212005 -0.12580901 -0.16810842 -0.18557441 -0.133745
0.24794142 -0.10153726 0.07979402 -0.4698706 -0.16493995 0.07679604 0.53622246 -0.22075488
-0.054341856 0.02484151 -0.0055047125 0.02006676 -0.4174648 -0.11098099 0.13746326 -0.09293826
-0.13569914 0.19449589 -0.094948046 0.0015304429 0.057680663 -0.055507157 0.107021734 -0.046028905
-0.022705493 -0.026360437 0.16944405 0.07773798 -0.13724361 -0.18936633 -0.31101668 0.07051887
00000000: 4f9d 15be c218 b73e dbe0 05be 560c 993b
00000010: bc3f d8bc e9ad 1e3f cc6c 2ebd b2ea 0f3e
00000020: eb9c ec3c 10e0 9ebe a2fc a63d 871b 2d3d
00000030: ee8b e9bc cab3 6fbd 539d 13bc 93c0 b93c
00000040: 1bbe 58be 624f e63e 51e2 173c 8f0c 31be
00000050: 1772 ed3d bcaa c93e d71a 593d c05d 493e
00000060: 7e63 d53c 0454 7fbd 3cce ddbb ad13 583d
00000070: 29fe 4f3d 677f 253c d25f d7bd 32be 30be
00000080: 77db 1a3e 3f1f 0d3d 5ffc 633b ebd0 70bd
00000090: 1c30 d3be 696f 553c 6b7f e73d 4ff9 31be
000000a0: 8a13 a2bf ba2c 893d 3236 cb3c 424b 9dbd
000000b0: 3b9a 1a3e 22c7 80be d16e 373d 73e1 0e3e
000000c0: 681d 2c3d 8b0b 14be 724a c83d 55e3 d8bd
000000d0: bbbf e33e da0c 93bb bfeb 05be 8c3d 2ebf
000000e0: 7030 23be d6a7 9d3d 8cfc 20bd 9261 14bf
000000f0: 859f b2bd 5541 233b bfe2 96be a50f 25be
00000100: d2a4 03bf d449 babc c136 63bc 1432 93be
00000110: 4695 9e3d a30b 4b3f 4218 0ebe beb6 2abe
00000120: 769e 293d f28b b13d d7e4 493c dc05 c0bd
00000130: d64f d5bd 73d9 483e c562 3a3f 7719 6bbc
00000140: 5d17 843d 6642 42be 63cb 133d 7773 9b3d
00000150: b2c2 383c 310a 83bd 1272 91bd e2ef 543e
00000160: ee3f 593e 474e 12bd 539f df3c 1d86 8d3d
00000170: 9d35 063d c004 25bd 26fe c5bd c08e d33d
00000180: bbde ca3d e61d d2be be0a f43d d4d7 c43e
00000190: ce37 da3b 2c3f 813d 6666 b03e 4cfb 923d
000001a0: f715 183d ec02 333c 01d6 193d 693d 87bd
000001b0: 1897 533e 5d89 4e3e 0a5b ccbc 7a20 81bc
000001c0: 5e3a 15be dc63 90bd f4c4 32be 9101 e5bc
000001d0: 4ab2 4bbc 3405 bdbc d472 773d 1626 80bc
000001e0: f627 293d 8027 9dbc b08b bf3d 9c1d 9b3d
000001f0: f3e7 253e f1db 2a3d 0ddc 81be 7945 84bd
00000200: 2053 4a3e 5e33 373e 81c5 8a3e da82 053f
00000210: 5d7d 973d 4ff8 2ebe 1fc0 0abe 47a8 c6bd
00000220: 22c6 893c 4bb0 433c 69f4 26be d002 9e3c
00000230: 210b 68be 95b3 b13d 8ad2 01bd bbf1 33be
00000240: cdd8 a8bb 43f6 d23d 16df 363e ccd4 7ebe
00000250: b5f2 40be bb32 cc3d 0f62 4b3d 298f c73d
00000260: 78ee 0f3b 60cf 94bd 7de3 0f3e b304 b6bd
00000270: 72b7 31bd 251d 83bc db78 3c3d 99c9 babe
00000280: 050f 4c3e 4720 6f3d b5f9 13bd 77fa a03c
00000290: c620 88be 6ee1 3fbb fa28 fe3d 8c8e 51bd
000002a0: 5ef1 223e 89df 803d bab3 163d e11e 89bd
000002b0: 56c5 103d 58bb 06be c3ab 983d ebb0 4d3d
000002c0: 7336 68be 5c41 513e c295 1dbf ad4f 0c3e
000002d0: e2b8 643d c7fd 5c3d 65c4 8d3d 5fbe 623c
000002e0: 5774 df3d 00fe e13c 302e 9bbb 2045 2c3d
000002f0: 1a94 943d 0e50 30bc c0a8 4b3e ad47 be3d
00000300: 293e 8a3d 62fe f73d 227b 313d 2b7e bdbe
00000310: 4f69 88bc 57e0 70bd f1e1 8c3e 752e ae3d
00000320: b85f 3cbc b397 2abd 864f 6cbd bc18 b33d
00000330: 40b8 843e d936 0dbe afc2 8f3d 2238 b53e
00000340: 0115 8cbd f9af f4bd 774f 73bd 1741 933d
00000350: c4b1 c7bd 203c fdbe 18d9 11bd d3e2 57be
00000360: 95d6 3c3f a9f3 d63d 0612 f0be 775d aebb
00000370: 14d4 00be 9d24 2cbe 3807 3ebe 73f4 08be
00000380: 5be4 7d3e c4f2 cfbd 0c6b a33d e192 f0be
00000390: 05e6 28be 3e47 9d3d e045 093f 910d 62be
000003a0: 9195 5ebd 6c80 cb3c e060 b4bb 0c63 a43c
000003b0: f2bd d5be 004a e3bd 2bc3 0c3e 6a56 bebd
000003c0: b7f4 0abe ee29 473e 1f74 c2bd 2499 c83a
000003d0: 8f42 6c3d 795b 63bd 362e db3d ce88 3cbd
000003e0: df00 babc d8f1 d7bc be82 2d3e 1735 9f3d
000003f0: 9789 0cbe 3fe9 41be 943d 9fbe 336c 903d

mean.bias f4 [2]
0.018132133 0.08478805
00000000: d789 943c 5ba5 ad3d

log_std.weight f4 [2, 128]
-0.12922648 0.31761417 0.11293105 -0.07395289 -0.59209466 0.30952936 -0.13806714 -0.045435376
-0.47102255 0.30954784 0.040012244 0.04949191 -0.6147456 0.07341018 -0.06887647 0.09118188
0.12795013 0.15589741 -0.11632389 -0.5665315 0.18570824 0.4121329 -0.02866584 0.05127971
-0.24089485 0.08082456 0.1609732 -0.21312036 -0.0641391 -0.17687197 0.013890611 -0.17653501
0.07027455 0.041668214 0.0050135483 -0.041521106 0.19553414 0.036604993 0.033712834 0.23154557
1.0277567 -0.060353108 -0.1340351 0.09467209 -0.36500993 -0.31347868 0.18729022 0.11088337
-0.042204298 -0.15332893 0.3338404 -0.13259476 0.2687968 0.024134608 -0.147181 0.70335984
0.0056594387 -0.0113616595 -0.29374087 0.38677695 0.0068504205 -0.16738811 -0.18185285 -0.15792897
-0.67682344 0.009845243 0.042894993 -0.040731266 -0.3206572 0.8453789 -0.44681263 -0.12896375
0.0289613 -0.3231955 -0.1707504 -0.24262118 0.14034495 0.11660759 0.6242611 0.22402519
0.017235585 -0.039668497 -0.05619335 -0.13747469 -0.003036089 0.09185561 -0.047492262 0.14075673
0.10440914 -0.2523883 0.06288002 -0.046061173 0.0142489495 -0.11829839 0.01014328 -0.02133167
-0.108686216 0.23411675 -0.06766503 0.24088995 -0.08358739 -0.054882944 0.44404727 0.08641028
-0.012545916 -0.14029863 -0.14678966 0.09069237 0.097190775 0.33672085 -0.17369244 -0.1549249
0.034659587 -0.09251427 0.2569244 -0.06316213 -0.038257968 -0.07199581 -0.061288837 -0.018119548
0.01790991 0.026695272 0.19904767 -0.09549089 -0.012394334 -0.020777179 0.14462273 -0.28018534
-0.22104493 0.29417616 0.043427087 0.5584423 -0.08021896 -0.009618461 -0.24180572 -0.10391827
-0.06529206 0.123759255 0.11647511 0.069182225 0.085338816 0.6754538 -0.48215953 0.17133707
0.21656533 -0.16625522 0.26120204 0.40335783 0.6531089 0.0296636 -0.029173499 -0.12689695
-0.15669814 0.041199353 -0.14930871 -0.28663796 -0.014278628 -0.024958758 -0.03137665 0.022816082
-0.078310855 0.032487977 0.030389704 -0.0316161 0.034269866 0.06908242 -0.046149984 0.056736376
0.23734209 -0.04683677 -0.344694 0.3686895 -0.36459813 -0.019322164 0.09778296 -0.14768715
-0.006043789 -0.2174984 0.49765244 -0.10502513 0.095056504 -0.01803298 0.007836871 -0.12550691
-0.19790795 -0.06636487 -0.25559846 0.094549514 0.16222921 -0.13946043 0.034771908 -0.0496532
0.23924296 -0.100364976 -0.03871451 0.31786078 -0.15163158 0.067621104 -0.18319549 -0.18666475
0.04627914 -0.27506277 -0.10535535 -0.16171855 0.08966954 0.028121963 0.03181433 0.31116888
-0.03385669 -0.32699665 -0.048144203 0.056154568 0.085838675 0.71774054 -0.21506704 0.0032765558
0.5397408 -0.017846568 0.40120128 0.04907663 -0.122421525 0.00828487 0.24637292 -0.24036314
0.056821097 -0.06538096 -0.20809828 0.09777247 -0.1914882 0.13980427 0.4893598 0.34502736
0.095286205 -0.30522528 -0.009640263 -0.0069626193 0.19028534 0.3145686 -0.04171129 -0.3707096
0.19618355 0.0073346635 0.2482605 -0.000408472 -0.0244807 0.005031174 -0.058497347 0.07200037
0.080176584 0.036058187 0.13880181 -0.15877713 -0.2550976 -0.04198984 0.012426346 0.012472105
00000000: f253 04be 539e a23e 6548 e73d 9d74 97bd
00000010: 8493 17bf a27a 9e3e 7961 0dbe 721a 3abd
00000020: de29 f1be 0e7d 9e3e e1e3 233d 07b8 4a3d
00000030: f85f 1dbf 1458 963d 1b0f 8dbd 91bd ba3d
00000040: 5c05 033e 92a3 1f3e 383b eebd 3508 11bf
00000050: 4d2a 3e3e 1503 d33e a0d4 eabc ac0a 523d
00000060: 24ad 76be 5987 a53d 29d6 243e 393c 5abe
00000070: 5c5b 83bd ed1d 35be 7295 633c 98c5 34be
00000080: 1aec 8f3d 4aac 2a3d b148 a43b 0912 2abd
00000090: 1a3a 483e 1eef 153d 7816 0a3d 481a 6d3e
000000a0: 888d 833f d234 77bd 7f40 09be 71e3 c13d
000000b0: 95e2 babe 4780 a0be 02c9 3f3e d216 e33d
000000c0: 6ade 2cbd 4202 1dbe 21ed aa3e ecc6 07be
000000d0: bc9f 893e f1b5 c53c 9eb6 16be 640f 343f
000000e0: d072 b93b 4126 3abc 3465 96be a107 c63e
000000f0: 7e79 e03b ca67 2bbe a237 3abe 22b8 21be
00000100: 4d44 2dbf f14d 213c a9b2 2f3d d4d5 26bd
00000110: 2e2d a4be c06a 583f a0c4 e4be 130f 04be
00000120: 4040 ed3c e179 a5be 31d9 2ebe b071 78be
00000130: 96b6 0f3e f6cf ee3d 93cf 1f3f dc66 653e
00000140: a431 8d3c 6f7b 22bd 002b 66bd 2ac6 0cbe
00000150: 1ff9 46bb cb1e bc3d 3f87 42bd 8822 103e
00000160: 76d4 d53d 0a39 81be 3dc7 803d a4aa 3cbd
00000170: 6d74 693c 6d46 f2bd 0030 263c c1bf aebc
00000180: e196 debd 4dbc 6f3e f793 8abd dbab 763e
00000190: de2f abbd f0cc 60bd 2a5a e33e dff7 b03d
000001a0: 638d 4dbc 72aa 0fbe 0750 16be ecbc b93d
000001b0: f50b c73d ad66 ac3e 6edc 31be a2a4 1ebe
000001c0: 36f7 0d3d 1f78 bdbd 988b 833e 265b 81bd
000001d0: 63b4 1cbd 8a72 93bd 010a 7bbd 726f 94bc
000001e0: ceb7 923c 0bb0 da3c 27d3 4b3e ba90 c3bd
000001f0: 9b11 4bbc e734 aabc fb17 143e 7474 8fbe
00000200: 9a59 62be 429e 963e 9ae0 313d 13f6 0e3f
00000210: d749 a4bd c096 1dbc eb9b 77be 1ad3 d4bd
00000220: d8b7 85bd 7e75 fd3d 818a ee3d 69af 8d3d
00000230: 1ec6 ae3d 8aea 2c3f 9ddd f6be fc72 2f3e
00000240: 4dc3 5d3e cf3e 2abe 46bc 853e eb84 ce3e
00000250: 2532 273f 1401 f33c 43fd eebc 46f1 01be
00000260: 7a75 20be a7c0 283d 62e4 18be 36c2 92be
00000270: e8f0 69bc 4f76 ccbc cd84 00bd cbe8 ba3c
00000280: 7161 a0bd 1d12 053d d4f3 f83c e27f 01bd
00000290: 8f5e 0c3d 157b 8d3d c407 3dbd 6764 683d
000002a0: ce09 733e ead7 3fbd bb7b b0be dfc4 bc3e
000002b0: 9bac babe 8449 9ebc 6f42 c83d 4d3b 17be
000002c0: fa0a c6bb e7b7 5ebe 4dcc fe3e 6a17 d7bd
000002d0: fcac c23d e6b9 93bc 3866 003c e284 00be
000002e0: 62a8 4abe 4eea 87bd cddd 82be 2da3 c13d
000002f0: 6a1f 263e b7ce 0ebe fd6c 0e3d 2761 4bbd
00000300: 1bfc 743e 278c cdbd 1b93 1ebd a6be a23e
00000310: 4f45 1bbe ef7c 8a3d 9997 3bbe 0b25 3fbe
00000320: 328f 3d3d 07d5 8cbe 8cc4 d7bd 8c99 25be
00000330: aaa4 b73d 0860 e63c be4f 023d 8751 9f3e
00000340: 50ad 0abd 1b6c a7be db32 45bd 5502 663d
00000350: 30cc af3d d8bd 373f 893a 5cbe 7cbb 563b
00000360: 742c 0a3f f732 92bc 416a cd3e 9404 493d
00000370: 23b8 fabd 43bd 073c 2f49 7c3e c121 76be
00000380: 3dbd 683d 74e6 85bd b717 55be ef3c c83d
00000390: 7c15 44be da28 0f3e 5e8d fa3e 6da7 b03e
000003a0: 6a25 c33d 7d46 9cbe 32f2 1dbc af26 e4bb
000003b0: 29da 423e 230f a13e 75d9 2abd a6cd bdbe
000003c0: 57e4 483e 9e57 f03b 0038 7e3e 2f28 d6b9
000003d0: c08b c8bc 8cdc a43b ea9a 6fbd ee74 933d
000003e0: 9f33 a43d c0b1 133d 1022 0e3e 7996 22be
000003f0: 279c 82be 8afd 2bbd df97 4b3c cd57 4c3c

log_std.bias f4 [2]
-0.19426164 -0.26176924
00000000: 86ec 46be 9e06 86be
