sac_actor.pth (torch, 74345 bytes, 8 tensors)

fc.0.weight f4 [128, 4]
0.25768378 -0.10568433 -0.06139922 0.379377 0.064744584 -0.31139106 -0.22404744 0.38589945
-0.42791387 0.2564045 0.38685977 0.073000886 -0.20438963 -0.47029585 -0.028881725 0.29647598
0.20379016 0.24101825 -0.3133128 0.21969162 -0.7196554 0.26211962 0.26282343 -0.19799241
-0.31353936 0.3674177 -0.0055313753 -0.4172275 0.0060959226 -0.044836923 0.2517335 -0.025157098
-0.43672103 -0.19850731 0.57257456 0.4376309 -0.14570647 -0.20967956 0.16774224 0.4749876
-0.065503985 0.5680456 -0.061052274 0.37085223 0.064055786 -0.31282657 -0.17202133 0.5744746
-0.21239221 0.40281245 0.42463377 0.3016119 -0.11292653 0.27894744 0.033216644 0.13155335
-0.47720227 0.14894848 0.06470491 -0.028504577 0.45140263 0.015427872 -0.2666281 -0.5326129
-0.16526823 -0.46423092 0.34931484 0.32027638 -0.31571838 0.4224868 0.4335422 -0.30744785
-0.37924603 0.1623919 0.8104611 0.16200827 0.15714073 0.3434976 -0.26191297 0.22818772
0.6043199 0.042900015 -0.65965754 -0.25471693 0.5007239 0.46436715 -0.5030406 -0.46027845
0.3686018 0.18655488 -0.17876808 0.11249217 0.52165097 -0.3477362 -0.24865946 -0.17141217
0.3859643 -0.4632872 -0.5065019 0.5105511 -0.5435283 0.075483024 0.4966319 -0.22760409
-0.4716547 0.12170043 0.19215736 -0.37439963 -0.24702537 0.46897078 0.044993807 -0.15546095
-0.26266694 0.529688 -0.29677716 -0.42392576 -0.13979155 0.35805938 0.24116269 -0.076764
-0.33352298 -0.44364318 0.22424613 -0.6087292 0.10635466 0.2566761 -0.38086993 0.20047104
0.17543401 0.050183937 -0.42985752 -0.53725475 -0.28362712 -0.24114321 0.38535598 -0.043755695
-0.2821185 -0.11579595 -0.19838211 -0.31073138 0.34359762 -0.54630214 0.49603522 0.64318943
-0.19610658 -0.31661624 0.24533963 -0.14963828 0.03354721 0.5698754 0.45425674 -0.24162203
-0.007872639 -0.56443506 -0.045419816 0.51911974 -0.008177801 -0.065854244 0.23756298 -0.17493796
0.13795836 -0.464243 -0.19810936 0.19555603 0.39481091 0.19510792 -0.5052626 -0.12343049
0.21459645 -0.47002092 -0.4569733 0.5864829 -0.50456136 -0.41834337 0.019147828 0.42954636
0.46196726 0.10415476 -0.45783508 -0.0784646 -0.27641222 0.3980731 0.17364536 -0.16250461
-0.009380409 0.4853588 -0.16303 -0.41537794 0.39153305 0.21443851 -0.3950768 -0.22030266
-0.0066664214 -0.6760876 0.2209297 0.63988024 0.35159022 -0.04732209 -0.65595883 -0.34636065
-0.3091182 -0.03895062 -0.096171536 -0.6228764 0.22165334 0.13670218 0.113671266 0.010950071
0.0055197133 0.35298952 0.13823436 -0.4910932 -0.0026893283 0.30903062 -0.30616376 0.16745394
0.012386445 0.06257332 -0.6788926 -0.2649655 0.037369825 -0.32817504 -0.39190096 0.4454501
-0.5450813 -0.37376204 0.3594771 0.10751846 0.42729646 0.65986264 -0.26509243 0.11641704
-0.4217548 0.123649135 0.4208861 -0.40177086 0.051428866 0.03466317 0.27729902 -0.3386895
-0.014889723 -0.17782155 -0.22922018 -0.3605249 0.04038951 -0.567268 -0.3793821 0.32148278
-0.04020217 0.4246855 0.3721675 0.2889651 0.4582288 0.27722296 -0.4487221 -0.28486285
00000000: 21ef 833e 0771 d8bd c07d 7bbd b43d c23e
00000010: cf98 843d a66e 9fbe b16c 65be 9d94 c53e
00000020: 8717 dbbe 7347 833e 7c12 c63e 7d81 953d
00000030: 844b 51be 9eca f0be 5e99 ecbc b3cb 973e
00000040: 5eae 503e 7dcd 763e 896a a0be d7f6 603e
00000050: 563b 38bf 8b34 863e cb90 863e 86be 4abe
00000060: 3b88 a0be 2c1e bc3e 8a40 b5bb d89e d5be
00000070: 4ec0 c73b eca6 37bd 37e3 803e 4216 cebc
00000080: e699 dfbe 8045 4bbe 3f94 123f 2811 e03e
00000090: 1434 15be 3db6 56be 9fc4 2b3e 9331 f33e
000000a0: f426 86bd 706b 113f f311 7abd 58e0 bd3e
000000b0: ae2f 833d ce2a a0be 5c26 30be c410 133f
000000c0: 587d 59be 6f3d ce3e 9969 d93e e06c 9a3e
000000d0: 0646 e7bd 33d2 8e3e 2d0e 083d ecb5 063e
000000e0: db53 f4be f385 183e 0284 843d 6e82 e9bc
000000f0: 3f1e e73e 2fc5 7c3c 7a83 88be 5259 08bf
00000100: 133c 29be adaf edbe 65d9 b23e 44fb a33e
00000110: d7a5 a1be 3150 d83e 3ef9 dd3e ce69 9dbe
00000120: 892c c2be 104a 263e 617a 4f3f 7fe5 253e
00000130: 80e9 203e ebde af3e 7519 86be 0baa 693e
00000140: b5b4 1a3f edb7 2f3d 51df 28bf 426a 82be
00000150: 712f 003f 88c1 ed3e 45c7 00bf 9ea9 ebbe
00000160: 60b9 bc3e 3e08 3f3e fb0e 37be 4b62 e63d
00000170: eb8a 053f 7b0a b2be 96a0 7ebe ac86 2fbe
00000180: 1d9d c53e fb33 edbe 1caa 01bf 7ab3 023f
00000190: ac24 0bbf d896 9a3d 8946 fe3e 0c11 69be
000001a0: ba7c f1be 133e f93d e6c4 443e 4fb1 bfbe
000001b0: 38f4 7cbe f01c f03e 6d4b 383d 2831 1fbe
000001c0: 487c 86be a299 073f 2df3 97be cc0c d9be
000001d0: 8425 0fbe 8f53 b73e 5af3 763e 7236 9dbd
000001e0: 86c3 aabe 3325 e3be c7a0 653e add5 1bbf
000001f0: 79d0 d93d 0d6b 833e 6201 c3be 4848 4d3e
00000200: f9a4 333e ac8d 4d3d 4916 dcbe 8789 09bf
00000210: 9337 91be 3fee 76be 614d c53e 2c39 33bd
00000220: d671 90be 6d26 edbd ae24 4bbe 2f18 9fbe
00000230: 07ec af3e 75da 0bbf 54f8 fd3e 10a8 243f
00000240: 2ad0 48be 861b a2be 503a 7b3e c73a 19be
00000250: cd68 093d 5be3 113f 5794 e83e c46b 77be
00000260: 3efc 00bc d17e 10bf 210a 3abd 08e5 043f
00000270: 2ffc 05bc 97de 86bd b643 733e f022 33be
00000280: f544 0d3e 42b1 edbe 2edd 4abe d73f 483e
00000290: a824 ca3e 5fca 473e e458 01bf 20c9 fcbd
000002a0: 2cbf 5b3e 95a6 f0be 68f8 e9be be23 163f
000002b0: ef2a 01bf 1a31 d6be e8db 9c3c 80ed db3e
000002c0: f986 ec3e 174f d53d 5c69 eabe 0cb2 a0bd
000002d0: e785 8dbe 3dd0 cb3e 17d0 313e 9c67 26be
000002e0: 49b0 19bc f380 f83e 56f1 26be 6bac d4be
000002f0: 0577 c83e c595 5b3e 8247 cabe 0597 61be
00000300: ff71 dabb 1414 2dbf 653b 623e 31cf 233f
00000310: a203 b43e cfd4 41bd ebec 27bf 2f56 b1be
00000320: be44 9ebe af8a 1fbd 95f5 c4bd d474 1fbf
00000330: 18f9 623e a8fb 0b3e 7bcc e83d ed67 333c
00000340: b6de b43b 0bbb b43e 4f8d 0d3e 9170 fbbe
00000350: 713f 30bb 4339 9e3e 7fc1 9cbe 0c79 2b3e
00000360: 84f0 4a3c 7126 803d e8cb 2dbf 8fa9 87be
00000370: 1a11 193d 8f06 a8be 3ea7 c8be 0912 e43e
00000380: 738a 0bbf bd5d bfbe 620d b83e a332 dc3d
00000390: 9ac6 da3e c2ec 283f 32ba 87be 0f6c ee3d
000003a0: 3ff0 d7be c23b fd3d 627e d73e e9b4 cdbe
000003b0: 13a7 523d f8fa 0d3d 23fa 8d3e b668 adbe
000003c0: 06f4 73bc da16 36be b2b8 6abe b896 b8be
000003d0: 796f 253d 7a38 11bf 5f3e c2be 6499 a43e
000003e0: 08ab 24bd 6170 d93e bd8c be3e 3cf3 933e
000003f0: f79c ea3e 2bf0 8d3e e7be e5be 8bd9 91be

fc.0.bias f4 [128]
0.21884537 0.42994887 -0.41922742 0.0913585 0.023027075 -0.16154873 -0.56255585 0.2057072
0.031028131 0.46771812 -0.6041283 0.17545198 -0.22556143 0.05519682 0.4551394 -0.28046757
0.1524762 0.23594745 -0.14697844 -0.058405258 0.17481707 0.02918173 0.13908555 0.44074807
0.17583302 0.11902818 -0.64019203 -0.5711949 -0.4133735 -0.097605966 -0.6922578 0.254931
-0.49201313 -0.18111984 -0.4413303 0.20446798 0.0073978906 0.07228309 0.16844064 0.020358132
-0.9221761 0.046951454 -0.18244782 -0.30806696 0.012421482 -0.58677936 -0.41099557 0.051911272
0.24503121 -0.39835975 -0.010399046 0.2797922 0.38901985 -0.3279832 -0.18867034 0.11145875
-0.5699373 -0.24586557 0.3024876 0.28354603 0.05333924 0.3038095 -0.20303482 0.077247396
-1.1389478 0.26739323 -0.17566432 -0.3821662 -0.11905974 -0.37247577 0.34868613 -0.49632964
-0.2780352 -0.08627555 -0.17272757 0.12195334 -0.11409842 -0.05430147 0.046746947 -0.038016208
0.19032517 0.4010267 0.38463742 -0.4502055 -0.20143147 -0.48087442 -0.15113217 -0.067040615
-0.022210147 0.26394534 0.051461924 0.06972389 0.12266439 0.34763733 -0.40584537 -1.2386814
-0.4346372 0.26234812 0.10218799 -0.21340676 -0.48015496 0.104820356 0.17758289 0.07456876
-0.14155221 0.25417626 0.06036937 0.4386575 0.07406086 -0.67510843 -0.53916734 0.21694873
0.09648977 0.5061997 -1.1443915 -0.11711479 0.31469914 0.22228733 0.30325082 -0.05933577
-0.35153383 0.241269 -0.07147134 -0.5893256 -0.023690008 0.2580594 -0.28173834 0.22317395
00000000: 0019 603e 4222 dc3e faa4 d6be 2a1a bb3d
00000010: 47a3 bc3c 086d 25be a903 10bf e9a4 523e
00000020: b52e fe3c c078 ef3e 27a8 1abf afa9 333e
00000030: 93f9 66be 1016 623d 0808 e93e 7299 8fbe
00000040: b922 1c3e 359c 713e 8481 16be 5a3a 6fbd
00000050: 3f03 333e 860e ef3c 716c 0e3e bba9 e13e
00000060: 920d 343e 0cc5 f33d a0e3 23bf d439 12bf
00000070: b1a5 d3be a3e5 c7bd cf37 31bf 5186 823e
00000080: 25e9 fbbe 7b77 39be 0cf6 e1be 0e60 513e
00000090: 016a f23b 2809 943d b47b 2c3e 19c6 a63c
000000a0: bc13 6cbf 2b50 403d 9ad3 3abe f4ba 9dbe
000000b0: 7983 4b3c 2c37 16bf 036e d2be eaa0 543d
000000c0: 76e9 7a3e cff5 cbbe c360 2abc ec40 8f3e
000000d0: 9c2d c73e 6aed a7be cc32 41be 7c44 e43d
000000e0: 69e7 11bf 2fc4 7bbe a8df 9a3e f22c 913e
000000f0: 3f7a 5a3d eb8c 9b3e 5ce8 4fbe e233 9e3d
00000100: 0bc9 91bf c4e7 883e 59e1 33be 4aab c3be
00000110: 98d5 f3bd 25b5 bebe fd86 b23e eb1e febe
00000120: a15a 8ebe 3cb1 b0bd 7fdf 30be acc2 f93d
00000130: 6fac e9bd 386b 5ebd ba79 3f3d e2b6 1bbd
00000140: 9ae4 423e 5f53 cd3e 32ef c43e 5681 e6be
00000150: 0d44 4ebe 2c35 f6be 64c2 1abe 974c 89bd
00000160: 0ef2 b5bc d823 873e bdc9 523d 66cb 8e3d
00000170: 7837 fb3d 85fd b13e f7ca cfbe 1d8d 9ebf
00000180: c488 debe 7e52 863e f047 d13d 4d87 5abe
00000190: dfd6 f5be 0eac d63d 4ad8 353e 82b7 983d
000001a0: 10f3 10be 6423 823e df45 773d b797 e03e
000001b0: 38ad 973d e8d3 2cbf df06 0abf cf27 5e3e
000001c0: 6e9c c53d 4e96 013f 6c7b 92bf e1d9 efbd
000001d0: 3f20 a13e 4a9f 633e b143 9b3e 100a 73bd
000001e0: 3efc b3be 390f 773e 915f 92bd 0bde 16bf
000001f0: 8c11 c2bc 5d20 843e 0240 90be b687 643e

fc.2.weight f4 [128, 128]
-0.07793112 -0.07011049 0.04180322 -0.029618962 0.20056336 -0.010602735 -0.047727857 -0.4285189
0.24408151 0.008388888 0.26250634 -0.23632677 0.22213586 0.08671997 -0.036806196 -0.2341538
-0.5287196 -0.0719364 0.14968507 0.10867647 0.03124351 -0.2582475 0.118478276 -0.30388454
0.04856834 0.010670391 0.121789284 0.09956525 0.14144918 0.057076316 -0.36552802 0.121398225
0.0031859428 -0.29937774 -0.22311468 -0.1844888 -0.26854905 0.02405505 -0.2862408 -0.5198856
-0.3087787 0.08048388 0.21194193 -0.20819737 0.032371696 0.29158625 0.031293 -0.14496838
0.036415555 -0.22854011 -0.0009590036 -0.4052856 -0.07557552 0.20221582 0.18506415 0.07803536
-0.10331994 -0.007838773 -0.017770406 -0.21596459 -0.08236725 -0.0102965245 0.023864985 -0.24131282
0.022253642 -0.117402196 -0.13694249 0.09597521 0.15739316 0.18801633 -0.078323066 -0.15563735
0.09986411 -0.03557065 0.055371493 -0.20043536 -0.038456272 -0.015823267 -0.13899067 -0.21354029
0.1756339 0.10720375 -0.2457176 -0.30749756 0.15543637 0.12879497 -0.2459403 0.19955596
-0.108693525 -0.1791784 0.21109124 0.06929693 0.052798074 -0.112006806 -0.16482893 -0.046618983
0.09123142 0.036404543 0.12809382 0.29662234 0.32523412 -0.07335827 -0.10489925 -0.14777698
-0.06581304 -0.4279353 -0.013130836 -0.18537681 0.06056333 0.06243911 0.03973068 -0.0026949372
0.038717803 0.11879745 -0.025477564 0.047839694 -0.054430947 0.0890533 -0.02033034 -0.5531588
0.08084062 0.09880925 0.07814298 -0.0689061 -0.06334043 0.08358043 -0.025507854 -0.099584594
0.15742029 -0.029558567 -0.31446493 0.05817478 -0.053637374 -0.20981178 -0.12654628 -0.08001845
0.09863719 0.16743045 0.092262946 0.08343643 0.03985442 -0.067171454 0.14819553 -0.3783515
0.029787093 0.06467322 0.013110131 0.05518357 -0.3097137 -1.5733855 -0.12380078 -0.04126572
0.053949162 0.141492 -0.13063438 0.01649044 -0.38971642 -0.30453372 -0.09012011 -0.19843356
0.6197383 -0.18611047 -0.10825382 -0.02552931 0.10256343 -0.0043799817 0.06856478 -0.013522481
0.008909668 -0.24411333 0.07264443 0.14962973 -0.1826143 -0.12580688 0.039779138 -0.56596756
0.06892619 -0.17743628 0.07051997 0.043967187 0.04092413 -0.1599435 -0.060258526 0.032827873
-0.07334657 0.007336782 -0.03113057 -0.00734613 0.020326518 0.027267832 -0.06264185 -0.45417327
-0.86950624 -0.018936066 -0.27630344 -0.15670711 0.06674132 0.2182969 -0.0050135087 -0.35157713
-0.17851953 -0.5232869 0.060541 -0.13114364 -0.37829703 -0.036908366 -0.09125812 -0.8276753
0.17666462 0.07188919 -0.0214353 -0.29703906 0.10031568 -0.9083094 0.4242786 -0.0037608931
0.21428838 0.16695422 -0.061062038 0.17443372 0.077199854 0.0614697 0.11963981 -1.0504662
0.4744919 0.08187527 -0.043055326 -0.069461174 -0.14056513 0.03276796 -0.35060152 -0.45095292
0.008531637 0.06996974 0.045625113 0.037500076 -0.51393217 -0.17092064 -0.041978087 0.102426186
-0.12204198 0.19442146 -0.5912587 -0.07337953 -0.08301284 0.11701232 -0.21336852 -0.07927927
0.043625217 0.11896622 -0.20682687 -0.063391306 0.113977656 -0.0168111 -0.06827836 -0.021588288
00000000: 5a9a 9fbd 1796 8fbd da39 2b3d 77a3 f2bc
00000010: 7b60 4d3e 18b7 2dbc 497e 43bd d466 dbbe
00000020: 81f0 793e 8c71 093c 3b67 863e a5ff 71be
00000030: 9577 633e 3d9a b13d 18c2 16bd 04c6 6fbe
00000040: 2b5a 07bf 6453 93bd 0b47 193e c591 de3d
00000050: 64f2 ff3c 0439 84be bda4 f23d c196 9bbe
00000060: 98ef 463d ddd2 2e3c a96c f93d dee8 cb3d
00000070: 0ed8 103e dbc8 693d 7d26 bbbe a29f f83d
00000080: 40cb 503b 0a48 99be 2d78 64be a2ea 3cbe
00000090: 437f 89be 190f c53c 278e 92be 3917 05bf
000000a0: 3e18 9ebe bcd4 a43d 4e07 593e b131 55be
000000b0: 2f98 043d cb4a 953e 172d 003d 9772 14be
000000c0: 7a28 153d 6b06 6abe a465 7bba 9881 cfbe
000000d0: 57c7 9abd aa11 4f3e 7581 3d3e 01d1 9f3d
000000e0: 6899 d3bd 326e 00bc 3e93 91bc d225 5dbe
000000f0: 29b0 a8bd c1b2 28bc 8080 c33c b51a 77be
00000100: 454d b63c 9070 f0bd a73a 0cbe a78e c43d
00000110: ac2b 213e 5a87 403e d867 a0bd 665f 1fbe
00000120: 8e85 cc3d 88b2 11bd 38cd 623d ed3e 4dbe
00000130: 5384 1dbd cc9f 81bc 9253 0ebe 4eaa 5abe
00000140: 60d9 333e a48d db3d 659d 7bbe 5270 9dbe
00000150: b62a 1f3e d4e2 033e c6d7 7bbe 6658 4c3e
00000160: b69a debd 8b7a 37be 4d28 583e 8deb 8d3d
00000170: cb42 583d d363 e5bd eac8 28be 8cf3 3ebd
00000180: 8ad7 ba3d ee1c 153d 072b 033e e2de 973e
00000190: 1685 a63e dc3c 96bd 6bd5 d6bd d952 17be
000001a0: fdc8 86bd 561a dbbe b822 57bc 6bd3 3dbe
000001b0: 4111 783d 27c0 7f3d a3bc 223d 8b9d 30bb
000001c0: 8f96 1e3d 144c f33d 53b6 d0bc 8ef3 433d
000001d0: fcf2 5ebd 9461 b63d d08b a6bc d19b 0dbf
000001e0: c48f a53d 815c ca3d 6d09 a03d a41e 8dbd
000001f0: a1b8 81bd 372c ab3d d9f5 d0bc 02f3 cbbd
00000200: c932 213e cf24 f2bc 8c01 a1be ae48 6e3d
00000210: ddb2 5bbd e6d8 56be 5995 01be b7e0 a3bd
00000220: 4c02 ca3d e372 2b3e 5bf4 bc3d b8e0 aa3d
00000230: 633e 233d 3091 89bd 92c0 173e 4ab7 c1be
00000240: 1004 f43c 6573 843d e0cb 563c 2b08 623d
00000250: cb92 9ebe b264 c9bf 438b fdbd 3e06 29bd
00000260: ccf9 5c3d 47e3 103e 05c5 05be f616 873c
00000270: e988 c7be d8eb 9bbe e490 b8bd 2b32 4bbe
00000280: 2ba7 1e3f be93 3ebe 2eb4 ddbd d822 d1bc
00000290: c70c d23d f385 8fbb b16b 8c3d 658d 5dbc
000002a0: dbf9 113c d8f8 79be 9ac6 943d 8938 193e
000002b0: 3eff 3abe 85d3 00be 73ef 223d 40e3 10bf
000002c0: 2d29 8d3d dbb1 35be c66c 903d f016 343d
000002d0: 0fa0 273d 3bc8 23be a5d1 76bd 8576 063d
000002e0: ba36 96bd 6369 f03b 8a05 ffbc ceb7 f0bb
000002f0: cc83 a63c ca60 df3c 5f4a 80bd 6689 e8be
00000300: f697 5ebf cf1f 9bbc a577 8dbe d477 20be
00000310: acaf 883d 3989 5f3e 5c48 a4bb eb01 b4be
00000320: d3cd 36be 21f6 05bf d7f9 773d 854a 06be
00000330: 26b0 c1be 3a2d 17bd 8ae5 babd 87e2 53bf
00000340: 92e7 343e a43a 933d 1599 afbc 8115 98be
00000350: 4f72 cd3d f786 68bf 0b3b d93e 5179 76bb
00000360: 6a6e 5b3e 0cf6 2a3e 301c 7abd c19e 323e
00000370: f51a 9e3d a7c7 7b3d b705 f53d ad75 86bf
00000380: 9af0 f23e 39ae a73d c85a 30bd a941 8ebd
00000390: 4ef0 0fbe b237 063d 0b82 b3be 4de3 e6be
000003a0: 47c8 0b3c 4c4c 8f3d 66e1 3a3d ae99 193d
000003b0: 0f91 03bf d205 2fbe 37f1 2bbd d2c4 d13d
000003c0: 25f1 f9bd 6b16 473e bb5c 17bf 0248 96bd
000003d0: a302 aabd 28a4 ef3d 477d 5abe 2b5d a2bd
000003e0: 5bb0 323d 90a4 f33d 6cca 53be 4dd3 81bd
000003f0: 1e6d e93d 6fb7 89bc 86d5 8bbd ecd9 b0bc

fc.2.bias f4 [128]
-0.06413986 0.15034842 0.10382902 -0.012967017 -0.023962522 0.03643949 -0.043863613 0.021703035
0.044034567 0.030042665 0.057958424 0.13100117 0.05848159 -0.0086195925 -0.06854714 -0.065767735
0.072082095 0.17483488 -0.00095146755 0.02078689 -0.033892415 -0.007420099 0.1214859 -0.070418
0.09803282 0.06859601 0.051266786 0.11003259 -0.15453823 -0.0542271 0.056885716 0.036590375
0.027465027 -0.029028885 -0.0888482 -0.07255286 0.010496504 0.05335023 -0.06638941 0.09613672
-0.10523412 0.046732355 -0.05713021 0.059952974 0.075462714 0.18957889 0.049857974 0.08569942
0.023910891 -0.030357188 -0.064005144 0.008829151 0.019258786 0.017327605 -0.04504855 0.08199561
0.024610208 -0.07464642 0.058856536 -0.009401618 -0.3202229 -0.016697269 -0.075929 0.028290397
-0.036137316 -0.025400672 -0.08557671 -0.031120213 -0.008092195 -0.11347368 -0.23321205 0.004071563
0.1746734 0.058580324 -0.023925832 -0.09921401 0.05992942 -0.039044295 0.16951257 -0.116794206
-0.03645305 0.069834374 0.018005995 0.04149163 -0.1014182 -0.0010450662 0.0015105546 0.022238107
-0.12438673 -0.02351853 -0.3287684 0.043563675 0.027405137 0.155379 -0.11516545 0.10738892
0.13270065 0.14098325 0.11669166 0.074286506 0.029139183 -0.035982553 0.20989385 0.039702084
0.14902337 0.02683116 -0.014291691 -0.06614134 0.10123793 0.044000506 -0.011415235 0.08449999
-0.019466488 0.033283327 -0.00491894 0.0240657 0.047813244 0.041646797 0.03847955 -0.017048089
-0.0953392 0.033753205 0.055293664 -0.018093651 -0.067137145 -0.061865542 -0.09242178 -0.3241858
00000000: c25b 83bd f0f4 193e 4fa4 d43d 9c73 54bc
00000010: 0d4d c4bc 9341 153d 55aa 33bd 90ca b13c
00000020: 975d 343d 091c f63c d065 6d3d 2c25 063e
00000030: 648a 6f3d 3139 0dbc 7162 8cbd 3cb1 86bd
00000040: c79f 933d ea07 333e e86b 79ba 4549 aa3c
00000050: c6d2 0abd 4d24 f3bb 99cd f83d 5037 90bd
00000060: 6ec5 c83d 117c 8c3d 1ffd 513d c458 e13d
00000070: 453f 1ebe 3c1d 5ebd ff00 693d cadf 153d
00000080: 56fe e03c fccd edbc 0cf6 b5bd 9896 94bd
00000090: 87f9 2b3c c585 5a3d 2cf7 87bd 54e3 c43d
000000a0: fc84 d7bd 6d6a 3f3d 5e01 6abd 4091 753d
000000b0: 328c 9a3d f820 423e e037 4c3d 2d83 af3d
000000c0: c6e0 c33c a3af f8bc 2115 83bd 25a8 103c
000000d0: 9ac4 9d3c 9ff2 8d3c d484 38bd 50ed a73d
000000e0: 599b c93c 39e0 98bd 8d13 713d 3e09 1abc
000000f0: 42f4 a3be b6c8 88bc aa80 9bbd 43c1 e73c
00000100: b904 14bd 1215 d0bc d842 afbd d1ef febc
00000110: 2095 04bc e464 e8bd 24cf 6ebe bf6a 853b
00000120: 95dd 323e ecf1 6f3d 1b00 c4bc b730 cbbd
00000130: 8d78 753d e9ec 1fbd b494 2d3e cd31 efbd
00000140: cb4f 15bd 5305 8f3d 4f81 933c 21f3 293d
00000150: 58b4 cfbd 9afa 88ba cdfd c53a b12c b63c
00000160: 78be febd efa9 c0bc 5554 a8be d36f 323d
00000170: bd80 e03c ac1b 1f3e dddb ebbd b9ee db3d
00000180: aee2 073e ea5d 103e 09fc ee3d 8623 983d
00000190: 4cb5 ee3c 7162 13bd 6aee 563e a79e 223d
000001a0: 9599 183e 05cd db3c b227 6abc 1c75 87bd
000001b0: d555 cf3d e039 343d f706 3bbc 550e ad3d
000001c0: 2f78 9fbc 1954 083d 0f2f a1bb 6e25 c53c
000001d0: d2d7 433d d595 2a3d bc9c 1d3d 6fa8 8bbc
000001e0: 3341 c3bd cd40 0a3d 9c7b 623d 2339 94bc
000001f0: 337f 89bd b966 7dbd a147 bdbd aefb a5be

mean.weight f4 [2, 128]
0.11529243 0.45752528 -0.011440032 -0.8321734 0.06531156 -0.68827677 -0.2518588 -0.035244275
-0.4617527 -0.23536383 0.16232885 0.094367646 -0.023710625 0.058135036 -0.13122267 0.33227566
-0.30194673 0.48138714 -0.17877392 0.010882666 -0.024126641 -0.024463255 -0.22501905 -0.6336737
0.19799866 -0.0620718 -0.4156841 0.13290925 -0.17336935 0.093190946 0.053997442 0.3677117
-0.049866233 -0.051651265 0.073777825 -0.08964198 0.075823896 0.28922293 0.010473434 -0.08413546
0.23636414 0.054118328 -0.005331883 -1.0258595 -0.3323996 -0.29735926 -0.56690735 0.2173796
-0.0065666325 0.002412361 -0.34086192 0.01729863 -0.14124006 0.011939736 -0.065282 0.2872864
0.017632896 0.056297824 -0.047839466 -0.018560672 -0.51146674 0.28629178 -0.023642106 -0.03836961
-0.6399691 -0.07654652 -0.028132647 -0.28143838 0.3022903 -0.08915352 -0.12849255 0.08140467
-0.119259186 -0.7071181 -0.053443197 -0.04039 0.003445083 0.041800853 0.0043599517 -0.1614232
0.0009288117 0.3606058 -0.0073441826 -0.31439573 -0.25687012 0.15579528 -0.057413373 -0.31826842
0.18388157 -0.52564025 0.740727 0.12298603 0.22535853 0.039962154 0.17329952 0.24405412
0.4927539 -0.056098025 0.10165308 0.19450144 0.29412994 -0.029981995 -0.15282786 -0.014829963
-0.12947069 -0.16183427 -0.019278951 -0.30143586 -0.24812895 0.1268254 -0.06460468 0.029294722
0.016781533 0.026915953 0.02363846 -0.024811529 -0.0045631663 0.006046893 -0.40301803 -0.29506022
-0.0055660084 0.093466334 -0.37353408 -0.06429691 -0.16741662 0.00010310286 -0.3442791 0.34013245
0.14651556 0.369264 -0.31085107 -0.13153274 -0.03355912 0.5407986 -0.34268048 0.07791394
-0.16073842 0.07929176 -0.09401956 0.4905449 0.019627465 -0.18877517 -0.45179904 -0.0695811
-0.08359999 -0.20022768 -0.13087048 0.05257893 -0.0356948 0.03333243 -0.2197683 0.06815407
0.10565097 0.1876454 0.046855927 -0.2463445 -0.14541368 0.00086157484 -0.0069767986 -0.014355359
-0.3325552 0.06137356 -0.019537032 -0.05037313 -0.045345347 0.77485836 -0.19291611 0.15417409
0.19829756 -0.30510196 0.030061578 0.44838688 0.033779196 -0.08228529 0.0556383 -0.1284121
-0.25778043 -0.0077209393 0.2877738 0.07787547 -0.45986387 0.03779566 -0.56808037 0.14769578
-0.94391155 0.043134537 0.08804073 0.015483151 0.1529918 0.27405933 0.022806695 -0.07011626
0.27702832 0.14771266 -0.5998866 0.058956254 0.19957194 0.046814922 0.085553795 -0.014122009
-0.174668 -0.25618947 0.035236996 -0.18365435 0.057789553 0.048021335 -0.0895115 -0.066972844
0.08166503 -0.04470951 -0.018637888 0.15767692 -0.56196994 -0.082214944 0.012641847 0.09406729
0.07084762 0.36081502 -0.19557963 -0.023213133 -0.12648325 0.3731541 -0.26097327 0.24857612
0.121628046 0.34039673 0.33883604 -0.2563138 0.19554724 -0.22164439 0.11560725 0.05790846
-0.001547814 -0.40795368 -0.4998185 0.600807 -0.19502294 -0.13814342 0.0179728 -0.09029196
-0.018334005 0.012618682 0.03246768 -0.012199212 -0.014959611 -0.0049085626 0.003430572 0.33080152
-0.07102455 -0.353184 -0.2391696 -0.012522525 -0.789426 0.049668517 -0.18894872 -0.07567949
00000000: 701e ec3d c140 ea3e f96e 3bbc 5109 55bf
00000010: 11c2 853d e832 30bf a3f3 80be 4d5c 10bd
00000020: da6a ecbe 3703 71be 8939 263e d343 c13d
00000030: c93c c2bc 011f 6e3d 3c5f 06be 0920 aa3e
00000040: c398 9abe 6078 f63e 8310 37be 364d 323c
00000050: 3ca5 c5bc 2a67 c8bc 656b 66be 7138 22bf
00000060: 29c0 4a3e 003f 7ebd 8cd4 d4be 5d19 083e
00000070: bc87 31be e5da be3d 6c2c 5d3d b544 bc3e
00000080: 8940 4cbd 4790 53bd d418 973d 3796 b7bd
00000090: 8f49 9b3d 0715 943e c498 2b3c 364f acbd
000000a0: 7109 723e 2eab 5d3d 14b7 aebb 5d4f 83bf
000000b0: 4830 aabe 793f 98be d720 11bf c298 5e3e
000000c0: e82c d7bb b418 1e3b 7485 aebe dbb5 8d3c
000000d0: 3ca1 10be e29e 433c 92b2 85bd 3417 933e
000000e0: dd72 903c 8c98 663d 51f3 43bd 8d0c 98bc
000000f0: 7cef 02bf d694 923e 17ad c1bc 7429 1dbd
00000100: 04d5 23bf 6cc4 9cbd 7076 e6bc b118 90be
00000110: cbc5 9a3e 1f96 b6bd 8d93 03be 7eb7 a63d
00000120: 293e f4bd b105 35bf 41e7 5abd fc6f 25bd
00000130: e7c6 613b 5f37 2b3d eddd 8e3b 204c 25be
00000140: 807b 733a 53a1 b83e 78a7 f0bb 7af8 a0be
00000150: 7b84 83be cc88 1f3e 492a 6bbd 14f4 a2be
00000160: 734b 3c3e 5c90 06bf 49a0 3d3f 1ae0 fb3d
00000170: 63c4 663e 5baf 233d 6e75 313e 53e9 793e
00000180: 3d4a fc3e 0bc7 65bd 7d2f d03d 632b 473e
00000190: 3398 963e cd9c f5bc e87e 1cbe 60f9 72bc
000001a0: f793 04be e2b7 25be e4ee 9dbc cd55 9abe
000001b0: 8415 7ebe 85de 013e 754f 84bd 7cfb ef3c
000001c0: 6d79 893c d87e dc3c 72a5 c13c 8c41 cbbc
000001d0: 9d86 95bb 0425 c63b 6158 cebe 2212 97be
000001e0: 1063 b6bb 476b bf3d dc3f bfbe 19ae 83bd
000001f0: 436f 2bbe ed38 d838 5a45 b0be d725 ae3e
00000200: 2d08 163e 2c10 bd3e df27 9fbe 85b0 06be
00000210: 4a75 09bd c771 0a3f d173 afbe 5891 9f3d
00000220: 9d98 24be b863 a23d 548d c0bd b328 fb3e
00000230: c7c9 a03c 474e 41be 3452 e7be 8980 8ebd
00000240: 7936 abbd 7c08 4dbe e902 06be 015d 573d
00000250: b634 12bd 9687 083d f10a 61be 5c94 8b3d
00000260: 895f d83d 1e26 403e 00ec 3f3d bc41 7cbe
00000270: 53e7 14be 4fdb 613a a19d e4bb bd32 6bbc
00000280: ad44 aabe d862 7b3d 200c a0bc 0e54 4ebd
00000290: 0bbc 39bd 1e5d 463f cd8b 45be d0df 1d3e
000002a0: 840e 4b3e 5336 9cbe b343 f63c f792 e53e
000002b0: 0e5c 0a3d 3185 a8bd fce4 633d 767e 03be
000002c0: ccfb 83be efff fcbb 1657 933e 2d7d 9f3d
000002d0: 4773 ebbe 9fcf 1a3d b76d 11bf 903d 173e
000002e0: 30a4 71bf d7ad 303d b34e b43d 0bad 7d3c
000002f0: e2a9 1c3e 8151 8c3e 1bd5 ba3c 1d99 8fbd
00000300: a8d6 8d3e fd41 173e 2b92 19bf 1d7c 713d
00000310: 965c 4c3e 01c1 3f3d d436 af3d 0060 67bc
00000320: 2bdc 32be 442b 83be ab54 103d e30f 3cbe
00000330: bdb4 6c3d 05b2 443d ce51 b7bd 0f29 89bd
00000340: ff3f a73d 5221 37bd 7cae 98bc 0f76 213e
00000350: 43dd 0fbf 4f60 a8bd c01f 4f3c 5aa6 c03d
00000360: 8f18 913d bfbc b83e 0746 48be 7829 bebc
00000370: d384 01be 0e0e bf3e 4a9e 85be bd8a 7e3e
00000380: 2018 f93d 7b48 ae3e eb7b ad3e 903b 83be
00000390: 893d 483e bff6 62be 7ec3 ec3d 6c31 6d3d
000003a0: 05e0 caba 4edf d0be 36e8 ffbe 7dce 193f
000003b0: 18b4 47be 7875 0dbe b23b 933c feea b8bd
000003c0: 3231 96bc 97be 4e3c d4fc 043d 34df 47bc
000003d0: 2819 75bc 02d8 a0bb 73d3 603b d15e a93e
000003e0: 5275 91bd 89d4 b4be e0e8 74be 472b 4dbc
000003f0: d317 4abf 3771 4b3d c67b 41be d9fd 9abd

mean.bias f4 [2]
-0.013646053 -0.012136122
00000000: b293 5fbc 96d6 46bc

log_std.weight f4 [2, 128]
-0.11492263 -0.09930892 -0.19419312 0.025027515 -0.051879413 0.07539924 0.4565042 -0.22710778
0.29216978 -0.09239815 -0.5508104 0.0223565 -0.44466776 -0.81866664 -0.22497725 0.058205683
0.027629033 -0.2484745 0.041121554 -0.027074764 -0.020693157 -0.03078571 0.0705858 0.43593395
-0.31831175 -0.07907577 0.15585521 -0.102048695 0.040594555 -0.085344225 -0.011588692 0.3151046
0.1762661 0.011479715 0.06547127 -0.10832178 0.22294126 0.12798959 0.021874718 -0.1367459
0.16083187 0.17941482 0.03681493 0.55516386 0.07013231 0.018059123 0.5400407 -0.08839846
-0.087975815 0.0710059 0.43475053 0.0028998181 0.23921467 0.008195402 -0.021088373 0.1546777
0.17536587 0.040726565 -0.05076884 -0.028285133 0.1299034 0.52500904 -0.021110743 -0.018403063
-0.27538517 -0.007980286 0.002894072 -0.029511161 -0.03739593 0.10140392 0.022088995 -0.034184452
-0.105966926 0.6208182 -0.16272336 -0.052449916 0.041463923 -0.068947144 -0.08453252 0.33890605
-0.026346605 -0.3400599 0.03339489 0.08222909 0.1462869 -0.07170355 0.06502348 -0.12289113
-0.030514803 0.24027172 0.24049349 -0.13086331 0.22663917 -0.322695 0.016381096 0.26983646
-0.1924097 0.004827949 -0.06969724 0.04684675 0.02622481 -0.11442893 -0.34579256 -0.023706315
-0.3653852 -0.08751175 0.14299496 -0.045017786 -0.048459835 -0.020401623 0.068367764 -0.17025913
0.072251014 -0.03570731 0.024905251 -0.015892958 0.1500628 -0.0046878974 0.11029745 0.09248669
-0.016261535 0.042580035 0.08678653 0.05346246 -0.31033364 -0.11063311 -0.08712017 0.20298703
0.09863571 0.22613885 -0.09001144 0.16077186 -0.0045287786 0.10189503 0.42337874 -0.06625614
-0.1047882 -0.15740693 0.08201484 0.550331 -0.14602758 -0.11958591 0.18982919 0.03190579
0.15859811 -0.05543026 -0.038972735 -0.07182219 0.08801552 0.025605984 0.22924928 0.12923388
-0.35355723 0.22172311 0.035147324 0.021239543 -0.07510678 -0.202559 0.044958793 0.021152968
0.25362378 -0.036505718 0.0058882893 -0.0057647275 0.11530159 0.5025026 -0.012121196 -0.111828856
-0.05156237 0.16235222 0.006438654 0.27555642 0.033706862 -0.06273419 -0.017254233 -0.16042116
0.1531231 -0.010836258 0.23482853 -0.06996664 0.6529639 0.026110955 -0.5363689 -0.11322717
0.20938705 0.103226736 -0.07817105 -0.13044846 -0.056259844 -0.16677114 0.009209239 -0.027802601
-0.076688424 0.32295874 -0.024195217 -0.09721661 -0.085660644 0.19987644 0.120025136 0.07041394
-0.14895408 0.19138391 -0.22604248 0.032389414 0.19559105 0.05576578 -0.15816697 0.21685816
-0.08829743 0.087066226 -0.069399804 -0.0014093898 0.040931568 -0.03756876 0.062076297 -0.018223835
-0.115283266 0.43566442 0.20554213 -0.07673577 0.04102387 -0.08927664 0.07610868 -0.057398982
-0.0527606 -0.1994897 0.050847296 0.07455809 -0.06722147 0.0053189006 -0.39342096 -0.3352184
-0.17271858 0.13460761 0.25124133 0.3029473 0.017988771 -0.1784012 -0.05887095 -0.30211374
0.104801245 -0.16771534 -0.053885624 -0.018140974 -0.22123984 -0.11363449 0.013359294 -0.061197758
-0.039602097 0.20248729 0.07134279 0.08041784 0.014097175 -0.050705317 0.33803794 0.1306173
00000000: 8e5c ebbd 7a62 cbbd 90da 46be 8106 cd3c
00000010: 827f 54bd eb6a 9a3d ebba e93e f18e 68be
00000020: 4797 953e 3e3b bdbd e901 0dbf fb24 b73c
00000030: 7eab e3be 2394 51bf 7060 66be 1569 6e3d
00000040: 4856 e23c 1970 7ebe 136f 283d e5cb ddbc
00000050: b284 a9bc 5032 fcbc 4a8f 903d bc32 df3e
00000060: c2f9 a2be 7af2 a1bd 8298 1f3e e8fe d0bd
00000070: 7a46 263d f4c8 aebd 7fde 3dbc 6455 a13e
00000080: 1a7f 343e 6a15 3c3c cd15 863d cfd7 ddbd
00000090: b74a 643e b40f 033e 9c32 b33c 1e07 0cbe
000000a0: 1cb1 243e 85b8 373e 41cb 163d 381f 0e3f
000000b0: 87a1 8f3d baf0 933c 1b40 0a3f 400a b5bd
000000c0: aa2c b4bd 8b6b 913d 9f97 de3e e00a 3e3b
000000d0: b1f4 743e 0246 063c 86c1 acbc d563 1e3e
000000e0: 1c93 333e e6d0 263d fdf2 4fbd 39b6 e7bc
000000f0: 6605 053e fe66 063f 70f0 acbc 05c2 96bc
00000100: 49ff 8cbe bfbf 02bc 79aa 3d3b 64c1 f1bc
00000110: 7a2c 19bd dcac cf3d fbf3 b43c ff04 0cbd
00000120: 3005 d9bd f1ed 1e3f f4a0 26be b9d5 56bd
00000130: 13d6 293d 2934 8dbd 631f adbd 1885 ad3e
00000140: d6d4 d7bc 551c aebe 15c9 083d ba67 a83d
00000150: 3ccc 153e 50d9 92bd 082b 853d 58ae fbbd
00000160: 2efa f9bc ca09 763e ed43 763e 0801 06be
00000170: 1914 683e 4738 a5be a631 863c 0128 8a3e
00000180: 0c07 45be c633 9e3b 6dbd 8ebd 61e2 3f3d
00000190: 6ad5 d63c b759 eabd b90b b1be bf33 c2bc
000001a0: c513 bbbe 5c39 b3bd 456d 123e 9264 38bd
000001b0: d27d 46bd 4e21 a7bc 6604 8c3d 6958 2ebe
000001c0: 57f8 933d d441 12bd 1906 cc3c f331 82bc
000001d0: 10aa 193e ef9c 99bb a1e3 e13d a969 bd3d
000001e0: e936 85bc 6768 2e3d 23bd b13d 74fb 5a3d
000001f0: 0de4 9ebe 9d93 e2bd 0f6c b2bd d5db 4f3e
00000200: 8501 ca3d f190 673e eb57 b8bd 61a1 243e
00000210: 2666 94bb 57ae d03d 19c5 d83e 4db1 87bd
00000220: 329b d6bd 482f 21be 65f7 a73d 7ee2 0c3f
00000230: 4188 15be 75e9 f4bd 9562 423e a5af 023d
00000240: 8b67 223e d70a 63bd e0a1 1fbd 8317 93bd
00000250: 7b41 b43d a4c3 d13c 53c0 6a3e e355 043e
00000260: 7405 b5be 620b 633e a4f6 0f3d 8dfe ad3c
00000270: 95d1 99bd a06b 4fbe b626 383d fd48 ad3c
00000280: fada 813e 0587 15bd 8df2 c03b 0ae6 bcbb
00000290: 3d23 ec3d 03a4 003f fb97 46bc 8706 e5bd
000002a0: 1033 53bd a93f 263e 58fb d23b bb15 8d3e
000002b0: 3510 0a3d c87a 80bd c058 8dbc 7245 24be
000002c0: 4dcc 1c3e 8f8a 31bc e476 703e ab4a 8fbd
000002d0: a428 273f a4e6 d53c 794f 09bf a6e3 e7bd
000002e0: 8f69 563e 8a68 d33d 2518 a0bd 4894 05be
000002f0: b970 66bd 0ec6 2abe 59e2 163c 48c2 e3bc
00000300: d20e 9dbd d95a a53e 0c35 c6bc 8119 c7bd
00000310: d96e afbd 69ac 4c3e bdcf f53d 2f35 903d
00000320: 6b87 18be 25fa 433e ae77 67be c3aa 043d
00000330: 0549 483e a96a 643d 86f6 21be 1110 5e3e
00000340: 48d5 b4bd c74f b23d 7c21 8ebd 46bb b8ba
00000350: dca7 273d b3e1 19bd b743 7e3d 274a 95bc
00000360: a219 ecbd 680f df3e a379 523e a527 9dbd
00000370: a508 283d acd6 b6bd dede 9b3d 321b 6bbd
00000380: 801b 58bd 0747 4cbe 4145 503d e9b1 983d
00000390: 69ab 89bd 2c4a ae3b 796e c9be bfa1 abbe
000003a0: 24dd 30be 94d6 093e b4a2 803e e91b 9b3e
000003b0: 305d 933c ceae 36be aa22 71bd a7ae 9abe
000003c0: 09a2 d63d 92bd 2bbe 2cb7 5cbd 619c 94bc
000003d0: b28c 62be 33b9 e8bd f1e0 5a3c 80aa 7abd
000003e0: cf35 22bd d458 4f3e 2b1c 923d 1cb2 a43d
000003f0: d6f7 663c 61b0 4fbd 4f13 ad3e 8bc0 053e

log_std.bias f4 [2]
-0.087063156 -0.21756075
00000000: 2b4e b2bd 3fc8 5ebe
