sac_actor.pth (torch, 74345 bytes, 8 tensors)

fc.0.weight f4 [128, 4]
00000000: 7d9a 043f 96b6 963e 1a73 edbe 85ff 03bf
00000010: 44c1 adbe 428f 94be dbc2 85be 51d7 d73e
00000020: 97f5 c33e 2cda 36be a22b d6be 1a17 aabe
00000030: 9a01 b1bc 749e 0e3e b237 023f 6ad9 323f
00000040: cffd 853e ccce 8e3e f4f9 c53d 7e95 5a3e
00000050: 83ea 5a3d b3d9 42bd 11e1 51be f44d 43bf
00000060: 1e37 8bbe 22e1 b7be ec55 153f bd8a cbbd
00000070: 30b1 973e 1ec9 443d 3b50 9dbe fb66 223e
00000080: 4bbc fa3d d884 e6be cb68 b33d 9410 4f3e
00000090: a572 6dbe e39f 1c3e 21b9 03bf 5997 ff3e
000000a0: 09ea 0b3e 433e 333e 2a9f c93e 9420 0b3f
000000b0: f365 20bd 7faf c63e c2c0 14be 18ee edbe
000000c0: 1e0d d0be efab 38be 3ac3 1abf 90c9 2d3e
000000d0: 252b 8f3e 00b7 b9be 31e0 42be b5a8 a6be
000000e0: c9e9 463f fe7a debe 676a 31bf 43ab ba3e
000000f0: 0014 013e 7038 3abd 7841 26be bfca 353c
00000100: 4ce9 d23e 3169 cabe 974f 773e ad89 ad3d
00000110: 6b1c 0c3f 409d 6b3e 38bf 383e 99fe 8ebe
00000120: 5b6a a5bd 7521 d1be 0ac6 75be d3af b83e
00000130: 0a77 a6be 485f c13c 81f2 31bf 6b10 403c
00000140: ef2d 273c e785 5abe fb2b 5dbe 9df3 32bf
00000150: 000c 213f 5efd dc3c 47cd 1cbf 8fc6 28bc
00000160: 5a39 88bd 5d6d 0bbf ac2c 84be 5961 c13e
00000170: 98b6 f5be 4a3c 323e f34a b0bd 0b08 02bf
00000180: 31e7 983e 9e0c 52bc 5f80 b7be cd99 4cbf
00000190: 17e2 c3be 9c6f cdbe d0dd 94be 00e1 b23b
000001a0: a9d5 01be 63ad de3e e2ca 22bf e5b4 e0be
000001b0: 80bf bcbe 3552 ea3d 15b3 afbe 76de 61bd
000001c0: 6241 5f3e 8c72 8a3e e3d3 2abf 6ae3 2abf
000001d0: c46a dcbe 5631 d2bd b53d 80be 1d00 e4be
000001e0: 122b b9bd bd39 43bf 58a1 6b3e 042b 313f
000001f0: 2fd3 613e 0c50 813d b10f 49bf e751 e43d
00000200: 443b 95bd 7fc3 88be 07d8 03bf 1a17 3ebf
00000210: 5690 343e 3e0a c2bc 3fa7 a7be 25ce 323f
00000220: 1d54 af3d bf30 0b3e 7495 8ebe 8927 253f
00000230: 4c37 313f c353 adbc d56f 8ebf b1f2 9d3d
00000240: 5b9b ad3e e80f c53e 87f4 a33d f86b 053f
00000250: 000b 75be 1b3d 723e 85b1 493e aa95 253c
00000260: 3982 8fbd e045 2cbe 6a99 2abf 3898 72be
00000270: 27a3 dabe b0e0 c13c eaf4 8ebd 0ed6 8bbc
00000280: 338b 4d3e ae12 183f 7b50 cc3e 1e79 b1be
00000290: 7b75 7f3e 5051 81bd d7e1 d43d 45b2 26bf
000002a0: 44c7 13bf e72c 593e b7ca 233f cba8 c4be
000002b0: 2827 a5be 5e24 98be 7087 853d 2edc 63be
000002c0: 8ee3 7cbe 6f64 afbe b395 d5be 1f64 6f3e
000002d0: 4431 b4be 3360 d2be 9547 4ebe 218e 973e
000002e0: 190e efbe 02fa 03bf 68ce dabe 1ac7 86be
000002f0: d2eb cdbe 7bbd 26be 1d55 3b3f bc14 4abe
00000300: f7c8 22bf b3dd a4be 564f 333f eca7 b63e
00000310: 0b2c 9b3e 1709 0c3f 0370 87be 2449 4cbf
00000320: bd69 bf3e 79ee e13e 8469 3bbf 7f06 9ebd
00000330: 9298 d53e 2f59 8ebe 1579 5cbe 140c de3e
00000340: e3b4 483e b4e9 89bd 25cf d9bd 2f1d c8be
00000350: 5595 2c3e d049 d9be e0fc 2e3e 2f58 1cbf
00000360: 4b92 0c3f b91b 89bc 9eab 203f 9055 06bf
00000370: 951f 5fbd 11ea bbbe 1d3d cd3e 4eba 293f
00000380: ec13 493e c03e 6c3e 5110 04be f499 2a3f
00000390: fea4 0d3f 1c2b 4cbe 0274 1f3f a4f3 ae3e
000003a0: 9d01 093f c57e ba3e cdd1 573e e908 ddbe
000003b0: 011a 89bd b4b7 1ebf 91d5 f1be 9b4c dcbe
000003c0: aca6 293f 455a 983d 568a 28bf 5640 88be
000003d0: 511e dcbe 91a0 89be fb81 2a3e 2f5b 1b3f
000003e0: 02d2 803e 21cd dcbd 29c9 0f3f f8af 3a3f
000003f0: 34d2 f93d 19aa babd f767 3dbe 2f4a 2b3d
0.5179823 0.29436177 -0.46376878 -0.51561767 -0.33936512 -0.29015547 -0.26125225 0.4215646
0.38273308 -0.17856663 -0.41830164 -0.3322075 -0.021607209 0.13927633 0.50866234 0.69863
0.26170203 0.27892148 0.096668154 0.21346089 0.053446304 -0.047570895 -0.20496012 -0.7629082
-0.2719049 -0.3591395 0.5833423 -0.099385716 0.2962737 0.048043363 -0.30725273 0.15859596
0.12242945 -0.45023227 0.08760222 0.20221168 -0.23188265 0.15295367 -0.5145436 0.49920157
0.13663496 0.1750422 0.39379245 0.54346585 -0.039159726 0.38805768 -0.14526656 -0.46470714
-0.40635008 -0.18034337 -0.6045414 0.16971421 0.27962604 -0.3627243 -0.19030835 -0.32550588
0.7770048 -0.4345321 -0.6930298 0.36458787 0.12605286 -0.04546398 -0.16235912 0.011095702
0.41193616 -0.3953338 0.24151455 0.08473525 0.5473086 0.23009205 0.18041694 -0.27928618
-0.08076926 -0.40845838 -0.24001327 0.36071643 -0.32512695 0.023605004 -0.69510657 0.011722664
0.0102038225 -0.21340142 -0.21598808 -0.69902974 0.62908936 0.026976284 -0.6125073 -0.010301246
-0.06651564 -0.5446375 -0.25815332 0.37769583 -0.4799087 0.17405811 -0.086080454 -0.5079352
0.29863885 -0.012820391 -0.35840127 -0.7992218 -0.3825843 -0.40124214 -0.2907548 0.005458951
-0.12679161 0.4349166 -0.63590825 -0.43888012 -0.36864853 0.11441461 -0.34316316 -0.055143796
0.21802285 0.27040517 -0.66729563 -0.66753256 -0.43050206 -0.10263316 -0.2504708 -0.44531336
-0.09041418 -0.76259977 0.23010767 0.6920626 0.22053216 0.06314096 -0.7853957 0.11148434
-0.07286695 -0.26711652 -0.51501507 -0.74254 0.17633185 -0.023686524 -0.32744786 0.698458
0.08560965 0.13592814 -0.278484 0.6451345 0.69225 -0.021158105 -1.1127878 0.07712305
0.3390759 0.38488698 0.08005624 0.5211787 -0.23929977 0.23656122 0.19696625 0.0101064835
-0.0700726 -0.1682353 -0.6664034 -0.2369088 -0.427026 0.02366671 -0.069803074 -0.017069843
0.20072632 0.594035 0.39905152 -0.34662718 0.24947159 -0.06314337 0.10394638 -0.6511577
-0.5772593 0.21208535 0.63981193 -0.3841003 -0.32256436 -0.29715246 0.06519973 -0.2225196
-0.2469618 -0.34256312 -0.41715774 0.23378037 -0.35193837 -0.4108902 -0.20144494 0.29600623
-0.46690443 -0.51553357 -0.427356 -0.26323777 -0.4021898 -0.16283219 0.7317675 -0.19734472
-0.635879 -0.32200393 0.7004293 0.3567499 0.3030704 0.5470137 -0.26452646 -0.79799104
0.3738536 0.44127253 -0.7320788 -0.07716083 0.41717964 -0.27802417 -0.21530564 0.4336859
0.19600253 -0.067340285 -0.10635213 -0.39084765 0.1685384 -0.42439127 0.17088652 -0.6107206
0.54910725 -0.016736852 0.6276187 -0.5247431 -0.05447348 -0.36702016 0.40085688 0.66299903
0.19636506 0.23070812 -0.12896849 0.66641164 0.55329883 -0.1993832 0.6228639 0.34170258
0.53518087 0.36424842 0.21076126 -0.4317086 -0.06694413 -0.6199906 -0.4723325 -0.43027195
0.66269946 0.074390925 -0.65836084 -0.26611584 -0.4299188 -0.26880315 0.16651146 0.6068601
0.25160223 -0.10781313 0.5616632 0.72924757 0.12198296 -0.09114475 -0.1849669 0.041818794

fc.0.bias f4 [128]
00000000: 370b b03d 1927 dbbd c92c a83e 3a81 2abc
00000010: d121 943d 8dd8 91be 620c 453e d960 053f
00000020: db76 173f 43f2 5d3e b8bd 023f aa54 babe
00000030: 5d03 483e 3d17 063f 861f edbd 3445 403f
00000040: 4ff0 0fbd 0b88 48bf 4530 ae3e 825e 8ebe
00000050: 39df 3c3e 18f1 0e3e d99e a8bd 2d97 46bf
00000060: ce63 cdbe de13 493e c914 3c3e 6fc3 3fbf
00000070: 926d 8dbe a61c 10be 7f55 733c 69c2 0d3f
00000080: a473 03bf c7b4 603e 9f88 2bbd bd9e 85bd
00000090: 9dc4 3f3e 4367 0d3f b6f1 843e 74c0 6d3b
000000a0: 0ccc 0bbf 6b50 ad3e 1bdb 8b3e 9f23 8bbd
000000b0: 2171 2abd fd9f 93be 33b3 97be b9b5 82be
000000c0: b8dc 673d 2fdb 17bd 92e2 8e3e 8bc4 243e
000000d0: a62a fe3c 7e20 d0bd 2b48 1dbf ca43 e93e
000000e0: 4dfe b33b 0ffd 6cbe 902d e33e 7ebc 96bd
000000f0: 6d83 56be 0be3 103f e223 123e e945 323f
00000100: 0ecc 29be ab8b f13e 7142 77bf 583c 7dbe
00000110: 82a3 90be cbfd 2dbf 69da 4dbe 86c6 2d3f
00000120: 0f67 1b3f 5caa fdbe bdaa c93d 601f 25be
00000130: ae06 fe3d b9b9 183f 0550 fc3e b851 cb3d
00000140: a317 24be db7b 23bf 36a4 d43e a708 39be
00000150: 44bd f53e 22b7 073f 2275 423f 82b1 503e
00000160: 960e 063e 4ceb 4fbf 5946 de3e c3ca 2abf
00000170: fdd9 073f b29a ed3e 3c5c 98bd 3f17 fc3d
00000180: c9e0 c33d cc06 3dbf 2cba 05bf 0478 ec3d
00000190: 79bf 31bf 53a7 da3d 8078 3c3f 4ead c03e
000001a0: 70d1 463c 8027 3dbe 2b3b cd3e ec02 983e
000001b0: e832 093e 3b03 0bbe da0b a33e 59a9 d33e
000001c0: d2a1 813e 1ce0 b5be 3ff5 873e 89aa c13b
000001d0: 8e14 173f fbd6 55be 3693 6abe e2c8 a73e
000001e0: 7b41 d4be c76c 00bf 6ef6 b2be 910d d13c
000001f0: 339c bcbe ed0b 95bb 580e 353f 3de6 a13e
0.08595889 -0.10700817 0.32846668 -0.010406787 0.072330125 -0.28485528 0.19243005 0.521009
0.59165734 0.21674447 0.5107074 -0.3639272 0.19532533 0.5237921 -0.11578278 0.75105596
-0.035141286 -0.78332585 0.34021202 -0.2780648 0.18444528 0.13959157 -0.08233423 -0.77574426
-0.40115207 0.19636485 0.18367304 -0.74907583 -0.27622658 -0.14073429 0.014851927 0.5537477
-0.5134833 0.21943961 -0.04187834 -0.065244175 0.18727346 0.5523569 0.2596566 0.003627804
-0.54608226 0.33850417 0.27315602 -0.067939036 -0.041611794 -0.28833 -0.29628906 -0.25529268
0.05660698 -0.037074264 0.27907234 0.160906 0.031026196 -0.101624474 -0.61438245 0.4555953
0.0054929615 -0.23143409 0.443707 -0.07360171 -0.20948572 0.5659644 0.142715 0.69637924
-0.16581747 0.4717687 -0.96585757 -0.2473005 -0.28249747 -0.6796538 -0.20102848 0.6788105
0.6070413 -0.49544036 0.09847019 -0.1612525 0.12403618 0.5965839 0.492798 0.09927696
-0.16024642 -0.63860863 0.41531533 -0.18069707 0.4799596 0.53013813 0.7595998 0.20380214
0.13091502 -0.8121841 0.43413046 -0.6671564 0.53067 0.46407086 -0.07439467 0.12309121
0.09564359 -0.73838496 -0.522372 0.11546329 -0.6943279 0.10676446 0.7362137 0.3763222
0.012134895 -0.184721 0.40084204 0.2968973 0.13398325 -0.13575451 0.3184498 0.4134014
0.25318772 -0.35522544 0.26554295 0.005910222 0.5901574 -0.2088279 -0.22907719 0.3277045
-0.41456208 -0.5016598 -0.34953636 0.025519164 -0.3683792 -0.004548541 0.7072501 0.3162097

fc.2.weight f4 [128, 128]
00000000: 3009 963b 8d07 30be ebe9 043c cb23 babd
00000010: 38b1 8d3d bedd b6bd 5fa7 46bd 5bf1 273e
00000020: 573a 803e 05c9 d53d 9551 5dba 7329 3b3e
00000030: ec71 93bd 8cda abb9 029f 1b3e 01d7 a2bc
00000040: bb84 553e 21b8 a03e 6a54 5e3d eeb7 703d
00000050: ac5f 43be fb14 583d 8fe5 0dbe dc6c 26bd
00000060: 82ca 193e c304 4cbd 0cc0 353c e9d9 053e
00000070: afd7 e33d 9e8a 16be b26a b13d 7775 17bd
00000080: 844d d4be 73f2 59bd 3c69 acbd dc36 cf3d
00000090: 824e 9d3c 4e16 533a d01f d93b d7c1 b53d
000000a0: d7fc b23d 74f0 353c b62b 00be 194a 06be
000000b0: 7ffd 453d e215 00be bcd4 4abe de85 7d3d
000000c0: 14fa 543c 9eb8 84bd 1a3c 843c b27a f43d
000000d0: 6944 02be 8a90 093d 6ab1 8a3e 2251 513d
000000e0: 4217 bcbc 9485 0c3e 68e0 e1bd 66d3 ed3c
000000f0: 498e 253e 9241 c639 92c7 bc3d e9c4 febb
00000100: 87d4 d23d 2465 36bd 9594 97bd 01c7 8dbd
00000110: 9749 8ebe 426b c13d 0524 6b3a eb6b be3d
00000120: 2055 a53d 49f8 d1bd 7d47 bebd fc09 c53d
00000130: f9a7 003e a541 26bd 3787 cbbb 5e7f 32bd
00000140: 5ff7 d0bc 864a cbbd 7dfc 963d cfa9 dcbd
00000150: 32de 053d 57fb f4bc 67aa 0abd cd6d 86bc
00000160: d60e 5f3d c563 6abe d75b 933c adce a93e
00000170: 14f5 5dbd 0935 5fbc 423a 3f3e e124 263e
00000180: ac8a 673e 4b7c 453e 0c5d f13d ccbe ccbd
00000190: 134e a23c 9588 e5bc c00c 31bc 5e68 cbbc
000001a0: 3f5f 613d 133f 4a3e f1cd 0abe ab3f 0b3d
000001b0: c465 123d 8b22 163e 5913 e43d b515 843c
000001c0: 0db8 96be 9f0d 2f3d d63f d2b8 20b1 a4bd
000001d0: 27b7 1bbe 7d36 1cbe 4454 eabd 4554 2bbd
000001e0: 44e1 783e 5a57 a3be f60c 2a3d 66e4 3c3d
000001f0: 96b9 d73d a95b d1bc 6d9e 833e 0908 6b3d
00000200: 0aec b13c 2dac e23d 5187 f3bd 13ce b63c
00000210: b829 a0bd 4598 fa3d 6045 c5bc 9f79 093d
00000220: a9a8 a6bb e46e b23d 8ef8 6e3d 00d1 87be
00000230: 0994 e63d 64c0 be3c 3139 b8bc 18e5 d83c
00000240: dd4a 13bd 3128 23bd 96d6 ecbd 7b06 993d
00000250: b497 ba3d 1c3c 8cbd b8a9 12be 3a83 96bd
00000260: 6b11 883c b6fd 6e3d 4ce0 3a3d c5d4 43be
00000270: 59a8 d3bd f5d3 0e3e 3491 ddbe bf51 b8bc
00000280: ef84 043e e6c7 213e 8727 0e3e 09fd 90bd
00000290: 7734 a6bd cfe9 de3d 4d10 5bbd e3bb 72bc
000002a0: ab1e 70be 4d2c e63d d536 0bbd f32e 95bd
000002b0: 7829 eebc f923 b53c b738 80bd 379b 593d
000002c0: 74d2 a7bd 95ea 9bbd fab9 d83d 7724 7fbe
000002d0: 9b82 923d da4c 50bc b149 043e 88b6 c4bd
000002e0: d124 01be 5d8e 28bd 9393 393e c8c7 98bd
000002f0: fa4e 4b3e 01c5 e83d 3523 833d e733 9d3d
00000300: bd75 f6bd 7cf9 123d ea27 abbe 81c5 223c
00000310: d879 47bf 1689 92bc 3c13 1d3d 9c31 003e
00000320: e05a 9fbd 89b3 2abf efe5 403d 9b9b a5bd
00000330: a56d 92bc 8356 e63d 289a 85bd 8ee1 d63d
00000340: 2383 5ebe 797e 12be 92e1 14be 549d 303d
00000350: 1301 f83d 94b8 85bd 4c8e c9ba 4a14 793d
00000360: 1215 ba3d 8137 9abe 0b5b 103e eb85 1dbf
00000370: 28d4 d73c 686e d23d 384f aebb 49ff 76be
00000380: d7eb 24be 8698 11be 1c21 21be 202b e53d
00000390: b1a6 64be 0093 72bd 51d9 f03c 8e8e e43d
000003a0: 395f 04be 8494 bfbd 022d d73d ca85 f43b
000003b0: 26b3 0cbc ef0e 783d ab4a 58be e4e9 ac3c
000003c0: 56f3 9b3c 98ef fbbd 1da8 c5bd d6bd cdbd
000003d0: f6ae a33c 21c6 9c3c db27 2abd 4669 fd3c
000003e0: e8a5 85be f8b1 3e3e 8921 0dbe 8215 053d
000003f0: 6fd2 82be d48c c03d 6954 76bd 5cfe 6d3d
0.004578732 -0.1719038 0.008112411 -0.09088858 0.069185674 -0.08929013 -0.04849946 0.16400664
0.2504451 0.10438732 -0.00084426376 0.1827753 -0.07199463 -0.00032778492 0.15197375 -0.019877912
0.20851414 0.3139048 0.054279722 0.05876916 -0.19079465 0.052754384 -0.13857101 -0.04063116
0.15018657 -0.04980923 0.011093151 0.13071407 0.11125123 -0.14701316 0.08662929 -0.036977258
-0.4146539 -0.053209733 -0.08418509 0.101178855 0.019202475 0.0008052335 0.006626107 0.08874863
0.087396316 0.011104692 -0.12516674 -0.13114204 0.048337456 -0.12508348 -0.19807714 0.061895244
0.012999076 -0.064805254 0.01614194 0.11937465 -0.12721409 0.03358511 0.2708848 0.051102765
-0.022960309 0.13722831 -0.1102913 0.029031467 0.16167559 0.00037814357 0.092177525 -0.0077749384
0.102944426 -0.04453005 -0.07401387 -0.069227226 -0.2779052 0.09444286 0.0008969906 0.092979275
0.08072877 -0.10252435 -0.09290979 0.09621045 0.12564076 -0.040589947 -0.006211187 -0.043578498
-0.02550858 -0.099263236 0.07372377 -0.10774576 0.032682605 -0.029905004 -0.033853915 -0.016409779
0.054457508 -0.22889622 0.017988129 0.33165494 -0.054188803 -0.013623484 0.18674567 0.16225006
0.22611493 0.19285695 0.117853254 -0.09997329 0.01981262 -0.028019229 -0.0108062625 -0.02483004
0.055022474 0.19750623 -0.13555123 0.033996265 0.035741583 0.14661615 0.11136503 0.016123632
-0.29437295 0.0427376 -0.00010025471 -0.080415964 -0.15206586 -0.1525516 -0.11441854 -0.041828413
0.24304682 -0.3190258 0.041516267 0.046116255 0.105334446 -0.025556402 0.25706807 0.05738071
0.021718998 0.11067996 -0.11891044 0.02231506 -0.07820457 0.12236074 -0.024080932 0.033563253
-0.005086024 0.08712557 0.05834251 -0.26526642 0.11258704 0.023285098 -0.022488208 0.026476428
-0.035960067 -0.03983325 -0.115643665 0.07471939 0.09110966 -0.068474025 -0.14322555 -0.07349248
0.016609868 0.058347426 0.045624062 -0.19124134 -0.10334844 0.13948043 -0.43274844 -0.022499917
0.12941335 0.15798911 0.13882266 -0.070795126 -0.081154756 0.10884439 -0.053482343 -0.0148153035
-0.23449199 0.112389185 -0.03398784 -0.072843455 -0.029072508 0.02211188 -0.062608175 0.05312654
-0.081944376 -0.07613102 0.10582347 -0.24916254 0.07153817 -0.012713635 0.12918736 -0.096051276
-0.126117 -0.041151393 0.18122701 -0.0745998 0.19854346 0.113657005 0.064031996 0.07675915
-0.120341755 0.035882458 -0.3342889 0.009934784 -0.77920294 -0.017887633 0.03834842 0.12518924
-0.07781005 -0.666802 0.04709428 -0.0808632 -0.017874548 0.112469696 -0.065235436 0.1049224
-0.21729712 -0.14306058 -0.14539173 0.04311879 0.1210958 -0.06529346 -0.0015377491 0.060810365
0.0908605 -0.3012047 0.1409723 -0.6153247 0.026346281 0.102749646 -0.005319502 -0.24120821
-0.16105591 -0.1421834 -0.15735286 0.11189866 -0.22329213 -0.05922222 0.0294005 0.11160003
-0.1292695 -0.09354499 0.105066314 0.007462238 -0.008587634 0.060561117 -0.21122234 0.021107621
0.01903693 -0.12301558 -0.09651206 -0.10045974 0.019980889 0.019137444 -0.041541915 0.030933987
-0.2610314 0.18622577 -0.13782324 0.032491215 -0.25551173 0.09401861 -0.060139094 0.058103904

fc.2.bias f4 [128]
00000000: 7753 a0bd 9c00 973d 30e3 623b 1080 00bd
00000010: dfb8 7abe 1363 bfbc 40e3 1d3e 0a62 f7bc
00000020: 57fe 6a3d 0fd4 803d 2829 313d c751 16bd
00000030: 3845 303e 87f5 efbb 181f b9bd 7ef1 5ebd
00000040: 31fd b53d fed6 3c3e a678 183e b07e c93d
00000050: 751d 05bc 976b 39bd ad38 6f3c 51ed bf3d
00000060: 41ef 92bd 34a0 943d 7c24 673d 62d7 cfbd
00000070: 3aa9 4fbe 5b8a ff3d 1d3b b3ba c08b 52bd
00000080: dd6a fd3d 7c60 80bd 94bd 393a 1548 69bc
00000090: cf27 47bd 5f60 56bd 9f0b db3d 1af1 073d
000000a0: 9a9f babd 1a7e a9bd cf4a 1bbe 5db1 22be
000000b0: 19a6 c3bd 51f7 863d e6d1 623d 6747 d1bd
000000c0: 6f5c 4c3e 85fd 383d be55 b53c 7074 b73d
000000d0: 57b6 67bd ebad 0e3d 4d87 993d e8eb c0bc
000000e0: 7389 8b3d d4c5 043e a51c eb3b 6d46 adbd
000000f0: c0db 1b3e 0c35 b7bc cb3c 013e 1990 853c
00000100: fe1f 593d 8b91 a23d 16ac 1a3d f7a2 6abc
00000110: 5734 7e3c 39b5 8b3c 7d97 3639 6bcd ccbd
00000120: 2751 9fbd 4436 103e 361f d13d f5f2 6e3d
00000130: 0ef7 153e 08d7 a73d 25c0 0b3e 3d9d f1bc
00000140: b9ce b4bd 5c74 c2bd b5da 8e3d d712 f1bc
00000150: afbc cd3c af63 b2bd d9e9 303d 82a7 1d3d
00000160: ab85 dc3d 2971 083e da8a b0bd 0965 473e
00000170: 746f 0fbe 7a3c b3bd ed7e 56bc 5c88 0fbc
00000180: 7d3d 52bd 6a52 3ebe 08fa 6b3b 5fc4 a0bd
00000190: 9efe 3a3d 9eef 1ebd 3f89 f5bd 0070 d53d
000001a0: 00b4 813d a7c9 d8bd 7b08 c43d aff6 97bd
000001b0: 480b 083e eefa 85bd 68c9 0a3d e6fc 7cbd
000001c0: 8945 c1bd e1f9 0ebe a42d 71be 6c71 4e3d
000001d0: 6fb8 db3b 4780 fc3d 6115 d63d 2163 d43d
000001e0: 851c db3d 6c72 0e3e e047 153e c09f 21bc
000001f0: d03c 7e3b 9872 2c3e aeee 8b3d b6ca cb3c
-0.0782842 0.07373163 0.0034620278 -0.03137213 -0.24484585 -0.023362672 0.1541872 -0.030198116
0.057371464 0.06290447 0.04325214 -0.036699083 0.17213905 -0.0073229703 -0.09039134 -0.054429524
0.08886183 0.18441388 0.14889774 0.09838617 -0.008124699 -0.04526862 0.014600915 0.093714364
-0.0717454 0.07257119 0.05643128 -0.10148503 -0.20279399 0.12477561 -0.0013674233 -0.051402807
0.12373898 -0.06268403 0.0007085439 -0.014238377 -0.04862195 -0.052338 0.10695576 0.033188917
-0.09112473 -0.08276005 -0.15165256 -0.15887971 -0.09553165 0.065901406 0.055375956 -0.10218697
0.19957136 0.04516365 0.022135612 0.089577556 -0.056570377 0.03483383 0.0749651 -0.023549989
0.06813326 0.1296609 0.0071750456 -0.08460698 0.15220547 -0.022364162 0.12620847 0.016304063
0.053009026 0.07937916 0.03776177 -0.01432108 0.0155154085 0.017054187 0.00017413306 -0.10000118
-0.077791505 0.140832 0.10211031 0.05833717 0.14645025 0.08195311 0.13647516 -0.029493922
-0.08828492 -0.0949485 0.06975309 -0.029427929 0.025114385 -0.087104194 0.043191765 0.038489826
0.10767683 0.13324417 -0.08620234 0.19472136 -0.1400736 -0.08751769 -0.013091785 -0.008760538
-0.05132817 -0.18586126 0.0036007185 -0.07849955 0.045652978 -0.038802736 -0.11989068 0.10421753
0.063331604 -0.10585337 0.0957193 -0.07420098 0.13285553 -0.06542002 0.033883482 -0.06176462
-0.09437091 -0.13962509 -0.23552567 0.050401136 0.006705336 0.123291545 0.104532965 0.1037047
0.10698799 0.13910836 0.145782 -0.0098647475 0.0038793571 0.16840589 0.06832634 0.024876934

mean.weight f4 [2, 128]
00000000: 7313 71bb 8496 403e 2f7d 9fbe 4e59 28be
00000010: 20fe 1dbd e371 e2be d3f3 6a3e 927b 0ebd
00000020: 9f20 8bbe 5a6e b5bd 3d59 9fbd dfb8 c33c
00000030: ccfe 633e 878a 31ba b200 4dbd 03cd 913d
00000040: 496a 313e 2011 8ebf 64c8 773e 1639 283e
00000050: 1851 333e 8400 29bc b151 353e 28be 103b
00000060: 4632 97bd 29d0 b1bc bfbd 11bd 8083 f8bc
00000070: dc28 f33e c7aa f43d b65c 4c3c eb5c 033c
00000080: 21da babd 9b0d 58be 2032 653b d811 923e
00000090: bed4 f0bc bb73 23bc fc8a fa3d eb51 313c
000000a0: 6e4f ca3c 70eb da3d 3bdf aabd 9783 1c3e
000000b0: 0551 58be 8b05 6bbb 9869 fc3e 3ef1 fc3d
000000c0: 398d ff3e c9de 2cbc db47 10bd 2e33 1fbe
000000d0: cf0e 423c 44b7 833d 6505 f33e e490 7b3d
000000e0: 3f13 863d 35d9 9bbd 78e2 c9bc 952b 04bf
000000f0: 0c19 253e 86ed 9abd 399b 3c3e 7ecb e83c
00000100: 127f c0be 5448 543e f49c d9bd ff50 89bd
00000110: 25c5 373e 029c 1f3e ad55 ddbd 6cf2 33bd
00000120: 76ea 32bf c33e 083e 33aa 09be 5150 6f3d
00000130: 907b cbbe 0a0e ccbe ad3c 1e3e 7e48 9cba
00000140: 30ef ee3c 7edd 34bd c7cc ed3c 4aed 073e
00000150: 20d4 cbbd e734 bc3b 63aa 97bb 35da bebc
00000160: 9b5b 32bd 7687 4c3d d133 cebd 304e 42bd
00000170: e894 e1bd b537 8ebe 2d4f eabd 4013 7bbe
00000180: f50d f63d a97e 8abd 8d7c 76bc d1df 963d
00000190: ca05 14be fe85 b13d 779c acbd 1937 b8bd
000001a0: 8103 3f3d d8c2 17be a678 3c3f b02a 7b3e
000001b0: b3e9 a63d 40da 70bc 78eb 12bf e073 103d
000001c0: c7fd f93c 8255 44be 7e87 aa3e f008 d63d
000001d0: 2e35 253d 4f2c c4be febb bbbe 6552 483e
000001e0: 8a7b c9be 4876 9c3e 27d3 4e3c d205 c23c
000001f0: a37e fe3d b63d 1f3e 277b a0be b123 84bd
00000200: dc48 663e ef47 7abe c3bc 943e 63a4 a43d
00000210: f8fc a3be a7de bfbe 4593 043e 5cf9 2cbc
00000220: 3544 cdbd bd01 20be 3d8e cd3b 529b b33c
00000230: ee70 e7be ced6 d6bd 1fe5 c13d 00f4 3dbd
00000240: 8ae4 58be 7e70 72be 166c 213d 155a 9bba
00000250: c8c8 da3c 7bd2 cb3b 1bf8 233f 3838 873e
00000260: f099 12be d9f3 0fbe ec5b 363b 0f8b b23d
00000270: 5f82 eabe 3fe9 af3d 92bf ef3e 44f8 64bd
00000280: 508f 14be 34f6 2fbe 2a92 893b e582 42bf
00000290: 0384 a13d 4da6 813d 67cc d83d 9012 5cbb
000002a0: c131 2ebd 13ad ea3d 5d09 603e 6cdb 36bf
000002b0: 9198 2a3c ab1e 9f3d 655e 77be b704 793e
000002c0: 0eaa 3ebf 77fc 2abd b68e f9bc 2d87 4a3d
000002d0: 985a a13c 0d00 63bd 697c 3f3e 2756 3ebd
000002e0: 3f6e 03be ce03 5fbe 604d e03d 1ea4 e93d
000002f0: 62d7 823e 5257 a4be 1e5f c03c 369d 823e
00000300: d48b 20bf d073 42be ed2e 2ebd dfea 343e
00000310: cc33 36be 3a67 45be e59a d7be 8a96 9bbe
00000320: cf42 d73e cb24 5fbd 7bfd a43e 34ae 81bd
00000330: f564 833e 0696 c2be 346c 2c3e 4082 bf3d
00000340: 309a aa3b 51b8 4e3d 7a71 18bb f81b ab3e
00000350: 8add bdbd 6c90 22bd 424a 033d 8eae d83c
00000360: 4e3d acbc 74be 49bd dff5 793e 91d6 733e
00000370: 957a 16bf 04d7 5dbe b0a9 013e 6543 063e
00000380: b546 153e d726 b23e c6d5 acbc f59f 7e3e
00000390: 8d64 903d e3ea 65bd 10c7 b83d cc69 42bd
000003a0: b8d2 f0bd c9b3 a13e c79b e73e 38f4 ad3d
000003b0: 2911 2ebd 76a6 36bd 02e8 1bbf f610 8e3c
000003c0: 20c0 513c a607 9a3e 6459 d6be 0c80 02be
000003d0: a6c5 283e f078 cbbd 2457 56be d09e d83d
000003e0: 0d2a fabe 84ca 883e 4aac 14be b907 92bc
000003f0: e360 d0bd 9c6b 27be 147b e93c 2eca 45bd
-0.0036785274 0.18807417 -0.31150195 -0.16440317 -0.03857243 -0.44227514 0.22944574 -0.034785815
-0.27173325 -0.088589385 -0.07780693 0.023891864 0.22265166 -0.00067726563 -0.05004949 0.07119181
0.17325701 -1.1098976 0.24197537 0.16428027 0.17511404 -0.010315064 0.17706944 0.0022085998
-0.07382636 -0.021705704 -0.035581347 -0.030336142 0.4749211 0.11946636 0.012473276 0.008017759
-0.09123636 -0.2109894 0.0034972504 0.2852924 -0.029398318 -0.009976323 0.122335404 0.010822753
0.024696078 0.106894374 -0.08343359 0.15284573 -0.21124656 -0.0035861458 0.49299312 0.12350701
0.49912432 -0.010551163 -0.035224777 -0.15546867 0.011844351 0.064314395 0.47465053 0.061417475
0.0654664 -0.07609788 -0.024644122 -0.51629 0.16122836 -0.07564835 0.18418588 0.028417345
-0.37596947 0.20730716 -0.106256396 -0.06704902 0.17946298 0.15586856 -0.10807357 -0.043932363
-0.6988901 0.13305192 -0.13443832 0.058426205 -0.39742708 -0.3985446 0.15452833 -0.001192346
0.029166788 -0.044156544 0.02902831 0.13274112 -0.09952569 0.005743611 -0.004628466 -0.023297409
-0.043544393 0.049933873 -0.10068477 -0.047437847 -0.1101473 -0.27776876 -0.11440883 -0.24519062
0.12014381 -0.0676244 -0.015044344 0.07366908 -0.14455333 0.08668135 -0.08428281 -0.08994884
0.0466342 -0.1482042 0.73621595 0.24528003 0.08150043 -0.014700472 -0.57390547 0.035266757
0.030516518 -0.19173244 0.33306497 0.104509234 0.04033392 -0.38315055 -0.36666864 0.19562681
-0.39352065 0.3055899 0.012623585 0.023684416 0.12426498 0.15550885 -0.31343958 -0.0645212
0.22488731 -0.24441503 0.29050264 0.08039167 -0.32028937 -0.37474558 0.12946804 -0.010557499
-0.10022775 -0.15625663 0.0062730596 0.021924648 -0.45203346 -0.104901895 0.094675295 -0.046375275
-0.2118093 -0.23675725 0.03940972 -0.0011852408 0.026707068 0.0062201596 0.64050454 0.2641008
-0.14316535 -0.14057864 0.0027825786 0.087179296 -0.4580259 0.0858941 0.46825844 -0.055900827
-0.14507794 -0.17183763 0.0041983323 -0.7598098 0.07886507 0.063305475 0.10585862 -0.00335804
-0.042527918 0.114587925 0.21878572 -0.7142856 0.010412351 0.07769521 -0.24157102 0.24318205
-0.7447823 -0.041744675 -0.030463558 0.04944532 0.019696519 -0.05541997 0.18699802 -0.04646888
-0.12835024 -0.21778795 0.10952258 0.11408256 0.2555495 -0.3209787 0.023482855 0.25510567
-0.6271336 -0.18989491 -0.04252522 0.17667721 -0.17793196 -0.19277659 -0.42110363 -0.3038829
0.42043158 -0.054478448 0.3222464 -0.06332055 0.25662962 -0.38005084 0.16838151 0.09351015
0.005206369 0.050468747 -0.0023260997 0.33419776 -0.09270771 -0.039688513 0.03205324 0.026450422
-0.021025326 -0.049253896 0.24410199 0.2381232 -0.58780795 -0.21664053 0.12662387 0.13111646
0.14577754 0.34795257 -0.021098029 0.24865706 0.070504285 -0.05613221 0.09022343 -0.047464177
-0.117589414 0.31582478 0.45236036 0.08493847 -0.042496834 -0.044592343 -0.6090089 0.017342072
0.012802154 0.3008396 -0.41865075 -0.12744159 0.16481647 -0.09935176 -0.20931679 0.10577166
-0.48860207 0.26717007 -0.14518848 -0.017825948 -0.1017473 -0.16349643 0.028501071 -0.048288517

mean.bias f4 [2]
00000000: af99 bebd 586a 003d
-0.093066566 0.031351417

log_std.weight f4 [2, 128]
00000000: 8ab4 adbd 93d2 c93d 2e8a 3e3d 4cb5 b13b
00000010: b9d6 523e 726c 893e fe13 e3bb 8f5b 2fbd
00000020: 0cb1 87bd 30d4 2cbe f677 733b b80b f0bd
00000030: e3cb 653e bdd2 3dbd 585a 063c 0aab 81bc
00000040: 95fe 00be 7ee3 dc3e 3db8 053e 1016 f73a
00000050: ff63 37be 1ac0 b43d 179e 4c3d 27c6 80bd
00000060: 59a3 163e 9ce8 d7bd 6bdc 1abe a0a8 43bd
00000070: f2ed f93d 3819 943d ea50 9c3d 2175 9f3d
00000080: 8dc4 fa3d d63d ed3d b8a4 da3c 43ea 7b3e
00000090: ca25 92bc a776 1cbc a8fd 4bbd 3585 273c
000000a0: 6edf 28bd c799 b0bd cfd8 6abe 4086 86bd
000000b0: 26fd 1c3d d60e 303d cdf3 dd3c 44d4 73bd
000000c0: e903 a03e 6cd3 2c3d b019 13bc a03f 943c
000000d0: 50a7 11bd 69a3 823d 480e e93d 38bd 9d3d
000000e0: be86 3dbe dcd9 f83c 54e0 953d b70d 343d
000000f0: a1a7 88bd 992e 70bd d760 d5bc dc61 ec3d
00000100: dab4 14bd a728 d33d fbad 95be 834b 19be
00000110: 9a64 473e fae3 f4bb 9052 e13d 20a9 f73c
00000120: 20f5 343e b6e4 1d3d ec07 0bbe bb00 913d
00000130: 4a0f 45be 09e8 ae3d 647c 163d 8272 043b
00000140: db08 66bd 0482 783d 49ff 99be 5c05 df3d
00000150: 005c f83d 82ed af3d 4e57 ee3c 07ab 38be
00000160: 63aa 0dbc 9f50 28be d41e ecbd 4214 debc
00000170: 6ade 163c 0e5a 6cbc 694d 4cbe a330 1abe
00000180: a712 c73d d42b a73d 9fee ab3c 3fc3 11bd
00000190: c01a 86bc 5055 7f3d bbdb c63b f335 dfbd
000001a0: 54e3 0ebd 1ec0 e1bd a6a7 233f 9272 46be
000001b0: 4bb7 823e a0d1 09bc de97 49be 0c03 1ebd
000001c0: 1b73 253d 141a 773d b149 1d3c 6be9 18be
000001d0: d41c 93be b5d6 683d 69e6 6a3e 3a05 b2bc
000001e0: cc49 063e e178 df3b 865e 30be 6d49 0b3d
000001f0: 56bf 103d 172a febc 0277 25be a5e3 19bd
00000200: 7ed0 a53d 53d8 03be 3163 80bc 2cd8 013e
00000210: cf32 8d3d e9e7 ba3d 48ab acbd 1690 663d
00000220: f8da ee3a d9d1 9fba 9f00 593d 6e26 34be
00000230: e4cb 033e a7ed 6abd d851 213d 2555 1f3d
00000240: a1de bebd 45de 3a3e a5e1 eb3d a416 d5bd
00000250: 1f45 f8bd b3d8 b4bc bda9 dbbb b7fa 0f3d
00000260: b0c7 013d d569 9ebd 321f 09bc ee03 30bc
00000270: afa1 aa3d 3851 b23c 1334 1f3e c63e ed3c
00000280: 07aa a8bd e4a5 b03d f001 18bd 34fc da3e
00000290: ec0c b13d f232 45bd d798 85bd 1789 d1bc
000002a0: d6c3 b6bd 1f44 c6bc 927d 36bc efc1 bf3d
000002b0: f504 c0bd 4a3e 14bd 94f1 8e3d bba2 cbbd
000002c0: a7b4 143f 32c7 d9bc f570 f7bc af88 aa3d
000002d0: da30 9e3d 709c 91bd 6647 8f3e afab d4bc
000002e0: 572a b6bd 4c19 abbc bc88 2dbe 1afd a4bc
000002f0: aeb3 783d 22f4 49bc 9802 cebc 04c9 de3d
00000300: 1700 a13e 4368 6ebd 4b5c b7be 93a7 96bd
00000310: e24d 2ebc 81f3 2e3e ddac 213c 63dc 1a3e
00000320: 6e8e 233e 5114 11be d315 acbc e611 0f3d
00000330: 37ce 32be 1b37 b93d 5ddb 22bd 2064 583d
00000340: 24d2 8fbc 7105 d5bc a5fc 19bd 0c3d 39be
00000350: 4424 e1bc 8897 e73b ed70 8c3b e9d7 91bd
00000360: f73a f4bc f2c2 35be 444a b2bd 0605 ebbd
00000370: 7dfe a23e ba7b a2bd 770d ebbd 1b06 5ebe
00000380: fcf0 dd3d a92b dbbd b02f 413d 76d3 083e
00000390: 8436 4dbd a30b 913d 0db9 39bd 6f67 143d
000003a0: e15d 6fbe 1c9f 9a3d d3a4 8c3e c4ff 83bb
000003b0: 4f1e 39bd 48c8 0ebd e5e4 40be 842f 973d
000003c0: 5bac 0a3d 4b64 233c dac6 6d3d 751a fe3c
000003d0: bfce c5bd 0a8a 5dbd bb8e 86bd 7ff0 55bd
000003e0: b783 5e3e f1f9 133e 3d9f 4ebe 0836 003d
000003f0: e2e6 9ebc 9951 6c3e b2db 92bd 93d9 553d
-0.08481701 0.09854617 0.046518497 0.0054232236 0.20589723 0.2684055 -0.0069298735 -0.042811926
-0.06625566 -0.16877818 0.003715036 -0.11720985 0.22441058 -0.046343554 0.008200251 -0.015828628
-0.12597115 0.43142313 0.13058563 0.001885118 -0.17909239 0.08825703 0.049955454 -0.062877946
0.1471075 -0.105424136 -0.15123145 -0.047768235 0.122035876 0.072313726 0.07632621 0.077860124
0.1224452 0.1158406 0.026689872 0.24601083 -0.017840285 -0.009549773 -0.049802452 0.01022463
-0.041228704 -0.08623081 -0.22934268 -0.06568575 0.03832736 0.0429829 0.027093792 -0.059528604
0.31252983 0.042193815 -0.008978292 0.018096745 -0.035559952 0.06378824 0.11379677 0.07702106
-0.18508431 0.030377321 0.07318178 0.043958392 -0.06672598 -0.05863819 -0.026047153 0.11542103
-0.036305286 0.10310488 -0.292343 -0.14970212 0.1947197 -0.007473466 0.11002076 0.030232012
0.17671633 0.038548194 -0.1357724 0.070802175 -0.19244114 0.08540351 0.036739722 0.0020209854
-0.05616079 0.060670868 -0.3007758 0.10889694 0.121269226 0.08590223 0.029094364 -0.18033992
-0.00864658 -0.16437005 -0.115293175 -0.027109269 0.009208301 -0.014425768 -0.19951405 -0.15057616
0.097203545 0.081626564 0.020987807 -0.03558659 -0.016370177 0.06233722 0.0060686744 -0.10898962
-0.034884766 -0.110229716 0.63927686 -0.19379643 0.25530466 -0.008411795 -0.19686839 -0.038577124
0.040392976 0.060327604 0.009600089 -0.14932792 -0.28732932 0.056845386 0.22939457 -0.021731008
0.13114089 0.00681983 -0.17223558 0.03400557 0.035338722 -0.03102593 -0.16158679 -0.037570614
0.08096407 -0.1287549 -0.015672298 0.1268012 0.068944566 0.091262646 -0.08431107 0.056289755
0.0018223217 -0.0012193277 0.052979108 -0.17592785 0.12870747 -0.05735555 0.039384693 0.03889956
-0.09319807 0.18248852 0.11517648 -0.10404709 -0.12122559 -0.022075986 -0.006703584 0.03515121
0.031684577 -0.077350296 -0.008369254 -0.010743124 0.0833162 0.021767244 0.15547208 0.028960597
-0.08235555 0.08625391 -0.037111223 0.4277054 0.08645043 -0.04814429 -0.065232925 -0.025578065
-0.089240715 -0.024202405 -0.011138337 0.09363162 -0.093759455 -0.036192216 0.06979671 -0.09943148
0.58088154 -0.026584242 -0.03020523 0.083268516 0.077241614 -0.07109916 0.2798416 -0.025960771
-0.088947944 -0.020886086 -0.16946691 -0.02014022 0.06071823 -0.012326272 -0.025147721 0.108781844
0.3144538 -0.0582049 -0.358126 -0.07356181 -0.010638686 0.17085077 0.009867874 0.15123133
0.15972301 -0.14167906 -0.0210065 0.03492918 -0.17461477 0.09043714 -0.039759982 0.05282986
-0.017556258 -0.026003571 -0.037594456 -0.18089694 -0.027483113 0.0070676245 0.0042859227 -0.0712126
-0.029813273 -0.17750147 -0.08705571 -0.114755675 0.31834784 -0.07933755 -0.114771776 -0.21682017
0.1083698 -0.10701687 0.04716462 0.13361916 -0.05010082 0.07082298 -0.045342494 0.036231454
-0.23375656 0.07549879 0.274695 -0.0040282924 -0.04519492 -0.03485897 -0.18837316 0.0738211
0.033855777 0.009972642 0.058050968 0.031018475 -0.09658574 -0.054086722 -0.065701924 -0.052231308
0.21729933 0.14450814 -0.20177932 0.03130153 -0.019397203 0.23078002 -0.0717081 0.052209448

log_std.bias f4 [2]
00000000: 9ecf 7dbc eaa9 17be
-0.015491394 -0.14810911
