sac_actor.pth (torch, 74345 bytes, 8 tensors)

fc.0.weight f4 [128, 4]
00000000: f99c 63bd 988a 9f3d 802f 27be 4094 bbbb
00000010: 0844 7ebd d2b9 d9be 3485 8c3e e618 ddbd
00000020: 7401 a5bb f1a6 cd3c c6e6 2dbe 054a 363e
00000030: 9555 9c3e da07 49bd 3700 7cbe 0cfa 97be
00000040: 1022 7e3e 3bf2 f0bd 6bdb 6ebe 7a51 883e
00000050: 0d63 d63c ded6 8e3e 9d10 e03d 3a83 8dbd
00000060: 7725 81bd 3802 933e 7b54 173e c3e9 d1be
00000070: 94ab 823e 1d2b 76be abdf 02bf 2800 07be
00000080: fe21 463e 25bd 40bf 4eb9 4bbe ba89 403f
00000090: 457f 9d3e 2aae 88be dc60 d9be d437 003f
000000a0: 9d56 ac3e f45f c3be f7a1 773d 1921 643e
000000b0: 4cb0 a9be c513 4cbd 76f4 57b8 ab01 8cbe
000000c0: aa0e b33e 3c36 503e 3e78 b0be f093 4ebe
000000d0: fa9b f73e 2221 1e3d eb8e f7be 6f0e 34bd
000000e0: ab51 c1bd 9ac6 d2be 421f ea3d 0e50 d43e
000000f0: 715f debc 2647 7e3e ab18 fb3d 4d72 533d
00000100: 8eb3 be3c a5a7 9dbd 5a16 373e df12 7f3e
00000110: 4fba 9a3e c515 00bd 3410 c8be 296b 4f3d
00000120: fafa 66be 8664 1dbe 2b70 893c 28f6 533e
00000130: b741 8ebe 4449 07be d754 9a3d fdfb bb3d
00000140: bf9d d83e 3819 cebe 5a00 ddbe fe9c cf3e
00000150: f98d d5be b4e1 ab3e d2f8 213e 4913 e7be
00000160: ad1f 993e 74d0 183e 078b 213e f933 0dbe
00000170: 668c 5b3e a942 b93e 91f1 c63d 1e1f edbc
00000180: 4b68 ec3e e9e7 cabc 11f6 27be a16d af3d
00000190: 6bc3 973e 034f b53d 9970 d9bd d42f 8c3e
000001a0: 01e7 9b3d bdcd b73d da62 4f3e 69c5 c53d
000001b0: 3719 83be 1419 443e cb50 5bbe 692e 79be
000001c0: 7b2b 813e 14f3 d6bc 313a 363e bc7a d7bd
000001d0: 7ce9 50be ae39 703e 24a4 b43b 66e1 8d3c
000001e0: a571 763e d5c3 b93e e732 a1be d3cc 8ebe
000001f0: 8915 06be 17a1 723d 6195 dc3e a7c2 8fbd
00000200: 32f3 a2be 9f65 dcbe 4879 a33e 27f3 de3e
00000210: f648 c9bd 0a8e 8a3e 2d94 5cbc fcec 0a3d
00000220: 7222 5d3e bbec d3be 41b6 53bd 37ce 4c3d
00000230: 1491 0b3f aae9 c53e fe5c 0cbf 0d68 c9be
00000240: adfa 61bb d200 62bb 1c22 12bc 3d8f d6be
00000250: 3b53 963e b77b 01be 6cfe 49be 75b0 aa3d
00000260: 31cf dc3d 7fb4 3a39 b445 97be 8a84 ae3e
00000270: 9829 29bd 6633 b6be bd9b 13be ad2b abbd
00000280: cbaf edbe cd08 a4be efdb ed3e 5510 a63e
00000290: 4e0c d2bd 3983 22be f7a8 d1be 75e5 2dbe
000002a0: f8b6 09bf b7ed c7bd 73e6 0a3f b21d c73d
000002b0: 8b38 f83e f1f4 153f d105 f5be e1b7 13bf
000002c0: 7496 88be 9aab da3d 17c4 ab3e 9287 8f3d
000002d0: 558a c1bd 1ae0 9ebe 34aa c43c 71fa 0f3e
000002e0: 2f6a cb3d b87e ffbd 941e 2f3e f591 013f
000002f0: 5317 073e d5e5 27bf b080 0ebe 07f5 283f
00000300: 599c b63e ffd1 a8be f8fa 50bd b932 043f
00000310: d0de 763d 0c54 36be 2982 cf3e 9bf3 be3e
00000320: 7952 813e 89f7 723e 3eee 943d 5633 fdbd
00000330: e18d 2ebe 29a6 4fbc 05f2 ad3d 9a64 adbe
00000340: 71d7 15be a3fe 25bb bfdf 9d3e b4a7 673d
00000350: 82d3 6ebe 57a1 573d ed34 febd 829f 2ebe
00000360: ca0d ffbd fd96 a4bd 708e 683e dabd a63e
00000370: 1573 623e 42e9 31be c7a8 a9bc a0f8 a63d
00000380: d40f e4bd 32eb 9e3e c6ea 983e ca03 81be
00000390: 95c1 43bc 12a5 043e 3d93 b13e c6cc 9dbe
000003a0: ce49 9f3d 4dc1 903c feeb 443e 724f 55be
000003b0: d628 9b3e 6190 9c3e b8cd c3bd ad26 9ebe
000003c0: d0d2 0eba 8d80 a83e e24a 61be 0b94 a03d
000003d0: bbfb a93d beb6 c7be 9071 69be 8a09 d03e
000003e0: 6fe8 813d 8709 7ebe 7810 a03d b392 b9bd
000003f0: 4dfd 0cbf 64d9 553e da4c 0d3f 7b8f 51be
-0.055569623 0.077901065 -0.16326714 -0.00572446 -0.0620766 -0.42524582 0.27445376 -0.107957646
-0.0050355736 0.025104018 -0.16982564 0.17801674 0.30534044 -0.049079753 -0.24609457 -0.29682958
0.24817681 -0.11764952 -0.23325889 0.26624662 0.026170278 0.27898306 0.10940669 -0.06909795
-0.06305974 0.2871263 0.1477832 -0.4099866 0.2552153 -0.24039884 -0.5112254 -0.13183653
0.19348904 -0.7528861 -0.19894907 0.75210154 0.3076116 -0.26695377 -0.4245671 0.50085187
0.3365983 -0.38159144 0.060457196 0.22278251 -0.33142316 -0.04982354 -5.1487666e-05 -0.27345023
0.34972125 0.20333189 -0.34466738 -0.20173621 0.48361188 0.038605817 -0.48351225 -0.043959077
-0.09439405 -0.41167146 0.11431743 0.41467327 -0.02714512 0.24831828 0.122605644 0.051622678
0.023278978 -0.07697991 0.1787962 0.24909543 0.30220267 -0.03127076 -0.39074862 0.050639305
-0.22556677 -0.15370378 0.016777119 0.2069937 -0.2778451 -0.13211542 0.07535713 0.09178922
0.4230785 -0.40253615 -0.4316433 0.40549463 -0.4170988 0.33570635 0.15817574 -0.451319
0.2990698 0.14923269 0.15775691 -0.13789357 0.21440277 0.3618367 0.09714044 -0.028945502
0.4617332 -0.024768787 -0.1640246 0.08565832 0.2964128 0.08852961 -0.106171794 0.2738024
0.0761242 0.08974788 0.20252553 0.096567936 -0.25605175 0.19150192 -0.21417539 -0.2433411
0.25228485 -0.026238956 0.17795636 -0.105214566 -0.20401567 0.23459503 0.005512731 0.017319392
0.2406679 0.3628222 -0.31484148 -0.27890643 -0.13094153 0.05923566 0.43082717 -0.07019549
-0.31826168 -0.4304628 0.31928468 0.43544886 -0.09828369 0.27061492 -0.013463062 0.033917412
0.21595171 -0.4139155 -0.051687483 0.05000135 0.54518247 0.38654834 -0.54829395 -0.39337197
-0.003448169 -0.0034485352 -0.008919265 -0.41906157 0.29360375 -0.1264485 -0.1972596 0.08334438
0.10781706 0.00017805582 -0.29545367 0.34085494 -0.041299433 -0.3558609 -0.14414878 -0.0835794
-0.46423182 -0.32037964 0.4645686 0.32434335 -0.10256253 -0.1587037 -0.40949222 -0.16982062
-0.53794813 -0.097621374 0.5425789 0.09722461 0.4848064 0.58576876 -0.47856 -0.5770245
-0.26677287 0.10677262 0.33548042 0.0700828 -0.09450213 -0.3103035 0.02400694 0.1406038
0.09932362 -0.124753416 0.17101508 0.5061334 0.13192491 -0.6558507 -0.13916278 0.6599888
0.3566616 -0.32972714 -0.051020592 0.51639897 0.060271084 -0.17805499 0.40528992 0.3729523
0.25258234 0.2372724 0.072720036 -0.12363307 -0.1704631 -0.012673893 0.08493427 -0.33865815
-0.14632966 -0.0025328777 0.30834767 0.05655642 -0.23322871 0.0526441 -0.124124385 -0.17053035
-0.12453802 -0.08036611 0.22710586 0.3256672 0.22114213 -0.17374137 -0.020710362 0.0815289
-0.111358315 0.31038815 0.29866618 -0.25198203 -0.011948009 0.12953594 0.34682646 -0.30820292
0.07777749 0.017670298 0.19230649 -0.20831087 0.30304593 0.30578902 -0.09560722 -0.30888882
-0.00054482836 0.32910576 -0.22001222 0.07840737 0.08299967 -0.3900661 -0.22797227 0.40632278
0.06343161 -0.24808322 0.07815641 -0.09061184 -0.55074006 0.20883709 0.5519539 -0.2046489

fc.0.bias f4 [128]
00000000: 3e89 edbe 6d2e adbe 1b89 12bf 4440 8fbf
00000010: fa87 e13e 4004 153f c8b6 1cbf f46c f53d
00000020: 7a89 023e 4c41 d23e b0a9 0a3f 64e6 5dbf
00000030: 900c dd3c 3401 093e 436a 033e e409 c3be
00000040: 3e09 2cbf e116 793e 40fa 0bbf 0120 a13f
00000050: 6a5e 153e e907 0bbe a0ce 37bf 6406 cf3e
00000060: bd04 58bf 9347 ab3e 6215 d13e 52c2 5cbf
00000070: d675 593f 4ecf 1d3e 9b20 013e 581c 82bf
00000080: 5c53 c53d ccd1 80bf f957 57bf 4e5d 383e
00000090: bba2 80bf bfee f7be 3149 1cbe d7d0 04bf
000000a0: cc04 d33d 6f12 673e cebf ec3d db8c 22be
000000b0: 2d5a 0abf 3b19 4f3f 8cb8 0dbf 40e9 873e
000000c0: 5f96 38bf f952 db3d 2edb 73be 2cc0 4bbf
000000d0: fae4 0c3f 4343 89be ec63 cf3e a5ef 5abf
000000e0: 363e 5e3c bbb4 24bf 3520 d6be f4dd 743f
000000f0: f74c 87bf 2ce8 14bf c5cf 953f 4366 173e
00000100: 21b8 a93e 5bea 8a3e f4d6 3fbf 9b13 01bf
00000110: a4cb 65bf 6fd1 b1bf a4d5 003f 73c5 f53a
00000120: fe5e 68bf fc51 ff3d ee1d e2be 4438 a0be
00000130: c876 04bf a323 cc3e 9113 73bf 7e32 5d3e
00000140: b559 40bf 22b4 b53e c4b9 c83d f5c7 4abf
00000150: 9135 01be ee24 60bd 116a 1f3e 83b8 7ebf
00000160: bab4 53bf a40c 1a3e 8382 65be 7bb8 653e
00000170: afc0 82be 1679 01bf 99df 053f d2ab 96be
00000180: 62a2 983d 7570 bfbe 7da2 5ebe 00e3 223e
00000190: 24c6 5f3f 92d3 86be 9cdf ddbd 4ec1 f8be
000001a0: 93cc 4f3f 2b74 093f d74a a93d 3420 25bf
000001b0: 65ba 81bd 4969 3abf efc1 63bf 2e50 d53d
000001c0: ad90 f43d a214 7fbe a488 d7be 77c2 fb3e
000001d0: facd 85be 3c72 d6be a14e b03d f560 29bf
000001e0: 5fe4 5b3f ec67 533e 4988 4e3f 230b 6d3e
000001f0: efb6 a3bf 9de2 343d d72a 97bf 3aa1 39bf
-0.4639377 -0.33824483 -0.57240456 -1.1191487 0.44049054 0.5820961 -0.612164 0.11983672
0.12747756 0.41065443 0.5416517 -0.86679673 0.02698353 0.13379365 0.12833504 -0.38093483
-0.672016 0.24325134 -0.54678726 1.2587892 0.14586797 -0.13577236 -0.7179966 0.40434563
-0.8438223 0.33453044 0.40836626 -0.8623401 0.8494543 0.15411112 0.12610094 -1.01649
0.0963504 -1.0064025 -0.8411861 0.18004343 -1.0049661 -0.48424336 -0.15262295 -0.51881164
0.10303649 0.22565626 0.11560021 -0.15874045 -0.5404385 0.80897874 -0.5535972 0.26545143
-0.7210445 0.10709185 -0.23814079 -0.79590106 0.5503689 -0.2680913 0.40505922 -0.8552192
0.013564637 -0.6433827 -0.41821447 0.95651174 -1.0570363 -0.58166766 1.1704031 0.14785103
0.33148292 0.27131924 -0.7493737 -0.5042054 -0.89763856 -1.3892039 0.5032599 0.0018750861
-0.90769947 0.12466809 -0.4416346 -0.31292927 -0.51743746 0.3987094 -0.9495173 0.21601292
-0.7513688 0.35488993 0.09801057 -0.7921136 -0.1261809 -0.05472272 0.15567805 -0.9950029
-0.8269764 0.15043885 -0.22413068 0.22433655 -0.2553763 -0.5057539 0.5229431 -0.29427963
0.07452847 -0.37390485 -0.21741672 0.15906906 0.87411714 -0.2633329 -0.10833666 -0.4858498
0.8117153 0.53692883 0.08266228 -0.64502263 -0.0633438 -0.728169 -0.88967794 0.10415684
0.11941657 -0.24910215 -0.42096436 0.49171802 -0.2613371 -0.4188403 0.08608747 -0.6616357
0.8589534 0.20645112 0.80676705 0.2314878 -1.2790202 0.044161428 -1.1809949 -0.7251164

fc.2.weight f4 [128, 128]
00000000: 9f6e 3cbc a01d 93bc 42a3 4d3d 3867 593c
00000010: 3d27 82bd 30a2 f6bc d05b b9bd f13f b9bd
00000020: 5544 3cbd 2b44 1cbd 79e2 50bd b3ad 013d
00000030: 2133 81bd c68c 36bd 14c5 a4bc 6749 ea3c
00000040: 4dc9 4fbd 49ca 6a3d bb4b b9bd a61d 5abd
00000050: 67e9 393b 6284 bfbd 8971 353d 9231 b1bd
00000060: 2f48 37bd 0a20 e8bb 687a c1bc 0c27 90bd
00000070: dbe2 8d3d 335d 8cbd 1b6e b8bd 5853 95bd
00000080: 9965 b93d f693 a3bc f4cc 853d 781b 873d
00000090: 1631 613d 340a 72bc e2b0 aabc 40e4 ccbd
000000a0: d3b1 2b3d eca2 47bc 22ec 7cbd ebba 1a3a
000000b0: 8143 883d 9412 a6bd b00e 953d 1652 74bd
000000c0: 6fae 273d f985 6e3d d238 87bc a9d1 043b
000000d0: 9489 89bd cf01 cf3c d413 86bd 39e8 89bd
000000e0: 9e3e 65bd 4ad0 123c bd36 893d e0f9 543d
000000f0: f194 d4bc 71a8 71bd 6305 24bd bfc3 ac3d
00000100: b865 91bc f91d c4bd 7f7e b23c f8c3 53bc
00000110: 1d24 ac3d 8dca b5bc 009d 3cba cfdf 85bb
00000120: 7db6 acbb 57d6 a9bd 9ae0 47bd 7ca8 7abd
00000130: f910 9b3b 38ae f43c 9e5d 7d3d cf72 403d
00000140: 7114 c5bc 0f16 b2bd 27a9 75bc 3f2a 08bd
00000150: a691 5cbd b1d7 a8bd 30ee a1bd 80c2 803d
00000160: 5ec2 87bd db10 90bd 50c3 63bc 73d2 c1bd
00000170: 3d9f 8e3c 5bd1 58bc d03d 573d c637 893c
00000180: c1c4 943c a753 98bd 1686 9e3b d093 31bd
00000190: 485e 903d c0b6 89bb 4ee2 8ebd 0bca 99bc
000001a0: 870d a4bd 3791 47bd be1a 99bd 68e2 943d
000001b0: a333 653d 7441 183d 946f 9abd 7f2e 48bd
000001c0: ac7b 74bd 55fc 6cbd d10d 473d 7add 82bd
000001d0: 9378 b13c b6d1 383d 5452 693d 106f 713d
000001e0: 95d0 37bd 7d83 a7bd ecde 4fbd c5fe 8fbd
000001f0: 36b0 51bc c2e7 1b3d efa6 a1bd bcf6 a9bd
00000200: 455c 4fbd aec3 ffbc b37e 813c 4403 563c
00000210: ee75 20bd bd0f cbbc 6bd4 0a3c eeed 803d
00000220: b5bb 8b3d 8b3e 45ba 61d7 b9bd b733 cebd
00000230: 48d4 cd3b 5e6e 5d3c 9534 cf3c 3268 d53c
00000240: 8a61 11bb 8727 ae3c 77bd b0bb 9e1c ab3c
00000250: 2d5f a1bd 9055 623d e608 65bd 31d0 66bc
00000260: cae4 943d f46f 49bd 72bb 27bd ca45 533c
00000270: e883 bcbc ba51 36bd 480a efbc 6d7e 773d
00000280: adc9 b7bd 9fb2 2bbd c34a 90bd 4ece bbbd
00000290: 7941 2c3b 93e3 aabd da4c 5dbd 6993 b4bb
000002a0: e0ea 813d d810 87bd 7391 14bd c919 0c3d
000002b0: 56a8 33bd c29a 85bb 43c9 f7bc fbac 81bc
000002c0: 5680 bbbd efd7 2bbd 99d9 bdbd cc64 bebd
000002d0: 65d2 863c 5c28 40bd 5104 3f3d 8195 00bd
000002e0: db97 a6bd a0bb e43c 7588 32bc 7273 e83c
000002f0: f26b 7dbc 26e4 b1bb ba57 893d 6c85 02bc
00000300: 6ca8 9dbd 31e6 70bd d971 473d 747f da3b
00000310: 1e22 a0bd 874d 8f3d 0c51 d7bd 42d7 743c
00000320: ff1f 853d 424c d6bc 7d70 3ebd ca1c 3fbd
00000330: dc0c d73c 6636 9bbd ab19 d8bd 5e0b 17bd
00000340: 19c8 3c3d 9370 9ebd 8bb6 adbd 6f3f 833d
00000350: 7201 afbd eef6 e83b 00a3 e5bc 8db5 463d
00000360: a0b7 aabd c499 6fbd 82e8 b93c 652e 3ebc
00000370: 107f 23bd 6859 47bd 97df 97bc 28e9 3a3d
00000380: eb4c aabc 8c10 98bd ac94 cabc f486 76bc
00000390: ecb2 2e3d 2617 2e3d 9779 e3bc 1d7c 5ebc
000003a0: a843 7c3d b920 81bc 0ef1 203c 450a 6e3d
000003b0: 5caa 9a3d bfd4 8c3b f2d6 ff3c 8164 07bc
000003c0: ed46 c6bc bb9b 9e3d 2327 f0ba b848 d53c
000003d0: d00e 9e3c 08c1 763b f137 ff3c 6d6d a93c
000003e0: bd02 dcbc afa9 7abd 6ba3 50bc 731a e33b
000003f0: 66f1 7bbd bcfb 853c 3275 0a3c c1df 00bd
-0.0115009835 -0.017958462 0.050204523 0.013269238 -0.0635514 -0.030106634 -0.09050715 -0.09045399
-0.045963604 -0.038150948 -0.05099723 0.031659793 -0.0630858 -0.044567846 -0.020113505 0.028599454
-0.050729085 0.05732182 -0.090476476 -0.05325093 0.0028367878 -0.09351422 0.04429773 -0.08652033
-0.044746574 -0.0070838975 -0.023617938 -0.070386976 0.06928035 -0.06853714 -0.09005376 -0.07291287
0.09052581 -0.019968014 0.06533232 0.06597036 0.054978453 -0.01477294 -0.020836297 -0.10004473
0.041917633 -0.01218484 -0.06174863 0.0005902487 0.066535 -0.08109012 0.07278192 -0.059648596
0.040937837 0.058233235 -0.016506586 0.0020266569 -0.06715694 0.025269417 -0.06546751 -0.06733746
-0.05596792 0.008960793 0.066998936 0.051996112 -0.025949927 -0.05899853 -0.0400442 0.08435773
-0.017748699 -0.09576029 0.021788834 -0.012925141 0.084053256 -0.02219131 -0.00071950257 -0.004085518
-0.0052707777 -0.08292835 -0.04879818 -0.061195835 0.004732248 0.02986823 0.06185686 0.04698449
-0.024057599 -0.086956136 -0.014993942 -0.033243414 -0.05384984 -0.08244265 -0.07906759 0.06287098
-0.066288695 -0.07034465 -0.013901547 -0.09463968 0.017409915 -0.013233508 0.052549183 0.016750228
0.018160226 -0.074378304 0.0048377616 -0.043353856 0.07049233 -0.0042026937 -0.06976758 -0.0187731
-0.08010393 -0.048722472 -0.07475804 0.07269746 0.055957448 0.037171796 -0.07540813 -0.048872467
-0.059688255 -0.05785783 0.04859716 -0.063898996 0.02166394 0.04512187 0.05696328 0.058943808
-0.044876654 -0.08179376 -0.050749704 -0.07031015 -0.01279836 0.03806282 -0.07893168 -0.08299014
-0.050625104 -0.031221237 0.015807485 0.013062302 -0.039174967 -0.024787778 0.008473496 0.062953815
0.06822912 -0.0007524273 -0.090742834 -0.100684576 0.0062814094 0.013515083 0.025293628 0.02605066
-0.0022183382 0.021259082 -0.0053936797 0.02088767 -0.078794815 0.05525738 -0.05591669 -0.014087723
0.072702006 -0.049179032 -0.040950246 0.012895057 -0.023012117 -0.044511534 -0.029179707 0.060423303
-0.089740135 -0.041918393 -0.0704551 -0.09170209 0.0026284142 -0.083441876 -0.05402837 -0.0055107367
0.06343627 -0.065950096 -0.036271524 0.03420428 -0.04386171 -0.0040772865 -0.030247336 -0.015829554
-0.091553375 -0.041953977 -0.09270019 -0.09296569 0.016457746 -0.04691349 0.046634976 -0.031392578
-0.08134433 0.027921498 -0.010896792 0.028375361 -0.015467631 -0.0054288087 0.06706186 -0.007966381
-0.076981395 -0.058813278 0.048692558 0.0066680256 -0.07819007 0.06997209 -0.10513505 0.0149439
0.065002434 -0.02615941 -0.046493996 -0.046658315 0.026251249 -0.07578735 -0.10551771 -0.036876075
0.046089265 -0.077363156 -0.08482083 0.064085834 -0.085451975 0.0071095144 -0.028031826 0.048512984
-0.08335805 -0.05849625 0.022693876 -0.011607741 -0.039916098 -0.04866925 -0.018539233 0.04563251
-0.02078863 -0.07425031 -0.024729095 -0.015046824 0.042651102 0.042502545 -0.02776794 -0.013579396
0.06158796 -0.015762674 0.009823097 0.058115263 0.07552025 0.0042978222 0.031230424 -0.008263708
-0.024203742 0.07744547 -0.001832221 0.026035652 0.019294173 0.0037651677 0.031154605 0.020682061
-0.026856774 -0.06119698 -0.012734274 0.006930643 -0.061509512 0.016355388 0.008450793 -0.03146339

fc.2.bias f4 [128]
00000000: baf9 69bd 5f4e 933c 86c5 ca3d c9da 86bd
00000010: 0841 273e 2e32 c4bc dc42 883d c471 19be
00000020: 8425 213e 8f8a cd3e dd4d 75bd 5dc6 bb3d
00000030: 9c07 8d3d 57ec c53e d95c 423e 07a0 acbd
00000040: d2d4 2fbe 2631 a7bd 7250 923e 7394 61bd
00000050: 75e7 f23b a103 b23e ecc2 8b3d 24ef 223e
00000060: ec58 063d df01 8f3e 0fe1 54bd 57bd 9a3e
00000070: e862 5d3e a208 ed3d bbc3 f53e b4f1 8b3d
00000080: 6f45 8cbd 0e39 433d 2464 123f ef29 253a
00000090: 9c99 3e3e 6b72 4abd 7fce 883e 2c7f 273b
000000a0: d76c 863e c4dc 0cbe e36f 4d3c 5adb f1bc
000000b0: 1f45 3e3e 102f adbc 06d7 9dbd 36bc 623d
000000c0: e004 3fbd b736 30bd 919d 94bc 5788 87bd
000000d0: 9727 8bbd 2ae7 04be 7e1b 8f3e ac69 153d
000000e0: 56d9 1d3d fa6f 763e 2126 293b 88df ad3a
000000f0: a4b0 86bc 8bea 37bc e75a bd3e f292 81bc
00000100: 62ef 82bd a2e4 073e 441f 073d 8919 b73e
00000110: 561a 873e bfe9 66bd a7f5 4f3e 72bb 06be
00000120: f03c 76bb 95b9 6abd 35e5 e23c 8cf7 7d3e
00000130: 1910 823c 1212 923d 676a 283e e2a0 acbe
00000140: 379b 383e 4b5c dfbe 6d57 253e 9a97 afba
00000150: d77d 5e3d 7e7e 733e c362 a1bd b9e5 4a3e
00000160: 9613 713d c1f0 13bd a2d2 d23e fbf5 9d3d
00000170: 6ea0 173e 9423 0d3d cb8d 213e b0ee f9bc
00000180: 31e6 003e 4b33 1a3e 3ca7 a03e 5ea6 a63e
00000190: a27b 823e 748b 993e 6cd3 2d3f 33ec 923c
000001a0: 8fe1 b3bc 3908 10be a48f 62bd 7eaf 0a3f
000001b0: 80c3 403d 0a12 893d f4d7 d83e 014f 953c
000001c0: 4ba2 1b3d 2799 313d 3b10 273e e640 a43e
000001d0: e6e9 bb3e 79d5 04bd a422 a7bd b2e9 2f3f
000001e0: bf44 793d 6752 d43d 19b5 46be 921f bebd
000001f0: baa5 dd3e a5df a73e d03c ea3e c9c0 6a3e
-0.057122923 0.017981706 0.09900956 -0.06584699 0.16333401 -0.023949709 0.066533774 -0.14984804
0.15736967 0.40144774 -0.05988871 0.09168694 0.06886217 0.38656875 0.18980731 -0.0842896
-0.17171028 -0.08163671 0.28577 -0.055073213 0.0074128457 0.34768394 0.06824288 0.15911537
0.032799646 0.27931115 -0.051972445 0.3022258 0.21619761 0.11573912 0.48000893 0.068332106
-0.06849181 0.047661833 0.5718405 0.0006300499 0.18613285 -0.049425524 0.26720044 0.0025557978
0.26254913 -0.1375609 0.012538883 -0.02952354 0.18581055 -0.021140605 -0.07707028 0.055355273
-0.04663551 -0.04302093 -0.01814154 -0.06617802 -0.067946605 -0.12978807 0.27950662 0.03647773
0.038537346 0.24066153 0.002581008 0.001326547 -0.01644165 -0.011225353 0.36983415 -0.01581714
-0.06393315 0.1327081 0.0329888 0.3576167 0.2638728 -0.05637526 0.20308553 -0.13157442
-0.0037572943 -0.05730589 0.027697185 0.24801463 0.015876817 0.07132353 0.1644684 -0.33716494
0.1802796 -0.436251 0.16146632 -0.0013396621 0.05431923 0.23778722 -0.078801654 0.19814195
0.05885657 -0.036118273 0.41176325 0.07712933 0.14807293 0.034457758 0.15776746 -0.030509323
0.12587811 0.15058629 0.3137759 0.32548803 0.2548495 0.29989207 0.6790073 0.017934894
-0.02195814 -0.14065637 -0.055312768 0.5417403 0.047061443 0.06692894 0.4235226 0.018226149
0.03799657 0.043358948 0.16314785 0.32080764 0.36701888 -0.032430146 -0.08160904 0.68715966
0.060856577 0.103672795 -0.19405021 -0.09283365 0.43290502 0.32787815 0.4574952 0.22925104

mean.weight f4 [2, 128]
00000000: 2a24 ea3b a994 1c3d ba35 cabd d9e9 813d
00000010: af1f 4cbe d3cd 9cbe a92a 503e 5440 cdbe
00000020: f410 6d3e f619 46be 8591 3fbd e23b 903e
00000030: 1e6c 8dbd 428e 31be 811e 553e f114 97bc
00000040: 33d5 12be 0a7e a63d f658 4bbd ec7f 033e
00000050: f3e3 a1bd dc65 07be ca85 993d ad3b 5ebd
00000060: ef9b 66bd 8822 b9bc e7d2 ca3c 7946 72be
00000070: 7c76 87be 6141 4f3f da1d 2b3f 673d e73d
00000080: 3a4a d5bc ba94 5bbd ba2e adbd 0263 c43c
00000090: 116d 60bd 90a3 09bd cf7b a3be 7e05 9cbd
000000a0: 3a6d 11be 9991 d1bd 0efc dbbc 2b39 473b
000000b0: 4daf 86be 6c95 5b3d a908 49be 46e6 fd3c
000000c0: cee5 073f 10d4 22bd 34a4 703c 900f 083e
000000d0: 7845 ebbc 5e80 4b3d 24ac 6c3e c07a 9f3b
000000e0: ddc2 62bf 5940 8cbe b01f 54be 97fe 25bc
000000f0: 5851 853d ff0a 91bd 9d52 09bf b56f 43be
00000100: cf51 7abd 3aac 03be a596 38bd 12c6 ea3d
00000110: cdec bb3d ff2d 703d f379 46bd 5749 f9be
00000120: d29f f0bd d1f8 0b3e 7e91 c2bc c2c1 89be
00000130: 10e1 1d3d 0436 53be 046e 5f3e e5b7 7abd
00000140: 45f2 58be 24cc 41be fc52 8a3e 09c6 ac39
00000150: d555 273c 9303 0b3e 96b3 4fbd ad1b 76be
00000160: decb 54be 6f54 66bd 5731 06bf 623b 563e
00000170: 3a49 9a3e 8b3d adbc 68d1 0bbf c0ce 853b
00000180: 012a 903f 133a e73e 5bde 783e 5c9f fe3d
00000190: 0bf5 093f 9597 0bbd ecef 02bd bd45 1fbd
000001a0: 59d4 f23b ce54 173e 94ad 2c3c fe8b 6cbd
000001b0: 051c 18be ce3e d63d 1e63 15be 6b10 b93c
000001c0: db0c 68bc e473 a13c 81cf 373e d63b bf3e
000001d0: 394b c53e cb74 ffbc c083 343c c526 5bbd
000001e0: f899 483d 2165 40be bc3d 013c ac57 d33e
000001f0: 9447 8b3e 2843 59be 9e87 a63e bc1e b5be
00000200: 1a29 a2bd ae98 2ebd 7589 10be 8931 96bd
00000210: 251b 2ebf cc40 09be 31f9 913e e4b2 033f
00000220: 85f6 af3e ab67 5b3e 6505 d4bc 9b56 24be
00000230: 1168 493e 5cb6 9dbe b70d f4bc 582f 5cbc
00000240: 2446 0b3e 2f3d 1ebd d5a6 803e 9b2f 8abe
00000250: b651 a3be 4f04 1cbe 238c bebe 49df 7dbe
00000260: 4ddd e5bd 60be f33e 8eba ba3b 6488 7fbd
00000270: de3c 843d 63d4 093e 6072 f1be 10e4 03be
00000280: 8d55 b8bc c0d3 6c3d 66e5 233e 0092 90be
00000290: f3b3 7e3e 630f d33e 2f08 d6be 8c18 943e
000002a0: 0875 7bbf a59d 07be dfdf 2e3c df60 e03c
000002b0: e9c1 e9be 18d1 15bc 5e1b cf3d afe2 28be
000002c0: bff8 c2bc 9bd4 b33c 2799 0a3d 5da3 84be
000002d0: 2053 3a3d 7c06 013e 57a1 d83e 1b14 663d
000002e0: 4c79 97bd eb1b 5b3e e704 303f 5b4b 2b3c
000002f0: b7ae e03c 3be8 a03e 5c2f 46be caac db3d
00000300: d527 be39 e391 9a3e a296 d5bd 81d4 52be
00000310: 83e2 a53e 64b3 2dbd 339e 303f 424f 763d
00000320: c5c0 dc3e 9dc5 2d3e 93c0 333d 79e0 10bc
00000330: 80c0 683d c589 603e 98cd e43d e02d cbbd
00000340: 3a3d 1d3e c049 c13e fa8f fb3c 7655 7d3c
00000350: 1415 c23e b585 98be efad 08bd d541 5a3e
00000360: a618 0b3d 2ec2 fabc b3ff d83d cbc2 493d
00000370: 4770 3ebf 6935 e83b 861f df3c 60bd a23b
00000380: a66a 543e 4f45 083f d506 a73c 9f5a 90be
00000390: c12f 72bd 37ab 873e b64e 9ebe 63ac 0bbd
000003a0: b81d 063d 8913 5b3e 3f93 b0be 6957 10be
000003b0: 87c2 e23d 242e ab3e 528e 33be 8f4e 403c
000003c0: a9d3 fe3c bace febb e76b 863e 8f36 d03c
000003d0: 061b a23b 6573 71bd 80d2 91bd fdef 07be
000003e0: 6779 a73d 25f0 6abe c8b5 8d3e 7e38 a8bd
000003f0: 70f3 283d f800 f6be dc10 aebe cfd1 18bd
0.0071454244 0.03822771 -0.09873529 0.06343431 -0.19933961 -0.3062578 0.20328774 -0.4008814
0.23150998 -0.19345841 -0.046769638 0.28170687 -0.06905387 -0.17339423 0.20812418 -0.018442603
-0.14339142 0.08129509 -0.049645387 0.12841767 -0.07904806 -0.1322245 0.07496221 -0.05425613
-0.056301054 -0.022599474 0.02475877 -0.23659696 -0.26457584 0.80959135 0.66842425 0.112910084
-0.02603637 -0.053608634 -0.08456178 0.023972992 -0.054791514 -0.03360325 -0.31930396 -0.07618235
-0.14201823 -0.10232849 -0.026853587 0.0030399065 -0.2630562 0.053609297 -0.1963221 0.030993592
0.5308503 -0.03975302 0.014687587 0.13287187 -0.028719649 0.049682967 0.23112541 0.004866928
-0.8857859 -0.27392843 -0.20715213 -0.0101315 0.06509656 -0.070821755 -0.5364168 -0.19085582
-0.061113175 -0.12858668 -0.04506554 0.1146356 0.091760255 0.058637615 -0.048456144 -0.48688766
-0.11749233 0.13669135 -0.023751017 -0.26905638 0.038544714 -0.20626074 0.21819311 -0.06121053
-0.21186168 -0.1892553 0.27016437 0.00032953944 0.010213335 0.13575582 -0.050708376 -0.24033995
-0.20780894 -0.056232866 -0.52419037 0.2092109 0.30133992 -0.02114751 -0.54616404 0.0040834844
1.1262819 0.45161495 0.24303572 0.12432739 0.5388953 -0.034080107 -0.03196709 -0.038884867
0.0074105677 0.14778444 0.010539431 -0.057750694 -0.14854439 0.10461198 -0.14588591 0.022590837
-0.014163221 0.019708581 0.1795025 0.3735034 0.38533953 -0.03118362 0.01101774 -0.05350377
0.04897496 -0.18788578 0.007888254 0.41277826 0.27203047 -0.21217024 0.32525343 -0.3537501
-0.07917996 -0.042626075 -0.14114936 -0.07333667 -0.6801017 -0.13403624 0.2851043 0.5144484
0.34367767 0.21426265 -0.025881479 -0.16048662 0.19668604 -0.30803192 -0.029791696 -0.013439022
0.13600975 -0.038632568 0.25127283 -0.26989445 -0.31898278 -0.15236019 -0.3721629 -0.24792208
-0.112238504 0.47606182 0.0056985086 -0.06238593 0.06456922 0.13459925 -0.47157574 -0.12879968
-0.022501731 0.057819128 0.16005477 -0.2823639 0.24873333 0.41222677 -0.4180312 0.28924978
-0.9822545 -0.1324373 0.010673492 0.027389942 -0.45655754 -0.00914409 0.10112642 -0.16492723
-0.023800252 0.021951964 0.033837464 -0.25905886 0.04548943 0.1260013 0.42310593 0.056171518
-0.073961824 0.21397369 0.6875748 0.010454978 0.02742706 0.31427178 -0.19354004 0.10726316
0.000362693 0.30189428 -0.104291216 -0.20588876 0.32399377 -0.04240741 0.6899139 0.06013418
0.4311582 0.16969915 0.043884825 -0.008842581 0.056824207 0.21927555 0.111720264 -0.09920859
0.15355387 0.3775158 0.030708302 0.01546227 0.37906706 -0.2978951 -0.033369 0.21314175
0.033959053 -0.03061017 0.10595646 0.049258035 -0.7439007 0.007086445 0.027236711 0.004966423
0.20743808 0.53230757 0.020389 -0.28194138 -0.059127573 0.26497814 -0.30919427 -0.034099948
0.032743186 0.21394171 -0.3448734 -0.14095844 0.110722594 0.3343364 -0.1753476 0.01173748
0.031106787 -0.0077761086 0.26254198 0.02541664 0.004947069 -0.05894794 -0.07120228 -0.13275142
0.081774525 -0.2294317 0.2767775 -0.082139 0.041247785 -0.48047614 -0.33997238 -0.037309464

mean.bias f4 [2]
00000000: 1e46 97bd b13c 0abe
-0.07386421 -0.13499714

log_std.weight f4 [2, 128]
00000000: ad27 bebc 082d 963c 911b 61bd 2941 97bd
00000010: b423 58bd bdfb 023e d786 623d a807 07be
00000020: 2069 9bbd 9aca aebd b158 38bd d415 30bd
00000030: be84 b33b 419a f3be ac05 553c e438 0a3d
00000040: d8d8 913d 6227 273b 8200 f8bd 7f9f 6d3d
00000050: 8946 7fbc fac9 1e3d 00dc a9bc cd51 003d
00000060: dc98 493c 4ab5 cd3c 3248 f0bc 33ec 8d3d
00000070: a5bd 193d 75f4 a23d edba 87bd bdb6 3a3d
00000080: 645a 243d 375b a23d f3e7 0bbd dc1f 03bb
00000090: 3d55 963c ce1e 29bc 0b70 53bc d9b8 4e3b
000000a0: d142 173d 4dad 02bd 56ef a5bd 0605 2d3d
000000b0: 6e34 b1bd 4f39 a33d 7f75 6a3d ddfc 403d
000000c0: 61c2 f2bd 986f f23c 2bd0 2b3d 221d 03bc
000000d0: 3637 0cbd 9b05 2b3d 70b7 8e3d 138f 2dbd
000000e0: 4e77 e03b bdd6 9c3d 2ee0 3c3d b545 1abd
000000f0: 4ab2 833d 0622 a33d b902 a13d 4251 643d
00000100: 4a08 413d 2a0b eb3b dbe9 42bd 997e 1abd
00000110: 23ec b13c 4950 a03d f83d 753e 0c43 2abe
00000120: e81c 44bd fa01 5fbc 14a7 b83d 9a5c 5f3c
00000130: 289a 77bc d9dc 0ebe 4365 503d 7967 71bc
00000140: 2ae9 36bd 74c9 223e d0da 963d 30f6 6c3d
00000150: 6744 d93c f3ac b33c ae3a 7e3a 2595 e13d
00000160: 6bdb 48bd 4495 7dbd 8c8d 053e 9b85 533c
00000170: 27b5 463c 9e63 41bd d3e3 7d3e 7163 41bd
00000180: a061 ecbd 2054 3abe bd59 cd3d 9822 f8bc
00000190: 2515 413e 0605 16bd b0d2 3fbd 7413 62bd
000001a0: 0de9 793d ab04 e23c 9249 3cbc b86b c2bc
000001b0: e228 37bb b0d2 ebbc 1195 09bc dda1 693d
000001c0: 516c 12bc af7c 50bd 0be9 c63c 2358 dbbd
000001d0: 543a 3d3a d161 253d dd3c 7139 164e a2bc
000001e0: 8b36 833d 3b8f 8d3d 0335 46bc ae12 62bd
000001f0: 5df1 e3bd 5207 a33d c7a4 be3d 47da 073e
00000200: ac60 983d 9e8a d3bc 58d0 bf3c 85e3 b53d
00000210: 8cec 19be f7bd efbc e43a 243d c967 483d
00000220: 07d1 8d3d fbaf d53d 4bc0 723d 0f7c 82bc
00000230: 2265 0e3d 5e1b cfbe bbcb 8a3c 5bf2 e3bc
00000240: b24a 78bd f351 c93c 69c4 ed3d ff84 fc3d
00000250: a1a1 79bd cf62 84bc 3790 30bd 0d92 413c
00000260: 1384 0cbd a694 c23d 409a 213d ac3d 19bc
00000270: ae3e af3c 1733 8e3e 52e5 f6bd 5736 3ebd
00000280: 0a25 22bd 5eaf adbd 4de1 83be 012f 9a3d
00000290: 87fe 363d 503d d93d bc97 8b3e 2559 c2bc
000002a0: 3c06 58be c43e 86bc 56c2 b73c 0e6f 203c
000002b0: e86a 913e 0c76 e63c 2d6f ddbc 5190 3dbd
000002c0: 10c9 82bb 91ef 07bd 1700 aabd da74 e93a
000002d0: 4284 6fbd 0fb1 b8bc a3d2 a53d ef55 64bc
000002e0: 1309 e43c d818 bf3d ed80 fbbd dde5 99bc
000002f0: 646a b6bc 87a1 a23c 0e09 913b 767d 843d
00000300: 97c5 4a3d 66f9 943d e444 6d3d e759 05bd
00000310: ad65 7bbc 374f eebc f920 363e 6e18 b63c
00000320: f7f2 cb3b 3fcf 293b 7b82 07bc 577f cc3b
00000330: 42ec 44bc 3a29 903d 308b 40bd cc89 27bc
00000340: 1d9e 3fbd 74b0 aabc 17c1 56bc 9f8b 863d
00000350: 49e1 0c3d 4baa 0bbd da1a a7bd 4869 54bd
00000360: 8c4a 123d 6854 a9bb 66b0 3b3d eddd e8bc
00000370: 665a 2c3e d6e4 e1bc 500e 2dbe 890a 1fbd
00000380: e855 293e 6464 2fbe f6f1 b5bd 3f8e 143d
00000390: 85be 31bc 4692 433d b6b6 483d 14c9 0f3d
000003a0: d099 bd3b 419f e23c f151 013c 0ba1 18bc
000003b0: 60c8 8b3c 78d3 373d 4b7e 5d3d 0432 053d
000003c0: dee5 113c 9c6d d33c 57a8 c83c 06b7 3a3d
000003d0: 26fe 493c bb9f 553d 8208 9b3c 3071 36bd
000003e0: f24b 9cbd d8ca 223c 40db 813d d793 b339
000003f0: a230 15bc cad4 0a3e c8d0 573d 32c6 18bd
-0.023212278 0.01833202 -0.05495793 -0.07385475 -0.052768424 0.12791343 0.055304375 -0.13186514
-0.075884104 -0.08534737 -0.045006458 -0.042989567 0.0054784706 -0.47578624 0.013001841 0.03374566
0.07121438 0.0025505652 -0.12109472 0.058013435 -0.015580782 0.03876684 -0.020734787 0.03132801
0.012304511 0.02511086 -0.0293313 0.06929817 0.037534375 0.07956783 -0.0662745 0.04558443
0.040125266 0.07927554 -0.03415675 -0.0020008003 0.018351192 -0.010322286 -0.012905131 0.0031543283
0.036928955 -0.031903554 -0.0810229 0.04224112 -0.08652578 0.07969915 0.05724096 0.04711615
-0.11853481 0.029594228 0.04194657 -0.008002551 -0.03423234 0.041753393 0.06968582 -0.042372774
0.0068501597 0.076581456 0.046112232 -0.037664134 0.0643049 0.07965474 0.078618474 0.055741556
0.047127046 0.0071729617 -0.047586303 -0.03771839 0.021719044 0.07827813 0.2394942 -0.16627139
-0.04787913 -0.013611311 0.090162426 0.013632918 -0.015112437 -0.13951434 0.05087782 -0.014734142
-0.044655956 0.15897161 0.07365954 0.05785197 0.026521875 0.021933055 0.0009698075 0.11014775
-0.04903738 -0.06190993 0.13042277 0.012910272 0.012128151 -0.047214143 0.2479394 -0.047213975
-0.11542058 -0.18196154 0.10026882 -0.030289933 0.18855722 -0.036625884 -0.046831787 -0.055194333
0.06101327 0.027590116 -0.01149215 -0.023733005 -0.0027947952 -0.028786987 -0.008397357 0.05703913
-0.008936957 -0.050900158 0.024281045 -0.1071017 0.00072184694 0.040376488 0.00023006224 -0.019812625
0.064068876 0.06912085 -0.0120976 -0.055193596 -0.11130021 0.079603806 0.093087725 0.1326686
0.07440314 -0.025822934 0.023414776 0.088812865 -0.15031642 -0.029265387 0.040095225 0.048927102
0.069246344 0.10433956 0.059265416 -0.015928296 0.034764417 -0.40450567 0.01694285 -0.027825525
-0.06061811 0.02457521 0.11609728 0.123300545 -0.060945157 -0.016160397 -0.043106284 0.011814606
-0.034305643 0.09501009 0.039453745 -0.009353083 0.021392193 0.27773353 -0.12055458 -0.04643854
-0.039586104 -0.08480714 -0.25757828 0.075284965 0.04467633 0.106073976 0.27264202 -0.023724148
-0.21096128 -0.01638735 0.022431534 0.0097921025 0.28401875 0.028132461 -0.027030552 -0.04628021
-0.0039912537 -0.033187453 -0.083007984 0.0017811314 -0.05847574 -0.022545366 0.080968164 -0.013936504
0.027836358 0.093309104 -0.1228045 -0.018786365 -0.022267528 0.019852413 0.004426128 0.06469242
0.049504843 0.072741315 0.057927027 -0.03255644 -0.015344066 -0.029090507 0.17786016 0.022228446
0.006224032 0.0025910882 -0.008270855 0.006240766 -0.012019219 0.07039113 -0.04700774 -0.010225724
-0.046781648 -0.020836093 -0.01310756 0.06569599 0.034394536 -0.03409795 -0.081594184 -0.051858217
0.035715625 -0.0051675327 0.045822524 -0.028426135 0.1683136 -0.027574938 -0.16899991 -0.038828406
0.16536677 -0.1712814 -0.08884041 0.03626847 -0.010848646 0.04774692 0.04900237 0.035103872
0.005786158 0.027663829 0.0078930715 -0.009315739 0.01706332 0.044879407 0.05407552 0.0325184
0.008904902 0.025809102 0.024494333 0.0455847 0.01232866 0.052154284 0.018924955 -0.044541538
-0.07631673 0.009936057 0.06340647 0.0003425169 -0.009105833 0.13557735 0.052689344 -0.03729839

log_std.bias f4 [2]
00000000: 38a1 9cbf ff6c 91bf
-1.22367 -1.1361388
