sac_actor.pth (torch, 74345 bytes, 8 tensors)

fc.0.weight f4 [128, 4]
0	0xbe9aa78b	-0.3020595
1	0x3e2cd514	0.16878158
2	0xbe973cd1	-0.29538587
3	0xbeb6b81e	-0.35687345
4	0xbe235fe6	-0.15954551
5	0xbef153a3	-0.47134122
6	0x3e037aba	0.12839785
7	0x3e2e7f0a	0.17040649
8	0x3db491c8	0.08816868
9	0xbe3a1acd	-0.18174286
10	0xbe95eadb	-0.29280743
11	0x3cb16ce4	0.021658368
12	0x3e9e0dde	0.30869955
13	0x3aa2b5c2	0.0012413787
14	0xbe5cf1ef	-0.21576665
15	0x3e4b2271	0.19837357
16	0x3e31b757	0.17355095
17	0xbd059ac0	-0.032618284
18	0xbd97504c	-0.07388362
19	0xbe11c8dc	-0.14236778
20	0x3dcc9722	0.09989764
21	0x3e8635ba	0.26212865
22	0xbde0e0f6	-0.10980408
23	0xbd924197	-0.071414165
24	0xbe166fa5	-0.14691027
25	0x3d10a3a8	0.035312325
26	0x3ec30648	0.3809073
27	0xbd87e861	-0.0663612
28	0xbef94329	-0.48684052
29	0xbe625a85	-0.22104843
30	0x3f29c1db	0.66311425
31	0xbddee07d	-0.108826615
32	0x3e0325a6	0.1280733
33	0x3f06acdc	0.5260751
34	0xbe903919	-0.28168562
35	0xbf15f878	-0.5858226
36	0x3d63223a	0.055452563
37	0xbdd15778	-0.102217615
38	0x3e2c3921	0.16818668
39	0x3d7614d9	0.060078476
40	0xbe97318f	-0.29529998
41	0x3e84ccae	0.25937408
42	0x3de9019f	0.11377262
43	0xbe15576c	-0.1458413
44	0x3e1c3e75	0.152582
45	0x3e9b7acc	0.30367124
46	0xbebf471e	-0.37358946
47	0xbdbc2031	-0.091858275
48	0xbe0074d5	-0.12544568
49	0x3e1e03f2	0.15431193
50	0xbeac94dd	-0.33707324
51	0x3cc23901	0.023708822
52	0xbe9514b3	-0.29117355
53	0xbea4a529	-0.32157257
54	0x3dbb468e	0.091443166
55	0x3e315f55	0.17321523
56	0xbd887db9	-0.06664605
57	0x3e11143f	0.1416788
58	0x3ea92ad3	0.33040485
59	0x3d6b9b6f	0.05752128
60	0x3eb71bbb	0.35763344
61	0x3cadc56e	0.021212306
62	0xbe88bd52	-0.2670694
63	0xbf080395	-0.53130466
64	0xbe831944	-0.25605214
65	0xbd994212	-0.07483305
66	0xbe72394d	-0.23654671
67	0x3d5512c5	0.052019853
68	0x3ab9dd0d	0.0014180258
69	0x3e97a956	0.2962138
70	0xbd085a3c	-0.03328918
71	0xbdf1ced0	-0.118070245
72	0x3e14ee71	0.14544083
73	0xbf028543	-0.5098459
74	0x3f0db23f	0.55350107
75	0x3ee21a88	0.44160867
76	0xbc85b561	-0.01632184
77	0xbebf82c5	-0.37404457
78	0xbde6acab	-0.112634026
79	0x3efadeb1	0.48998025
80	0x3d643233	0.055711936
81	0xbc8d6299	-0.01725893
82	0xbdf30643	-0.11866429
83	0x3ed4dd7e	0.41575235
84	0x3b0062dd	0.0019590177
85	0xbf1e9ed4	-0.619611
86	0x3d440d10	0.04786402
87	0x3e1ded7a	0.15422621
88	0xbb65cfba	-0.0035066442
89	0xbdbd929e	-0.09256481
90	0x3f044843	0.5167276
91	0x3ea23824	0.31683457
92	0x3d1552fb	0.03645609
93	0xbe7c9f4c	-0.24670142
94	0xbebc4bff	-0.3677673
95	0xbeaebc0a	-0.34127837
96	0xbe7118cf	-0.2354462
97	0x3e0349dd	0.12821145
98	0x3ec3deb2	0.3825584
99	0x3e93de12	0.28880364
100	0xbe96548d	-0.29361382
101	0xbe9741a5	-0.2954227
102	0xbea0988e	-0.3136639
103	0xbec30cd5	-0.38095728
104	0x3e3f28dd	0.18667932
105	0xbe809f51	-0.2512155
106	0xbe384417	-0.17994724
107	0x3efebb58	0.49752307
108	0xbe8ce5bb	-0.2751902
109	0xbf09c1b5	-0.538112
110	0x3eb85eba	0.3600977
111	0x3ed7343b	0.42032036
112	0x3e4c4445	0.19947918
113	0x3e8a1389	0.2696803
114	0xbea52d5d	-0.32261172
115	0xbdadcaa6	-0.08485918
116	0xbf0f41e4	-0.55959916
117	0xbee88dd1	-0.45420697
118	0x3e157ad9	0.14597644
119	0x3e8103da	0.2519825
120	0x3e0c7380	0.13715935
121	0xbec6fae7	-0.38863298
122	0xbebd54b3	-0.36978683
123	0x3ecae271	0.39625886
124	0x3ec1ef4b	0.3787788
125	0xbe6d18a6	-0.23153934
126	0xbe4bbe59	-0.1989683
127	0xbe1e2df1	-0.15447213
128	0xbf1a793e	-0.6034125
129	0xbe3f331f	-0.18671845
130	0x3f39e5d0	0.7261629
131	0x3e876f21	0.26451972
132	0x3d5a5390	0.053302348
133	0xbe6bdc14	-0.23033172
134	0x3d0c451a	0.034245588
135	0xbe6f5ed4	-0.23376018
136	0xbe9ce0dc	-0.30640304
137	0x3e73ccc0	0.23808575
138	0xbe710083	-0.23535351
139	0x3e5b3929	0.21408524
140	0x3ca8f430	0.02062425
141	0xbdf4d5a0	-0.11954808
142	0xbed3adfc	-0.41343677
143	0x3e94e035	0.29077306
144	0x3e1c0554	0.15236408
145	0x3e893e19	0.2680519
146	0xbee44d7c	-0.44590366
147	0x3dfd2f4c	0.12362537
148	0xbe337c55	-0.17527898
149	0xbd4c1095	-0.0498205
150	0xbdc6fc50	-0.097160935
151	0xbed7ccd5	-0.42148462
152	0xbdc743bd	-0.09729717
153	0xbe0e9bd0	-0.13926625
154	0x3e84b4af	0.259191
155	0xbdefdc5c	-0.11711952
156	0x3e8a0b09	0.26961544
157	0xbea0cc2c	-0.3140577
158	0xbf1533c9	-0.5828214
159	0x3e8abd7d	0.27097693
160	0x3d7b81b9	0.06140301
161	0x3e942e8c	0.28941762
162	0x3e5a529c	0.21320575
163	0xbe4c0621	-0.19924213
164	0xbccdfc61	-0.025144758
165	0xbe695bcc	-0.22788924
166	0x3e53627d	0.20643039
167	0x3da47520	0.08030152
168	0xbe6b671a	-0.22988549
169	0xbe90372a	-0.28167087
170	0x3f0fff1b	0.56248635
171	0x3eed0a93	0.4629713
172	0xbef57b56	-0.4794566
173	0xbe90bc0c	-0.28268468
174	0x3eec4a01	0.4615021
175	0x3ee0e31e	0.43923277
176	0xbe9369d9	-0.28791693
177	0xbe805c11	-0.2507024
178	0xbe80ea57	-0.25178787
179	0xbdb42389	-0.0879584
180	0xbea78139	-0.32715777
181	0xbd9541fb	-0.072879754
182	0xbc296634	-0.0103393085
183	0x3d3ca575	0.04605623
184	0xbeae223e	-0.340105
185	0xbe02c689	-0.12771048
186	0x3ed19f7e	0.40941995
187	0xbe103d3a	-0.14085856
188	0xbea2aca0	-0.31772327
189	0xbe8ce270	-0.27516508
190	0x3edcc305	0.43117538
191	0x3e46fe7c	0.19433016
192	0xbe667c80	-0.2250843
193	0xbeba4b08	-0.3638537
194	0xbe5e3af6	-0.2170218
195	0xbeb7a948	-0.3587134
196	0x3e9ccf98	0.3062713
197	0xbe7fa66b	-0.24965827
198	0x3e20c153	0.15698747
199	0xbe0d0ec5	-0.13775165
200	0xbef2078c	-0.47271383
201	0xbe7f058e	-0.24904463
202	0x3ea54d7c	0.32285678
203	0x3e74cbdb	0.2390589
204	0xbdb1590f	-0.08659565
205	0x3ebce6ce	0.3689484
206	0xbea8263d	-0.32841673
207	0xbf138a31	-0.5763274
208	0xbf0c57c2	-0.5482141
209	0xbd8b593c	-0.068041295
210	0x3ed07779	0.4071615
211	0xbd802eee	-0.06258951
212	0xbe83d79d	-0.25750437
213	0x3e5dc879	0.21658505
214	0x3e14b316	0.14521441
215	0x3d730a52	0.059336014
216	0x3ed21866	0.4103424
217	0xbe85864f	-0.26079032
218	0xbeee48e7	-0.46539995
219	0x3e9b9744	0.30388844
220	0x3ead86e4	0.33891976
221	0x3c19d3ab	0.0093888445
222	0xbf0e2967	-0.55531925
223	0x3e0d1e94	0.13781196
224	0x3ea37759	0.31926993
225	0xbeab69f2	-0.33479267
226	0xbeeaaf5c	-0.45836914
227	0x3f007fe9	0.50195175
228	0xbebb6f57	-0.36608383
229	0x3dbf3e8f	0.09338104
230	0x3e99a799	0.3001068
231	0xbd8e6f69	-0.069548436
232	0x3bdf59f5	0.0068161436
233	0xbedd67d3	-0.43243274
234	0xbd8f8aab	-0.07008871
235	0x3f55a1ae	0.8344983
236	0x3d9e1f15	0.07720772
237	0xbe145770	-0.1448648
238	0xbe98eefc	-0.2986983
239	0xbc6ac4ce	-0.014329148
240	0xbda38d41	-0.079859264
241	0xbe0758f4	-0.13217527
242	0x3c69df52	0.014274435
243	0x3eb826b1	0.3596702
244	0x3e7c858d	0.2466032
245	0xbe4552d2	-0.19269875
246	0xbd995df7	-0.074886255
247	0x3e92a84c	0.28644025
248	0xbec0a360	-0.37624645
249	0x3e0d3ebc	0.13793463
250	0x3f1583a0	0.5840397
251	0x3dcd5bb9	0.1002726
252	0x3e50260b	0.20327012
253	0x3e927de6	0.28611678
254	0xbee14c0d	-0.44003335
255	0x3ca93f9a	0.02066021

fc.0.bias f4 [128]
0	0x3e0e5f12	0.13903454
1	0xbeeba378	-0.46023154
2	0x3c2a6cad	0.010401887
3	0x3e506144	0.20349604
4	0x3f0de333	0.55424803
5	0x3edf2723	0.43584546
6	0xbd968f77	-0.073515825
7	0xbf17a48f	-0.5923547
8	0x3f311f52	0.69188416
9	0xbdeef8ac	-0.11668524
10	0x3fa0f717	1.2575406
11	0xbe1cfaad	-0.1533
12	0xbd4e8283	-0.050417434
13	0xbd69410f	-0.05694681
14	0x3d08f8d4	0.033440426
15	0x3d5cd8ea	0.053917803
16	0xbedc22e7	-0.42995378
17	0xbfac25a8	-1.3448992
18	0xbf220411	-0.63287455
19	0xbe359d5a	-0.17735806
20	0xbed7e092	-0.4216352
21	0xbf0d31cb	-0.55154103
22	0x3de4ce69	0.11172182
23	0xbee34fff	-0.4439697
24	0xbf94f2aa	-1.1636555
25	0xbeab59ef	-0.3346705
26	0xbf7823f4	-0.9692986
27	0xbf524146	-0.8213085
28	0xbe579eba	-0.21056643
29	0xbf596b0d	-0.8492897
30	0x3d6e5d92	0.058194704
31	0xbf57d01d	-0.8430193
32	0xbef5a5e5	-0.4797813
33	0xbdff7651	-0.12473739
34	0xbe38fb61	-0.18064643
35	0xbeba2d30	-0.363626
36	0xbf20f681	-0.62876135
37	0x3ed6aaee	0.41927284
38	0x3ebd6d86	0.36997622
39	0x3de128ab	0.10994085
40	0xbf35996d	-0.70937234
41	0xbf5a557d	-0.85286695
42	0x3f391937	0.723041
43	0xbe0a55f6	-0.13509354
44	0xbf83a3f0	-1.0284405
45	0x3f215377	0.6301798
46	0x3dd4cd15	0.10390679
47	0xbdbb9ecb	-0.09161147
48	0xbd339551	-0.04384357
49	0xbe82b392	-0.25527626
50	0xbf5317bc	-0.8245809
51	0x3e6a52c1	0.2288313
52	0xbf8b7ac2	-1.0896838
53	0xbef60ba3	-0.48055753
54	0xbcf3bc07	-0.029752744
55	0xbf30f0d0	-0.6911745
56	0xbea8113e	-0.32825655
57	0x3f3d2752	0.73888123
58	0xbf41e9a0	-0.7574711
59	0xbf333a9e	-0.7001132
60	0x3f2ebd89	0.6825796
61	0xbfbbdfe5	-1.4677702
62	0xbe81ba43	-0.2533742
63	0xbf39534b	-0.7239272
64	0x3f390b97	0.7228331
65	0xbefa95fc	-0.48942554
66	0x3f12740e	0.57208335
67	0xbf652f3b	-0.8952519
68	0xbf2b83c0	-0.6699791
69	0xbfa7c3f1	-1.3106672
70	0x3e14e98a	0.14542213
71	0xbf8649ef	-1.0491313
72	0xbf2a8780	-0.66613007
73	0xbf4bd24c	-0.7961776
74	0xbe9868fc	-0.29767597
75	0xbf1f2611	-0.6216746
76	0xbe7a462f	-0.24440835
77	0x3f800123	1.0000347
78	0x3e9ac2d6	0.30226773
79	0xbe52944a	-0.2056438
80	0x3e64bb4c	0.22337073
81	0xbeadad69	-0.33921364
82	0xbf44a1b2	-0.7680923
83	0xbf22c2c8	-0.6357846
84	0xbec18561	-0.37797073
85	0xbe1f1b57	-0.15537773
86	0x3e8d12e6	0.2755348
87	0xbf66a7a1	-0.9009953
88	0xbf1b80d3	-0.60743445
89	0xbf8fab32	-1.122412
90	0xbef4a2a0	-0.47780323
91	0xbed0d865	-0.40790096
92	0xbf333fae	-0.7001904
93	0xbd432f11	-0.047652308
94	0xbdfab027	-0.1224063
95	0x3ee9d956	0.45673627
96	0xbf57116d	-0.84010965
97	0x3ea037d0	0.31292582
98	0x3f61caaf	0.88199896
99	0x3efbd709	0.49187496
100	0xbf5c5828	-0.86072016
101	0xbf213913	-0.62977713
102	0xbf90f14d	-1.1323639
103	0x3e0713f7	0.1319121
104	0x3ef2c1c4	0.47413456
105	0xbefa3838	-0.48871017
106	0x3f79f83a	0.9764439
107	0xbebc82d7	-0.36818573
108	0x3e870698	0.26372218
109	0xbf2d006c	-0.6757877
110	0xbe868304	-0.26271832
111	0xbf9ea607	-1.2394418
112	0x3e821340	0.25405312
113	0x3f4d3f0c	0.80174327
114	0x3ec38f7f	0.38195416
115	0xbdd2f48e	-0.10300551
116	0x3f76a042	0.96338284
117	0x3ed47600	0.41496277
118	0x3d882d61	0.0664928
119	0x3f7b71f7	0.9822077
120	0xbf523a9c	-0.8212068
121	0x3f86e05a	1.0537217
122	0xbf0978ac	-0.53699756
123	0xbf4af2cc	-0.7927673
124	0x3d4344d5	0.047673065
125	0xbe84c434	-0.2593094
126	0xbee775df	-0.45207116
127	0x3f9e1b25	1.2352034

fc.2.weight f4 [128, 128]
0	0xbdcb8cc8	-0.09938961
1	0x3d909ac2	0.07060768
2	0x3b78dfd5	0.003797521
3	0xbd2e5522	-0.042561658
4	0x3c263dcd	0.01014657
5	0xbd44f599	-0.048085783
6	0x3d007c5b	0.031368595
7	0xbd87cf54	-0.066313416
8	0xbd8f70de	-0.070039496
9	0xbc641bcf	-0.013922646
10	0x3d21c331	0.03949279
11	0xbcb51df0	-0.022109002
12	0x3d97ef8f	0.07418739
13	0x3d7d24d6	0.061802708
14	0xbdc12a42	-0.09431888
15	0xbd5c3065	-0.05375709
16	0x3d87b3b0	0.066260695
17	0xbc0112a8	-0.007877983
18	0xb871ae2b	-5.7621084e-05
19	0xbd8b90de	-0.068147406
20	0x3d54c0a0	0.051941514
21	0xbd69e58d	-0.057103682
22	0xbdb01c87	-0.08599191
23	0xbd9ed00a	-0.07754524
24	0xbdac63b7	-0.084174566
25	0x3c906e67	0.017630769
26	0xbab23c87	-0.0013598361
27	0xbb011e51	-0.0019701908
28	0x3cf02403	0.029314047
29	0xbce8182c	-0.028331839
30	0xbd8af0eb	-0.06784233
31	0x3c931809	0.017955797
32	0x3d1c9968	0.038232237
33	0x3cf76768	0.030200675
34	0x3be1c3a0	0.0068897754
35	0x3c027e74	0.007964719
36	0x3c9a113a	0.018807042
37	0xbb5685e4	-0.0032733614
38	0x3ccc73c8	0.024957553
39	0xbd957007	-0.07296758
40	0xbc0a94ff	-0.008458375
41	0x3d66ab9d	0.056316007
42	0x3d45d7d6	0.04830154
43	0x3cfeb214	0.031090774
44	0x3cb6bd53	0.022307074
45	0x3d96c3b7	0.073615484
46	0xbd185ed7	-0.03719982
47	0x3d209381	0.03920317
48	0xbd3de60c	-0.046361968
49	0x3c400634	0.011720229
50	0xbd91cd10	-0.07119191
51	0x3d751c8c	0.059841678
52	0xbd86cce8	-0.065820515
53	0x3d4a3324	0.049365178
54	0x3cc4d010	0.024024993
55	0x3d94b765	0.07261542
56	0xbd97896e	-0.073992595
57	0x3b8e9cb7	0.004352178
58	0x3d513356	0.05107435
59	0xbd6699ff	-0.056299206
60	0xbbf17148	-0.0073682405
61	0x3dab1146	0.08352904
62	0x3d8a2650	0.06745589
63	0xbc9f9398	-0.019479558
64	0xbcb807e8	-0.022464707
65	0xbd59a6d9	-0.053137634
66	0x3cd25db8	0.025679454
67	0xbb492433	-0.0030691742
68	0xbd241131	-0.040055458
69	0x3d70ac22	0.05875791
70	0xbcd32bf8	-0.025777802
71	0x3b3770bb	0.0027990777
72	0xbcc078a3	-0.023495024
73	0x3d3c652a	0.045994915
74	0x3d848c59	0.06472082
75	0xbda90937	-0.08253711
76	0xbd5dda8d	-0.054163504
77	0x3c8690ad	0.016426409
78	0x3d9299a4	0.07158211
79	0xbc98b02e	-0.018638697
80	0x3d6d4632	0.05792827
81	0x3b49541f	0.0030720306
82	0x3a183976	0.0005806902
83	0x3d4a8bb5	0.04944964
84	0xbd0a2c92	-0.03373391
85	0x3ce8f32b	0.028436264
86	0x3ba64d55	0.0050751367
87	0x3d7fc798	0.062446207
88	0xbd4c2215	-0.04983719
89	0x3cf70b24	0.03015668
90	0xbd354ab6	-0.044260703
91	0xbdba79b8	-0.09105247
92	0x3d8d3005	0.068939246
93	0x3d711e30	0.05886668
94	0xbdb18d61	-0.08669544
95	0xbdb070d1	-0.08615268
96	0x3cf9ecea	0.030508477
97	0x3c853adb	0.016263416
98	0xbd95e429	-0.07318909
99	0xbd26423c	-0.04059051
100	0x3c90fcc6	0.017698657
101	0x3bbb40d8	0.005714517
102	0xbc2bd79f	-0.01048842
103	0x3d06b1a5	0.03288426
104	0xbd71caee	-0.05903142
105	0x3ccbb618	0.024867103
106	0x3c5621ca	0.013069579
107	0x3cae45b7	0.021273477
108	0x3caf5831	0.021404358
109	0x3ce3e5c5	0.027819524
110	0xbc8f65ac	-0.017504536
111	0xbda0511f	-0.078279726
112	0xbdb0c5fd	-0.08631513
113	0x3c9e4b48	0.019323006
114	0xbd859da7	-0.065242104
115	0xbdba92b6	-0.09110014
116	0xbd8f68d3	-0.070024155
117	0xbd162640	-0.03665757
118	0xbd5ec58b	-0.05438761
119	0xbd6aa505	-0.05728628
120	0xbb0c8aaa	-0.0021444955
121	0xbd0a9dfd	-0.033842076
122	0xbbad7656	-0.0052936478
123	0xbd96244e	-0.07331143
124	0x3c44c788	0.012010463
125	0x3d2a457a	0.041570164
126	0xbda77c48	-0.08178002
127	0xbd89f7cb	-0.06736716
128	0x3d0ae197	0.033906545
129	0x3d72858d	0.059209395
130	0xbd934c30	-0.07192266
131	0xbdc387c9	-0.09547383
132	0x3ccec9ec	0.025242768
133	0xbdc5bf80	-0.09655666
134	0xbd5af44c	-0.053455636
135	0xbd46b907	-0.0485163
136	0xbc829f80	-0.015945196
137	0xbc438518	-0.0119335875
138	0xbd4710bf	-0.048599955
139	0xbda30df0	-0.07961643
140	0x3d51eeb7	0.051253047
141	0xbcdf97bb	-0.02729403
142	0xbd7c9c84	-0.061672702
143	0x3d3d4782	0.046210773
144	0x3c525c5c	0.012839403
145	0xbd0acb44	-0.033885255
146	0x3d990fdf	0.0747373
147	0x3d3a35ba	0.045461394
148	0xbd90faa9	-0.0707906
149	0xbc53b47f	-0.012921452
150	0xbdac8433	-0.084236525
151	0xbd806376	-0.06268971
152	0x3c7d587c	0.015462991
153	0xbd4a788f	-0.04943138
154	0xbda78911	-0.0818044
155	0xbd8d5381	-0.06900693
156	0xbd6c7567	-0.05772915
157	0xbd3cf865	-0.046135325
158	0xbda215f6	-0.07914345
159	0xbc5f6b58	-0.013636433
160	0x3cb99c33	0.02265749
161	0xbd8dbb14	-0.06920448
162	0x3d186dd0	0.0372141
163	0x3ca0ca65	0.01962776
164	0xbda7036c	-0.081549495
165	0xbb5f65e0	-0.0034087822
166	0x3bd50220	0.0065004975
167	0xbc3a1bbd	-0.011359152
168	0xbd9edb34	-0.077566534
169	0x3a8359c0	0.0010021254
170	0xbd958ac0	-0.07301855
171	0x3d591f08	0.05300811
172	0xbda86739	-0.08222813
173	0xbcab14d8	-0.020883963
174	0xbd3d4084	-0.046204105
175	0xbd96d426	-0.07364683
176	0xbb127d60	-0.0022352561
177	0xbdac6076	-0.08416836
178	0x3d4d08e6	0.050057314
179	0xbd965c35	-0.07341806
180	0x3cc13dcb	0.023589035
181	0xbd016197	-0.03158721
182	0x3d6fb4b1	0.05852193
183	0xbce31cc3	-0.027723676
184	0xbd5c3d26	-0.053769253
185	0xbd135569	-0.035970125
186	0xbd248edf	-0.040175315
187	0xbd69e84f	-0.057106312
188	0xbd678438	-0.056522578
189	0x3d9220f9	0.07135195
190	0x3d1752fc	0.036944374
191	0xbde306d3	-0.11085286
192	0xbdac3fe9	-0.084106274
193	0xbc5e62a8	-0.013573326
194	0xbd31a3b5	-0.043369014
195	0xbcb84564	-0.022494026
196	0x3d3875f7	0.045034375
197	0xbd96bc89	-0.07360179
198	0xbda2f4cc	-0.079568475
199	0x3cd2ec60	0.025747478
200	0xbc0a7f0e	-0.008453144
201	0xbb61f191	-0.003447626
202	0xbda508e8	-0.08058339
203	0xbdbce63c	-0.09223601
204	0x3d115fe7	0.03549185
205	0xb9b25640	-0.00034015067
206	0xbdaa70f2	-0.08322324
207	0xbd9ec46b	-0.077523075
208	0xbd01b167	-0.031663325
209	0xbc3a4768	-0.011369564
210	0xbcd35962	-0.025799457
211	0xbdcd5c76	-0.10027401
212	0x3d287552	0.04112751
213	0xbb0712b3	-0.002061051
214	0x3d8a4a3b	0.067524396
215	0xbc0db7c0	-0.008649766
216	0xbd36529a	-0.04451237
217	0xbd6fc06c	-0.058533117
218	0xbd252b1b	-0.04032431
219	0xbd832b94	-0.06404796
220	0xbdb7f8d1	-0.08983005
221	0x3d82ec15	0.06392685
222	0x3d8262ad	0.06366477
223	0xbcbe9485	-0.023264179
224	0xbd16924d	-0.036760617
225	0x3d77c1db	0.06048761
226	0xbdaba4b0	-0.08381021
227	0xbd84e89e	-0.06489681
228	0x3d805bc9	0.06267507
229	0xbd3e5ad8	-0.046473354
230	0x3c232c60	0.00995931
231	0x3d2e9e39	0.04263136
232	0x3c609cc3	0.01370925
233	0xbc9cdc4e	-0.019148018
234	0x3d19e32f	0.037570175
235	0x3c8f70dc	0.01750987
236	0xbc38aef8	-0.011272185
237	0x3d83e0b9	0.06439347
238	0xbc33a7b6	-0.010965278
239	0x3d5b002e	0.05346697
240	0x3d97764c	0.0739561
241	0xbdd570f1	-0.104219325
242	0x3d988dc0	0.07448912
243	0xbdb8c76c	-0.09022412
244	0xbda27878	-0.07933134
245	0xbd755876	-0.059898816
246	0x3ca206d8	0.019778654
247	0x3bd55700	0.0065106153
248	0xbd743996	-0.05962523
249	0x3d4bb4bd	0.049732912
250	0x3d210f97	0.03932151
251	0x3cf45a10	0.029828101
252	0x3c1d3670	0.009595498
253	0x3c848bc1	0.016179921
254	0x3d61fdc6	0.055173658
255	0xbd63e7e0	-0.055641055

fc.2.bias f4 [128]
0	0xbcdf230e	-0.027238395
1	0x3d016ce2	0.03159798
2	0xbda31c26	-0.07964353
3	0xbd520e6f	-0.051283296
4	0x3db73481	0.08945561
5	0x3dfb9140	0.122835636
6	0x3d4fbf42	0.050719507
7	0xbd9733c2	-0.07382919
8	0x3e70c610	0.23513055
9	0x3f1dfcef	0.6171407
10	0x3f0821b7	0.53176445
11	0x3e84a666	0.25908202
12	0x3cfe4164	0.03103704
13	0x3c879cc1	0.016554238
14	0x3e6b038e	0.22950575
15	0x3f6c3576	0.92269075
16	0xbcdbd989	-0.026837127
17	0x3e65733f	0.22407244
18	0x3d8006ad	0.06251273
19	0x3d795582	0.060872562
20	0xbe7cdc1c	-0.2469334
21	0x3dce2d6b	0.100672565
22	0x3d06bf31	0.032897178
23	0x3dedf183	0.1161833
24	0x3e951399	0.29116514
25	0x3f7a6d32	0.9782287
26	0xbdccf401	-0.100074776
27	0xbd67aeff	-0.056563374
28	0x3d1e86af	0.038702663
29	0xbd013bae	-0.031551056
30	0xbe8590e0	-0.26087093
31	0xbdf61b2a	-0.120169
32	0xbecb0147	-0.39649412
33	0xbe9c39b9	-0.3051279
34	0xbe2d600d	-0.16931172
35	0xbde46805	-0.11152653
36	0x3c4864d9	0.012231075
37	0x3e92234a	0.28542548
38	0xbe03d89a	-0.12875596
39	0xbd729511	-0.059224192
40	0x3d53555c	0.051595077
41	0xbd2f67f3	-0.042823743
42	0x3e4ca186	0.19983491
43	0xbdb69b54	-0.08916345
44	0xbdd9b0c6	-0.1062942
45	0xbd8f0cb5	-0.069848455
46	0xbdd72b69	-0.10506327
47	0x3eabd357	0.33559677
48	0x3c164785	0.009172325
49	0x3d51d502	0.05122853
50	0xbe574622	-0.21022847
51	0xbe767be8	-0.24070704
52	0x3ca87b36	0.020566564
53	0x3f0af0c3	0.54273623
54	0xbaad9a6f	-0.0013244877
55	0x3d930c49	0.071800776
56	0x3e068cfe	0.13139722
57	0x3e9028e5	0.281562
58	0x3c0aedc6	0.008479541
59	0x3ed6ee96	0.41978902
60	0x3d018498	0.031620592
61	0x3cedf77d	0.029048676
62	0x3e81613f	0.25269505
63	0xbe04e4cd	-0.12977906
64	0xbd26b704	-0.04070188
65	0x3e01db4e	0.12681314
66	0x3e996a1d	0.2996377
67	0xbd7c61ed	-0.061616827
68	0xbd01232f	-0.031527694
69	0x3dcb2d12	0.09920706
70	0x3dc1fc74	0.0947198
71	0x3da039d0	0.07823527
72	0x3f20e5e2	0.62850773
73	0x3e411610	0.18856072
74	0xbd152fd5	-0.03642257
75	0x3d045157	0.032304134
76	0x3d4f3989	0.05059198
77	0x3d89ccb4	0.06728497
78	0x3ca438c0	0.020046592
79	0x3b4b4a44	0.0031019608
80	0xbd104770	-0.035224378
81	0x3d895c1d	0.06707022
82	0x3e219655	0.15780003
83	0x3e522a74	0.20524007
84	0x3e4826bd	0.19546027
85	0x3ddc4d41	0.107569225
86	0xbdf17312	-0.11789526
87	0xbcecba30	-0.028897375
88	0xbd2d6a6f	-0.04233783
89	0xbe38cb82	-0.18046382
90	0x3e9df60f	0.3085179
91	0x3e903b64	0.2817031
92	0xbda5c38c	-0.08093938
93	0xbd7f7aab	-0.062372845
94	0x3e4a6172	0.19763735
95	0x3dadf417	0.08493822
96	0x3b8e44be	0.004341691
97	0x3e482204	0.19544226
98	0xbd6db340	-0.058032274
99	0x3d8d166e	0.06889044
100	0x3e15d1c1	0.14630796
101	0x3e51a41f	0.20472763
102	0x3ddb0e60	0.10696101
103	0x3f5f581b	0.87243813
104	0x3e59f83b	0.21286099
105	0x3e99697e	0.29963297
106	0x3f657b5e	0.8964137
107	0x3e3747fc	0.17898554
108	0x3e1b81dd	0.15186258
109	0x3f18d3a6	0.5969795
110	0x3e706052	0.23474243
111	0xbd806783	-0.06269743
112	0x3da2fa3d	0.079578854
113	0xbc2019ae	-0.0097717475
114	0x3bdfd49e	0.006830766
115	0xbe549e71	-0.20763566
116	0xbeba8a27	-0.36433527
117	0xbeaa8222	-0.33302408
118	0x3e7eee46	0.24895582
119	0x3d3eb780	0.046561718
120	0xbd5013db	-0.050800186
121	0x3dca7fbd	0.098876454
122	0x3e9b7a62	0.30366808
123	0x3e2a5e9b	0.16637652
124	0xbd257a9f	-0.040400144
125	0x3ce555ed	0.027995074
126	0x3ec0cac7	0.37654707
127	0xbda08824	-0.07838467

mean.weight f4 [2, 128]
0	0x3bf3d8ca	0.0074416148
1	0x3d84e196	0.064883396
2	0x3e486ae8	0.19572031
3	0xbcb267c0	-0.021777987
4	0xbcc9908a	-0.024605054
5	0x3e776ee6	0.24163398
6	0xbe179601	-0.14803316
7	0xbd8b857e	-0.06812571
8	0xbe9e2f64	-0.3089553
9	0xbc36889d	-0.01114097
10	0x3daed4cb	0.08536681
11	0x3e12bb85	0.14329346
12	0xbd6adec0	-0.057341337
13	0xbc17f235	-0.009274055
14	0xbe53a01d	-0.20666547
15	0xbd54b0e8	-0.051926523
16	0x3e91f970	0.28510618
17	0xbe494ff3	-0.19659404
18	0x3cf1e3aa	0.029527504
19	0xbeb0a2ec	-0.344993
20	0x3e0d6e04	0.13811499
21	0x3e191abe	0.14951608
22	0xbd37c58f	-0.04486614
23	0xbe5fd642	-0.21859077
24	0xbe1dd1d4	-0.15412074
25	0x3c1744ea	0.009232739
26	0xbd5857da	-0.052818157
27	0x3d7d4b35	0.0618393
28	0x3ecad5ce	0.39616245
29	0xbbb166bf	-0.0054138596
30	0xbdd9f185	-0.10641769
31	0x3e23db38	0.16001594
32	0xbe750a79	-0.23929776
33	0x3b3ca672	0.0028785733
34	0xbe272a60	-0.16324759
35	0xbbd78d48	-0.0065781213
36	0xbd8c9878	-0.068650186
37	0xbed1d923	-0.40985975
38	0xbe402088	-0.1876241
39	0x3e426fef	0.18988012
40	0xbb2052fa	-0.002446352
41	0x3cfc5ee5	0.030806968
42	0xbe0af396	-0.13569483
43	0xbcd0c975	-0.025486687
44	0xbba00eb1	-0.004884564
45	0x3d1da032	0.038482852
46	0x3e354031	0.17700268
47	0x3e0924b5	0.13392909
48	0x3e14c148	0.14526856
49	0xbbc5df93	-0.006038615
50	0xbe55d95d	-0.20883699
51	0xbd53468e	-0.051580958
52	0xbcbf4988	-0.023350492
53	0x3dce3dde	0.10070394
54	0x3ee7fad5	0.45308557
55	0x3e4d929f	0.20075463
56	0xbe385f94	-0.1800521
57	0xbcf914d2	-0.030405436
58	0x3d56e2a5	0.05246224
59	0x3ced24f3	0.028948283
60	0xbdc41cd1	-0.09575809
61	0xbbad0060	-0.0052795857
62	0xbcb1815f	-0.021668134
63	0xbd81ed2c	-0.06344065
64	0xbcf5da4f	-0.030011324
65	0xbee48106	-0.44629687
66	0x3d18d75c	0.037314758
67	0xbd878f24	-0.06619099
68	0xbc39b433	-0.011334467
69	0xbe1b8ed1	-0.15191199
70	0xbd354a41	-0.044260267
71	0x3e789fa3	0.24279647
72	0x3c6c70bb	0.014431174
73	0x3e3c7df1	0.18407418
74	0x3e30deab	0.17272441
75	0x3eb41694	0.35173476
76	0xbe6de424	-0.2323156
77	0x3e414d09	0.18877043
78	0xbd6e12af	-0.058123287
79	0xbcaaa15c	-0.020828895
80	0x3e083cd4	0.13304454
81	0xbd039135	-0.032120902
82	0xbe114541	-0.14186575
83	0xbd74f9c5	-0.05980851
84	0xbc45bc1d	-0.0120687755
85	0x3e3b7bd8	0.18308961
86	0x3cf33f9a	0.029693414
87	0xbbc7c496	-0.006096433
88	0xbd1ef223	-0.03880514
89	0xbe549c14	-0.20762664
90	0x3c05675e	0.00814232
91	0x3dbbc833	0.09169044
92	0xbc1160fa	-0.008873219
93	0xbe794fc0	-0.24346828
94	0x3f23c7f5	0.63976985
95	0xbe6585a8	-0.22414267
96	0xbe0525f0	-0.13002753
97	0xbde5c72b	-0.11219629
98	0x3d8080f6	0.06274597
99	0x3e5d87d7	0.2163385
100	0xbee8187d	-0.45331183
101	0xbeb5bd14	-0.35495818
102	0x3e217709	0.15768065
103	0xbe04c0d1	-0.12964179
104	0x3df02ced	0.11727319
105	0xbe867c42	-0.26266676
106	0x3da00a12	0.07814421
107	0x3e84752c	0.25870645
108	0x3e631de1	0.22179367
109	0xbe0110f6	-0.12604126
110	0x3d13ddb2	0.036100097
111	0x3e572263	0.21009211
112	0xbe046ffd	-0.12933345
113	0xbd575f2f	-0.05258101
114	0xbd97934e	-0.07401143
115	0x3e8416e7	0.25798723
116	0xbe5cf538	-0.21577919
117	0xbd0ced62	-0.034406073
118	0x3ca730a8	0.020408943
119	0x3dcc5aab	0.09978231
120	0x3d95712b	0.07296976
121	0x3dbe675f	0.0929706
122	0x3df8fb76	0.12157337
123	0x3db742b2	0.08948268
124	0xbc51ce98	-0.012805603
125	0x3bb9dee1	0.005672321
126	0x3d39bf7f	0.04534864
127	0xbbf8c1b3	-0.00759145
128	0xbd25bfda	-0.040466167
129	0x3cf1b35c	0.02950447
130	0x3d6c85eb	0.0577449
131	0x3aa8d8df	0.0012882015
132	0x3e3ed9e9	0.18637814
133	0xba98937c	-0.0011640633
134	0xbd4a5fea	-0.049407877
135	0xbd85f07d	-0.0654001
136	0x3dc99cb9	0.098443456
137	0x3c931db4	0.0179585
138	0x3da2cdb0	0.07949388
139	0x3e83685e	0.25665563
140	0xbe3395a6	-0.17537555
141	0xbd97bdf9	-0.07409281
142	0x3ea0aede	0.31383413
143	0x3d23da98	0.04000339
144	0x3d1c2e8d	0.03813033
145	0xbf171d7b	-0.5902936
146	0x3eaed4d4	0.3414675
147	0xbe3fe7a9	-0.18740715
148	0x3e352186	0.1768857
149	0x3dc5c2e4	0.09656313
150	0xbe900c0a	-0.28134185
151	0x3dd87bc1	0.10570479
152	0xbe60eb04	-0.21964651
153	0xbd659773	-0.056052636
154	0x3cf47e21	0.0298453
155	0xbd8bdc20	-0.06829095
156	0xbd14e126	-0.03634753
157	0x3d2772be	0.04088091
158	0x3de3689a	0.111039355
159	0x3e581672	0.21102312
160	0x3e387cc8	0.1801635
161	0xbe66892c	-0.22513264
162	0xbe02bf1e	-0.12768218
163	0xbd135976	-0.03597399
164	0xbe90db0f	-0.28292128
165	0xbd56ff9f	-0.052489873
166	0xbe022e0e	-0.12712881
167	0x3dfa3cc3	0.12218621
168	0x3d57f11d	0.052720178
169	0xbd316218	-0.04330644
170	0x3c944479	0.018099057
171	0x3d7c6cbe	0.061627142
172	0xbd80cae3	-0.062886976
173	0xbb35b027	-0.0027723403
174	0x3d220a53	0.039560627
175	0xbdbfe656	-0.09370105
176	0x3a2c6885	0.0006576854
177	0xbd2b1dbb	-0.0417764
178	0xbd42d41b	-0.04756556
179	0xbdf82e9e	-0.121182665
180	0x3ccea7c2	0.025226478
181	0x3e18b58e	0.14913008
182	0xbd86b7db	-0.065780364
183	0xbe10b708	-0.14132321
184	0x3db16260	0.08661342
185	0xbde517b6	-0.11186163
186	0xbc055694	-0.008138318
187	0xbe305f11	-0.17223765
188	0xbda4ef85	-0.08053497
189	0x3d00db75	0.03145929
190	0xbe8bdec0	-0.27318382
191	0xbdf66eab	-0.12032827
192	0xbce5df4a	-0.028060574
193	0xbeb26870	-0.34845304
194	0xbe761308	-0.24030697
195	0xbcbcb3ff	-0.023035048
196	0xbd0d91fd	-0.034563053
197	0xbd09e3b7	-0.03366443
198	0x3e3d2244	0.18470103
199	0xbdc8a497	-0.09797018
200	0xbe57f5ec	-0.21089906
201	0xbeb6df3e	-0.35717195
202	0xbd872fce	-0.06600915
203	0xbeb8b4b9	-0.3607538
204	0x3e48c473	0.1960619
205	0xbe01a333	-0.12659912
206	0x3db4b382	0.08823301
207	0x3e430f7d	0.19048877
208	0x3dc07046	0.093964145
209	0x3d0832d8	0.033251613
210	0xbe2aa7d3	-0.16665582
211	0xbeefc613	-0.46830806
212	0xbeb7c056	-0.35888928
213	0xbcfecb1b	-0.031102708
214	0xbde7a685	-0.11311058
215	0x3cf5cd09	0.030004995
216	0xbd3efe25	-0.04662909
217	0x3df633e6	0.120216176
218	0x3e6f4126	0.23364696
219	0x3d9e3fd1	0.07727016
220	0xbd69de9d	-0.057097066
221	0x3da8b065	0.082367696
222	0x3e447989	0.19186987
223	0xbe375363	-0.17902903
224	0xbe67279c	-0.22573704
225	0xbe2cf11b	-0.1688885
226	0x3cfd994b	0.030956885
227	0x3d759399	0.059955213
228	0xbdf60a14	-0.12013641
229	0xbd79893b	-0.06092189
230	0xbcb62816	-0.022235911
231	0x3dd68830	0.104751945
232	0xbe13db18	-0.14439046
233	0xbde62d5e	-0.11239122
234	0xbdca2fbd	-0.098723866
235	0x3e51d75d	0.20492311
236	0xbd897596	-0.06711881
237	0xbd6aea35	-0.057352263
238	0x3e05e33d	0.13074966
239	0x3e66e543	0.22548394
240	0x3db4dd31	0.088312514
241	0xbd676401	-0.056491856
242	0x3e900442	0.28128248
243	0x3db090bd	0.08621357
244	0xbe40e9af	-0.18839143
245	0x3e50b783	0.20382504
246	0x3eb64d1b	0.35605702
247	0xbdf3ea95	-0.11909977
248	0xbd5bace0	-0.053631663
249	0x3e4f8240	0.2026453
250	0xbd73c0ab	-0.059509914
251	0x3dd2d0ab	0.102937065
252	0xbd5cb60d	-0.053884555
253	0xbd07cec0	-0.033156157
254	0xbe61f3a0	-0.22065592
255	0xbc8075ec	-0.01568123

mean.bias f4 [2]
0	0x3c9bcecf	0.019019512
1	0x3db09bc8	0.08623463

log_std.weight f4 [2, 128]
0	0x3cb24b3f	0.021764396
1	0x3ca93441	0.0206548
2	0x3a337cb0	0.0006846888
3	0xbcd6a8de	-0.026203569
4	0xbc935b38	-0.017987832
5	0x3d7bb8c3	0.0614555
6	0xbd27a77a	-0.040931202
7	0x3d4348d6	0.047676884
8	0x3e02a9d1	0.12760092
9	0xbc371cc9	-0.0111762965
10	0xbd2a1fb6	-0.04153415
11	0x3d962d20	0.07332826
12	0xbc81847a	-0.01581024
13	0x3d0b8afe	0.0340681
14	0xbc9cbbd9	-0.019132541
15	0xbdeca7a3	-0.11555412
16	0x3e2216a3	0.15828948
17	0x3dcac844	0.09901479
18	0xbc1b5190	-0.009479895
19	0x3e1a70a7	0.15082036
20	0xbc7c1fe2	-0.015388461
21	0x3daf6db2	0.085658446
22	0x3d944da3	0.072413705
23	0x3e35876c	0.1772744
24	0xbe0a4328	-0.1350218
25	0xbde3236a	-0.11090739
26	0xbcbcf2ef	-0.023065059
27	0x3c29311e	0.010326652
28	0x3c28db95	0.010306259
29	0xb82a0846	-4.0538864e-05
30	0xbd0fc469	-0.03509942
31	0x3abe45b7	0.0014516626
32	0xbdd16544	-0.10224393
33	0xbb213fd4	-0.0024604695
34	0xbd5b7679	-0.05357978
35	0xbc3675ef	-0.011136516
36	0xbb40fe2e	-0.0029448378
37	0x3e26ff30	0.16308284
38	0xbd78702f	-0.06065386
39	0xbd8e76b8	-0.069562376
40	0x3da1a7d0	0.07893336
41	0x3ae90dd9	0.0017780616
42	0x39b37f3e	0.00034236343
43	0xbd42ed92	-0.047589846
44	0x3d863470	0.065529704
45	0x3cfaa46d	0.030595982
46	0x3d787e15	0.060667116
47	0x3d803d93	0.06261744
48	0x3bcbe856	0.006222765
49	0xbd8d89b1	-0.06911028
50	0x3cfb7c29	0.030698853
51	0x3e014d65	0.1262718
52	0xbcba3c0d	-0.022733713
53	0xbdc11ae6	-0.094289586
54	0x3de34e24	0.110988885
55	0xbc4ace29	-0.012378254
56	0x3d915dea	0.07097991
57	0xbcf38e3e	-0.029730912
58	0x3a4c28fb	0.0007788089
59	0xbc8c7279	-0.017144429
60	0xbc84821e	-0.016175326
61	0x3c95aa7b	0.018269768
62	0xbc982919	-0.018574284
63	0x3d035c17	0.032070246
64	0xbb23cc46	-0.0024993583
65	0x3e70f768	0.23531878
66	0x3d61942f	0.05507296
67	0x3db70faa	0.089385346
68	0xbd13232f	-0.035922226
69	0x3caa6332	0.020799253
70	0xbb2b2e3c	-0.0026120087
71	0x3db317ee	0.087447986
72	0x3d14b506	0.03630545
73	0x3d3214cb	0.04347686
74	0xbd1b6a92	-0.03794343
75	0xbe109917	-0.14120899
76	0x3bc6c2f4	0.0060657207
77	0xbb1a0153	-0.0023499324
78	0xbbe8af37	-0.0071009654
79	0xbd7c4b54	-0.061595276
80	0x3b0a34af	0.002108853
81	0x3d969d21	0.07354189
82	0x3e21ab31	0.1578796
83	0xbc3174a8	-0.010831036
84	0xba9369db	-0.0011246757
85	0x3cf1aedc	0.029502325
86	0x3cbdffd0	0.02319327
87	0xbd576fd2	-0.052596875
88	0x3bf2b8f8	0.007407304
89	0x3de2081d	0.11036704
90	0xbd4a3e69	-0.049375925
91	0xbcecca7b	-0.028905144
92	0xbd1fafdd	-0.038986076
93	0xbd2ce98c	-0.042214915
94	0x3e680bf3	0.22660808
95	0xbc6219a4	-0.0138000585
96	0xbcb2043b	-0.021730533
97	0x3e041b54	0.1290105
98	0xbd28d4f0	-0.041218698
99	0x3dab2d15	0.08358208
100	0xbdb0e201	-0.08636857
101	0x3c28861c	0.01028588
102	0xba342fd3	-0.00068735814
103	0xbca01db3	-0.019545412
104	0x3c18d459	0.009327971
105	0x3db2d07d	0.08731172
106	0xbd979483	-0.07401373
107	0x3d9ab028	0.075531304
108	0x3ddc2a7b	0.1075029
109	0xbd90037d	-0.07031915
110	0xbc762cf6	-0.015025368
111	0xbd8dbef4	-0.06921187
112	0xba7845f0	-0.0009470871
113	0xbd210ed2	-0.039320774
114	0x3c10e45b	0.008843507
115	0xbd471070	-0.04859966
116	0xbd73d760	-0.05953157
117	0x3c06320c	0.008190643
118	0x3d2f5705	0.042807598
119	0xbcb9a0b9	-0.022659646
120	0x3da5b902	0.08091928
121	0xbcb5a8e5	-0.022175262
122	0x3cfa9a21	0.030591073
123	0x3c0e61f4	0.008690346
124	0x3d82d85f	0.06388926
125	0xbd166e37	-0.036726203
126	0xbd658ec8	-0.05604437
127	0x3d7300a1	0.05932677
128	0xbc928653	-0.017886316
129	0x3d7e71d5	0.062120277
130	0xbca7a8ea	-0.020466287
131	0xbd7dfe82	-0.062010296
132	0xbd0063a6	-0.031345032
133	0x3c0e48d3	0.008684355
134	0xbce90f44	-0.028449662
135	0xbc8acc5c	-0.01694315
136	0x3c607b20	0.01370123
137	0xbec0193d	-0.37519255
138	0x3cb49fad	0.022048796
139	0x3b654a58	0.003498694
140	0xbd68dd45	-0.056851644
141	0xbcc4dd56	-0.024031322
142	0xbdc7a10c	-0.09747514
143	0xbcab5233	-0.02091322
144	0x3caf757e	0.02141833
145	0x3e10d7ea	0.14144865
146	0xbc9d16e9	-0.019175963
147	0xbce3ae01	-0.027792932
148	0x3b41f593	0.0029595837
149	0x3c5b0877	0.013368717
150	0xba913dd0	-0.0011081044
151	0x3ce3bb28	0.027799204
152	0xbe0b793f	-0.1362047
153	0xbd03ec33	-0.03220768
154	0xbd508566	-0.05090847
155	0xbcb1c8b4	-0.021702148
156	0xbc50c166	-0.012741422
157	0x3ba14800	0.004921913
158	0x3d4c9ac5	0.049952287
159	0xbd6ba6e6	-0.057532214
160	0xbd7e24a3	-0.06204666
161	0xbd6b9513	-0.057515215
162	0xbb3db273	-0.0028945475
163	0x3d0a2a62	0.033731826
164	0x3da6dabe	0.081471905
165	0x3c666ffd	0.014064786
166	0xbd0e880c	-0.034797713
167	0x3caa5b75	0.020795563
168	0x3d054e60	0.032545447
169	0xbc490106	-0.01226831
170	0x3caff82d	0.021480644
171	0x3d23f8cf	0.040032204
172	0xbd86c879	-0.06581206
173	0x3c7fd01e	0.015613584
174	0x3cee02c9	0.029054062
175	0x3c8f2500	0.017473698
176	0x3cc179e3	0.02361769
177	0xbd9fd723	-0.07804706
178	0x3c36fd17	0.01116874
179	0xbcc1d8c5	-0.023662934
180	0xbcb15566	-0.021647166
181	0xbd16939d	-0.03676187
182	0x3d0600d0	0.03271562
183	0xbdaddf15	-0.08489815
184	0xbc0301f0	-0.007996067
185	0xbd8b2321	-0.0679381
186	0xbc944665	-0.018099973
187	0x3da686d6	0.08131187
188	0x3dd15c4b	0.102226816
189	0x3c8bdc43	0.017072802
190	0x3db3316b	0.0874966
191	0xbc83cdcb	-0.01608934
192	0xbca206e0	-0.019778669
193	0x3e004aeb	0.12528579
194	0x3daac548	0.0833841
195	0xbcecf759	-0.028926538
196	0xbd511a82	-0.05105067
197	0xbbbaa47f	-0.005695879
198	0xbc164ba6	-0.009173309
199	0xbcb67d0f	-0.02227643
200	0x3d7d6091	0.06185967
201	0x3e5b3d8d	0.21410199
202	0x3ba7fc38	0.0051265024
203	0x3d30efe4	0.043197528
204	0x3d18584a	0.037193574
205	0x3d10fcf6	0.035397492
206	0x3cccbd2c	0.024992548
207	0x3d97ccf1	0.07412136
208	0x3c80090f	0.01562932
209	0xbc45d5c3	-0.012074891
210	0x3d035a97	0.032068815
211	0x3e315ef8	0.17321384
212	0x3dbe9c4a	0.093071535
213	0xbd4e71ae	-0.050401382
214	0xbcaed6da	-0.021342684
215	0x3d2b3713	0.04180057
216	0x3ca52d9c	0.02016335
217	0xbcf1f599	-0.029536055
218	0x3d1ba863	0.038002383
219	0x3c9d4077	0.019195778
220	0x3d7d8c9f	0.061901685
221	0xbd0c2cbf	-0.03422236
222	0xbd8fd3a0	-0.07022786
223	0x3e1dec44	0.1542216
224	0xbd1b7df3	-0.03796191
225	0xb9b524e3	-0.00034550493
226	0x3d9adcbb	0.07561632
227	0xbc7e882f	-0.015535398
228	0xbe8d166e	-0.27556175
229	0x3d1861fd	0.037202824
230	0xbc321fcd	-0.01087184
231	0x3c53d564	0.012929294
232	0x3d0e90c4	0.034806028
233	0x3d1fb1b5	0.038987834
234	0xbdeeda0a	-0.116626814
235	0xbcd60d33	-0.02612934
236	0xbd2362fc	-0.03988932
237	0xbe0312db	-0.12800162
238	0x3cc00a79	0.023442494
239	0x39c9b883	0.0003847518
240	0xbcbc36d4	-0.022975363
241	0xbd8175f1	-0.06321324
242	0x3d70cb41	0.058787588
243	0x3c4004ce	0.0117198955
244	0x3c977b8f	0.018491535
245	0x3d2d17cc	0.042259023
246	0x3d93482d	0.07191501
247	0xbd0e97b9	-0.034812663
248	0x3c59dd0e	0.013297332
249	0xbd54c7c0	-0.05194831
250	0xbce75a9d	-0.02824145
251	0xbccb19b4	-0.02479253
252	0x3c8028e4	0.015644498
253	0xbcbde0a5	-0.023178408
254	0xbc566ee5	-0.013087963
255	0x3b84cbf4	0.0040526334

log_std.bias f4 [2]
0	0xbf779383	-0.9670946
1	0xbf8ba197	-1.0908688
