sac_actor.pth (torch, 74345 bytes, 8 tensors)

fc.0.weight f4 [128, 4]
0	0xbc7f9657	-0.015599809
1	0x3cb488d9	0.02203791
2	0x3dc83e5a	0.097775176
3	0x3ea3aa52	0.31965882
4	0xbda852ca	-0.08218916
5	0xbec55312	-0.3853994
6	0x3f11f62e	0.57016265
7	0x3eb449f7	0.3521268
8	0x3e077bd6	0.13230833
9	0x3e9f6f51	0.31139615
10	0xbf340e65	-0.70334464
11	0x3df14454	0.11780611
12	0xbe94ed51	-0.29087308
13	0xbe3fe3fd	-0.18739314
14	0x3efc15e9	0.49235466
15	0xbdbb656e	-0.091502056
16	0x3e6c7853	0.23092775
17	0x3e8f1bf8	0.27951026
18	0xbf41d3a2	-0.7571355
19	0x3bbbfcea	0.005736937
20	0xbf2f2f16	-0.6843122
21	0x3d2de5a3	0.042455327
22	0x3ebc4d20	0.36777592
23	0xbe00cf5b	-0.125791
24	0x3f3235f0	0.6961355
25	0xbebf8fb2	-0.37414318
26	0xbf30db61	-0.69084746
27	0x3eb283f2	0.3486629
28	0x3d3fd12f	0.046830352
29	0x3f2406c1	0.64072806
30	0xbe9dd302	-0.3082505
31	0xbe8578f8	-0.26068854
32	0xbefb8f4e	-0.4913277
33	0xbe2b0e5b	-0.16704695
34	0x3eede631	0.46464685
35	0x3e9664b9	0.2937372
36	0xbe225f31	-0.15856625
37	0x3e847630	0.2587142
38	0xbe37ef63	-0.17962413
39	0xbea748f1	-0.32672837
40	0x3ebda9f3	0.37043723
41	0x3e980cf5	0.29697385
42	0xbe92fd79	-0.2870901
43	0xbeb615f1	-0.35563615
44	0xbedb235c	-0.42800415
45	0xbecbe157	-0.39820358
46	0x3ea3e139	0.3200777
47	0x3eceb3cc	0.4037155
48	0x3ec01f3e	0.37523836
49	0x3e1aff7d	0.15136524
50	0xbedccdd0	-0.43125772
51	0xbe38ba27	-0.18039761
52	0xbdd21324	-0.10257557
53	0x3c958a78	0.018254504
54	0xbe833e34	-0.25633395
55	0xbe7d936f	-0.24763273
56	0x3e150ead	0.1455638
57	0x3da0efb4	0.0785822
58	0xbc04766f	-0.008084877
59	0xbeca8f8d	-0.39562646
60	0xbd82ad03	-0.063806556
61	0xbec4953b	-0.38395104
62	0x3daca0bd	0.08429096
63	0x3edebc95	0.43503252
64	0xbcd478c8	-0.0259365
65	0xbdc29a54	-0.09502092
66	0xbef01e5d	-0.46898165
67	0x3e91540f	0.28384444
68	0x3dd23822	0.10264613
69	0x3ea6586d	0.3248934
70	0xbef69033	-0.4815689
71	0xbeaba70e	-0.3352589
72	0xbe85760f	-0.26066634
73	0xbe6c8996	-0.2309936
74	0x3c9e3a4c	0.019314907
75	0x3ea95b9d	0.33077708
76	0xbef5a6b2	-0.4797874
77	0xbc3dfdaf	-0.011596127
78	0xbdc86c6a	-0.09786303
79	0x3e9d53cf	0.30728003
80	0xbcb30e46	-0.021857392
81	0x3d880a02	0.06642534
82	0xbea64d8c	-0.3248104
83	0x3eb9adac	0.36265314
84	0xbde46037	-0.11151164
85	0xbecab7d3	-0.39593372
86	0x3e1013a6	0.14069995
87	0x3ec88c72	0.3916965
88	0x3bfdd667	0.007746506
89	0xbed45f0c	-0.41478765
90	0xbd42e8df	-0.047585364
91	0x3eb043d3	0.34426746
92	0xbe87d4cc	-0.2652954
93	0xbf225f2d	-0.63426477
94	0xbe837949	-0.2567847
95	0x3eb2d168	0.3492539
96	0x3e9b989c	0.3038987
97	0xbe5392ca	-0.20661464
98	0xbf113741	-0.56724936
99	0x3f14f6cb	0.58189076
100	0x3ec8d741	0.39226726
101	0xbe82a64e	-0.25517505
102	0xbe9756e3	-0.29558477
103	0x3e6ea7d5	0.2330621
104	0x3e10fd90	0.14159226
105	0xbd5d30b6	-0.054001532
106	0xbc7dd45d	-0.015492526
107	0x3e84b116	0.25916356
108	0xbe9216f4	-0.28533137
109	0x3eac4214	0.33644164
110	0xbd219ee3	-0.039458167
111	0x3e6e6a5e	0.23282763
112	0x3dfa8720	0.12232804
113	0xbe52aa0e	-0.20572683
114	0xbed25995	-0.4108397
115	0x3ec33ebd	0.38133803
116	0x3ecbae19	0.39781263
117	0xbee6d72b	-0.45086035
118	0xbedd9558	-0.43278003
119	0x3ec41239	0.38295153
120	0x3ee233f2	0.44180256
121	0xbb9fc713	-0.0048760264
122	0xbeef61f1	-0.4675441
123	0xbd9625c7	-0.07331424
124	0xbdedde00	-0.11614609
125	0x3e621156	0.22076926
126	0xbed92d12	-0.42417198
127	0xbe4f34a4	-0.20234925
128	0xbe4f81f3	-0.20264415
129	0xbebb53e6	-0.36587447
130	0xbe29778d	-0.16549511
131	0x3dc88bce	0.09792291
132	0x3ee1c862	0.44098192
133	0xbe7e8600	-0.24855804
134	0xbeb71ab9	-0.35762575
135	0x3eb2505a	0.34826928
136	0xbdb20c1f	-0.08693718
137	0xbebd40ae	-0.3696341
138	0xbf266a91	-0.6500636
139	0xbe3819fd	-0.17978664
140	0x3eb4fa56	0.3534724
141	0xbd77c638	-0.06049177
142	0xbd9b0c06	-0.07570653
143	0x3e7056ab	0.23470561
144	0x3eec16c5	0.46111122
145	0xbd9a9e0f	-0.075496785
146	0xbf0bf05c	-0.54663634
147	0xbd2d24bd	-0.042271364
148	0xbeb1a021	-0.3469248
149	0x3e944e4e	0.28965992
150	0xbd167bf0	-0.03673929
151	0xbe1e0b76	-0.1543406
152	0xbe946522	-0.28983408
153	0x3ea3026f	0.31837794
154	0x3ecaf453	0.3963953
155	0xbf00d922	-0.5033132
156	0xbe29da91	-0.16587283
157	0x3df4066e	0.11915289
158	0xbf0efbbe	-0.5585288
159	0xbe878d78	-0.2647512
160	0x3dee2ddf	0.11629843
161	0x3e0c10fb	0.13678353
162	0x3cce2fac	0.025169216
163	0xbeb4910d	-0.35266915
164	0xbecf4f60	-0.40490246
165	0x3e8ebc9f	0.2787828
166	0x3f1d1542	0.6136056
167	0xbe672a6f	-0.22574781
168	0x3e88345b	0.26602444
169	0xbe6b1e46	-0.22960767
170	0x3e2d921a	0.16950265
171	0x3f0cce4a	0.5500227
172	0x3f06f437	0.5271639
173	0x3e0a5a0c	0.13510913
174	0xbf08d9f0	-0.53457546
175	0xbea592d4	-0.32338583
176	0x3e1d9f13	0.15392713
177	0xbee26095	-0.4421431
178	0xbe22a0c1	-0.15881635
179	0x3edff83a	0.4374407
180	0x3db8205d	0.08990548
181	0xbf09a47e	-0.5376662
182	0xbe30ed25	-0.17277963
183	0x3d633995	0.055474836
184	0xbeefab06	-0.46810168
185	0x3c39223c	0.011299666
186	0xbe1b0812	-0.15139797
187	0x3ed4ba5b	0.41548428
188	0xbf111969	-0.566794
189	0xbed25767	-0.41082308
190	0x3f0ff331	0.56230456
191	0x3eb4f368	0.35341954
192	0x3f1bbcf1	0.60835177
193	0xbe7bac1d	-0.24577375
194	0xbf2d53e7	-0.6770615
195	0x3ecee450	0.40408564
196	0xbe3095e5	-0.1724468
197	0xbe3c9b23	-0.18418555
198	0xbee0ead5	-0.43929163
199	0x3ee3a159	0.44459036
200	0x3dce2145	0.100649394
201	0x3e265524	0.16243416
202	0x3e03eb29	0.12882675
203	0xbe8c1ae0	-0.27364254
204	0x3d324c9e	0.0435301
205	0x3e110aaa	0.14164224
206	0x3cabb191	0.020958694
207	0xbee17024	-0.4403087
208	0x3f042df7	0.51632637
209	0xbe4235b8	-0.18965805
210	0xbf1255d2	-0.571622
211	0x3eae9504	0.34098065
212	0xbcbdc161	-0.0231635
213	0xbe6adf58	-0.22936761
214	0x3ed6908d	0.41907158
215	0xbe81e4bb	-0.2536982
216	0xbeb4af70	-0.35290098
217	0xbe7c0be0	-0.24613905
218	0xbed6cfe7	-0.41955492
219	0x3d6b8029	0.05749527
220	0x3e8c40b7	0.27393124
221	0xbe819abf	-0.25313374
222	0xbce15b58	-0.027509376
223	0xbc1bbd74	-0.009505618
224	0xbe94b360	-0.29043102
225	0xbecfb86c	-0.4057039
226	0x3e501c20	0.20323229
227	0x3eb4dd95	0.35325304
228	0xbef302df	-0.47463128
229	0xbe078740	-0.13235188
230	0x3ed28a75	0.4112126
231	0x3e667943	0.22507195
232	0xbec4a920	-0.38410282
233	0xbeb6e38f	-0.35720488
234	0x3e15bd15	0.1462291
235	0x3e1d3424	0.15351921
236	0xbe94a838	-0.2903459
237	0xbefc7e6c	-0.49315202
238	0x3d40a7c9	0.047035012
239	0x3e01da77	0.12680994
240	0x3e44bd5d	0.19212861
241	0x3bba4f2d	0.005685708
242	0xbee7c03e	-0.45263857
243	0xbde3eeb5	-0.11129514
244	0x3e1f9c38	0.15586936
245	0xbf230132	-0.636737
246	0xbf06dc55	-0.5267995
247	0x3ef96e8f	0.48717162
248	0x3eaa7676	0.33293504
249	0xbeec0ebe	-0.46104997
250	0xbebc0a1b	-0.3672646
251	0x3ec82930	0.39093924
252	0x3e9b20e5	0.30298534
253	0x3e8d87ce	0.27642673
254	0xbdcbd620	-0.099529505
255	0x3e1c0476	0.15236077

fc.0.bias f4 [128]
0	0x3f0fd8ff	0.56190485
1	0xbe9554fc	-0.291664
2	0xbf8d04f7	-1.101714
3	0xbee60fa6	-0.44933814
4	0xbf84e818	-1.0383329
5	0x3e2e9c60	0.1705184
6	0x3d8fe498	0.07026023
7	0x3ee35e5e	0.44407934
8	0xbfb3a646	-1.4035118
9	0xbf479fa0	-0.77977943
10	0xbb9f3dab	-0.0048596463
11	0xbef88de0	-0.48545742
12	0x3dbee9c5	0.09321932
13	0x3e83a5f4	0.2571255
14	0x3e8e5a54	0.2780329
15	0x3d8c8775	0.06861774
16	0x3e42680c	0.18985003
17	0xbdbbce2f	-0.09170186
18	0x3d57d40b	0.052692454
19	0xbf24afc4	-0.643307
20	0x3c21dbe4	0.009879086
21	0x3e9233c0	0.28555107
22	0xbe19a75f	-0.15005253
23	0xbf6b493d	-0.9190863
24	0xbf03220e	-0.5122384
25	0x3f1927b7	0.59826225
26	0xbf75f116	-0.9607099
27	0xbe5d0361	-0.2158332
28	0x3e81efe6	0.2537834
29	0x3df08c9b	0.11745568
30	0xbf57ce61	-0.84299284
31	0xbf3f1e4b	-0.746556
32	0xbfa93e7b	-1.3222193
33	0xbf7da2ea	-0.9907671
34	0xbf620d80	-0.8830185
35	0xbd6f8794	-0.058478907
36	0xbe92cd01	-0.2867203
37	0x3ed77fae	0.420896
38	0xbeda0d7a	-0.42588407
39	0x3f4be7fc	0.79650855
40	0xbfa44f4e	-1.2836702
41	0xbf4be7b0	-0.796504
42	0xbf05b665	-0.52231437
43	0x3ea4c044	0.32177937
44	0x3e120943	0.14261346
45	0xbf754c52	-0.9581958
46	0xbeacc83e	-0.33746523
47	0xbd264bf3	-0.040599775
48	0xbf45d275	-0.77274257
49	0xbe63a62e	-0.22231361
50	0xbfacfa75	-1.3513933
51	0x3e2145a0	0.15749216
52	0xbd998d78	-0.07497686
53	0xbf62167c	-0.8831556
54	0xbfb65e5d	-1.4247547
55	0xbf80e144	-1.0068746
56	0xbd203d98	-0.03912124
57	0x3f1b80da	0.60743487
58	0x3f33b246	0.701939
59	0xbe564d60	-0.20927954
60	0x3f1bfc17	0.60931534
61	0xbee17dd8	-0.44041324
62	0xbeb484eb	-0.35257658
63	0xbe14acd3	-0.14519052
64	0xbe86a5b3	-0.26298293
65	0x3f27f44c	0.6560714
66	0xbed8601d	-0.4226083
67	0xbcb8bad5	-0.022550026
68	0xbf9cdf74	-1.2255692
69	0x3fa2c95a	1.2717698
70	0xbf91a568	-1.1378603
71	0x3e808eff	0.25109097
72	0xbf0d0c53	-0.5509693
73	0x3cb39428	0.021921232
74	0xbe91d42c	-0.28482187
75	0x3f20d50f	0.628251
76	0xbea5e80d	-0.32403603
77	0x3e4c8251	0.19971587
78	0xbf8c5bed	-1.0965554
79	0xbe4053c7	-0.18781959
80	0x3e105fbf	0.14099024
81	0x3db4b9e3	0.088245176
82	0x3f8433f4	1.0328355
83	0xbedd36bf	-0.4320583
84	0xbf1708f7	-0.58998054
85	0xbf0a1644	-0.53940225
86	0xbf59b605	-0.85043365
87	0xbf873023	-1.0561565
88	0xbf006f67	-0.50169986
89	0xbe07dff8	-0.13269031
90	0xbedfc589	-0.43705395
91	0x3f825c5a	1.0184433
92	0x3f381ee3	0.7192213
93	0xbe362da9	-0.17790855
94	0xbf94e82c	-1.1633353
95	0x3e2c7553	0.1684163
96	0xbd9df940	-0.07713556
97	0xbf58b54d	-0.84651643
98	0xbf20e409	-0.62847954
99	0x3d91e7cb	0.07124289
100	0xbf18eed5	-0.5973943
101	0x3e307497	0.17231975
102	0x3eeeeceb	0.4666513
103	0x3f21eeb1	0.6325484
104	0xbec973e8	-0.39346242
105	0xbf8e1e50	-1.1103001
106	0x3f95be48	1.1698694
107	0x3f09791e	0.53700435
108	0xbe110e0c	-0.14165515
109	0xbd2a75e8	-0.04161635
110	0xbee0c8ef	-0.439033
111	0x3f0e5afa	0.5560757
112	0x3e5eb69b	0.21749346
113	0xbf089667	-0.53354496
114	0xbf44d2e7	-0.7688431
115	0x3eb7aa40	0.35872078
116	0xbe582ac5	-0.21110065
117	0xbf0c8861	-0.548956
118	0x3f2ad049	0.6672407
119	0xbee6d336	-0.45083016
120	0xbf094348	-0.5361829
121	0x3f176571	0.5913916
122	0xbf0ab574	-0.54183125
123	0xbeb6109d	-0.3555955
124	0xbea4abca	-0.32162315
125	0xbf47c66e	-0.78037155
126	0x3d44b28b	0.048021834
127	0x3f8ab30f	1.0835894

fc.2.weight f4 [128, 128]
0	0xbd19373a	-0.037406184
1	0x3d88de66	0.06683044
2	0xbe2a246a	-0.16615453
3	0xbe1939a9	-0.14963402
4	0xbdc28ae0	-0.094991446
5	0xbdf29fb8	-0.1184687
6	0xbcf76815	-0.030200997
7	0x3c582972	0.013193475
8	0xbed08b64	-0.40731347
9	0x3d3ec114	0.046570852
10	0xbdb57ca7	-0.08861666
11	0xbf204773	-0.6260902
12	0xbe2e69fe	-0.1703262
13	0xbacaf1fd	-0.0015483495
14	0xbe940f85	-0.2891809
15	0x3d17571e	0.036948316
16	0x3db80c9b	0.08986779
17	0xbe765c97	-0.24058758
18	0xbe148804	-0.14505011
19	0xbe451e9d	-0.1924996
20	0xbe03c922	-0.12869695
21	0xbea763e3	-0.32693395
22	0xbbecd315	-0.0072273114
23	0x3e2d8003	0.16943364
24	0x3cda6c8b	0.026663085
25	0xbe7a65d6	-0.2445291
26	0x3d84722e	0.064670905
27	0x3d888d53	0.066675805
28	0xbe59cc56	-0.21269354
29	0xbe408001	-0.1879883
30	0x3c4efeb6	0.01263397
31	0xbe1d2c0f	-0.15348838
32	0x3d632c20	0.055462003
33	0xbc3a6314	-0.011376161
34	0x3de18021	0.11010767
35	0xbd8d3615	-0.06895081
36	0xbd370b1b	-0.044688325
37	0xbc287c1c	-0.010283496
38	0xbd5e693a	-0.05429957
39	0xbdb231f4	-0.08700934
40	0xbecb4ae3	-0.39705572
41	0x3d1c791d	0.03820144
42	0xbdb02b02	-0.08601953
43	0xbec6be20	-0.3881693
44	0xbdcb0b88	-0.09914309
45	0xbe1cb61a	-0.15303841
46	0x3d1783c2	0.03699089
47	0xbddd074b	-0.10792407
48	0xbe8cbfd2	-0.27490097
49	0xbb385570	-0.0028127097
50	0x3de61183	0.11233809
51	0xbddecb21	-0.108785875
52	0xbd8f924a	-0.07010324
53	0x3d955f3c	0.07293555
54	0x3e2b3c37	0.16722189
55	0xbc2fea02	-0.010736944
56	0xbdcead28	-0.10091621
57	0xbe7ff59e	-0.2499604
58	0x3d3e22d5	0.046419937
59	0xbe78f8f3	-0.24313717
60	0xbe913bbf	-0.28365895
61	0xbdd28859	-0.102799125
62	0x3ccf9aee	0.02534243
63	0xbe14cd0d	-0.14531346
64	0xbef48bfd	-0.47763053
65	0xbd63d738	-0.05562517
66	0x3c57ea7c	0.013178464
67	0xbd5484ef	-0.051884588
68	0xbdc9253d	-0.09821556
69	0xbe9a0897	-0.3008468
70	0xbd5499a5	-0.05190434
71	0x3bf26e46	0.0073983995
72	0x3dec74ca	0.11545713
73	0x3aa42d47	0.0012525701
74	0xbe65ae5e	-0.22429797
75	0xbe80dd22	-0.2516871
76	0xbc065604	-0.008199219
77	0xbd46d2a5	-0.04854073
78	0xbdb94c73	-0.09047785
79	0xbdb6ff9d	-0.08935473
80	0xbdaefa85	-0.085438766
81	0xbe0fda90	-0.14048219
82	0xbec5c1b9	-0.3862436
83	0x3d542ceb	0.05180065
84	0xbe17917a	-0.14801589
85	0xbe820ad5	-0.2539889
86	0xbded67b6	-0.11592047
87	0x3c80b058	0.015709087
88	0xbe11b2aa	-0.14228311
89	0xbb93a8f0	-0.004506223
90	0xbe7b5dfb	-0.2454757
91	0xbd3300cf	-0.043701943
92	0x3e2e35dd	0.17012735
93	0x3da872ef	0.08225047
94	0x3cb528a4	0.022114106
95	0x3b0fd4f7	0.0021947005
96	0xbd501e50	-0.05081016
97	0xbd0389c9	-0.032113824
98	0xbe6e2870	-0.23257613
99	0x3d65d5ef	0.056112226
100	0xb9c5434a	-0.00037624902
101	0xbc6958b2	-0.014242338
102	0xbdeaf262	-0.11472012
103	0x3d5f9ffb	0.05459593
104	0xbe834118	-0.256356
105	0x3c755325	0.0149734365
106	0xbcf64f22	-0.03006703
107	0xbe6353d5	-0.22199948
108	0xbe1d5df0	-0.15367866
109	0xbd921c9d	-0.07134364
110	0xbd4d06e5	-0.050055403
111	0xbe014a25	-0.1262594
112	0xbdbd4388	-0.09241396
113	0x3ba24ca3	0.0049529835
114	0xbe047c7a	-0.12938109
115	0x3c60e58a	0.013726601
116	0xbe8ff946	-0.28119868
117	0x3cd0b17b	0.025475254
118	0xbedc851f	-0.43070313
119	0xbd60d7f7	-0.05489346
120	0xbcac944e	-0.021066811
121	0xbe6fd2b0	-0.23420215
122	0xbe3e9496	-0.18611369
123	0xbeda4cc0	-0.4263668
124	0xbe721644	-0.23641306
125	0x3c921105	0.017830381
126	0xbdda4815	-0.1065828
127	0xbe85b182	-0.2611199
128	0x3d88de1c	0.06682989
129	0xbca9313c	-0.02065336
130	0xbd2c4bd4	-0.042064503
131	0xbd96898f	-0.07350456
132	0xbd584c35	-0.05280705
133	0xbdae12f7	-0.08499711
134	0xbd668819	-0.056282137
135	0x3c481e01	0.012214185
136	0xbde85d22	-0.11345889
137	0xbdb131c3	-0.086520694
138	0x3bec436b	0.0072101853
139	0xbdb6111a	-0.088899806
140	0xbc611b6e	-0.01373945
141	0xbd246c8f	-0.040142592
142	0xbdba2733	-0.09089508
143	0xbd3d70d9	-0.046250198
144	0xbd2d6a10	-0.042337477
145	0xbd905111	-0.07046712
146	0x3da2a2af	0.07941186
147	0xbc2d3eff	-0.0105741015
148	0xbda557c0	-0.080733776
149	0xbcfd4619	-0.030917214
150	0xbd103f2b	-0.03521649
151	0x3d665c7a	0.056240536
152	0x3d4c8360	0.049929976
153	0x3d90cc82	0.07070257
154	0x3cc7c980	0.024388075
155	0xbdea786e	-0.114487514
156	0xbd9df288	-0.07712275
157	0xbd23b284	-0.039965168
158	0xbd68da34	-0.05684872
159	0xbd232895	-0.039833624
160	0xbd9417c0	-0.072310925
161	0xbd1dd5a2	-0.038533814
162	0xbcb18e34	-0.021674253
163	0xbd0f6f6c	-0.03501837
164	0x3c7000a2	0.014648588
165	0x3d495485	0.04915287
166	0xbd8007e3	-0.06251504
167	0xbd44a94d	-0.04801302
168	0xbdb57a6b	-0.0886124
169	0x3b2b5987	0.0026145892
170	0xbd206569	-0.039159212
171	0x3d0ab190	0.033860743
172	0xbd2acf4a	-0.041701593
173	0xbbd30ff8	-0.0064411126
174	0xbac31899	-0.001488465
175	0x3ce6ec42	0.028188828
176	0x3d153883	0.036430847
177	0xbd969206	-0.073520705
178	0xbdaa452c	-0.08313975
179	0xbac5688d	-0.0015061066
180	0x3bde632f	0.006786726
181	0xbd0bac1b	-0.03409968
182	0xbdc54872	-0.096329585
183	0x3d0711fa	0.03297613
184	0x3d99b7f6	0.07505791
185	0x3c7a26a0	0.015267998
186	0x3c73ad9b	0.014872934
187	0xbd8a8f7a	-0.06765647
188	0xbc1edc29	-0.009696045
189	0x3b681a4a	0.003541606
190	0xbc92f531	-0.017939182
191	0x3c8e0f29	0.017341213
192	0xbcea4a6e	-0.028599944
193	0xbd0e886d	-0.034798075
194	0x3d47492a	0.04865376
195	0xbcf0924e	-0.029366639
196	0xbdbfc432	-0.09363593
197	0xbd87f0ab	-0.06637701
198	0x3d48105a	0.04884372
199	0x3ca58a3d	0.020207519
200	0x3cf64909	0.030064123
201	0x3c017d85	0.007903461
202	0x3d78cb0d	0.06074052
203	0x3d16e453	0.03683884
204	0x3d7882a0	0.06067145
205	0xbdcfda7d	-0.10149095
206	0xbc691b80	-0.014227748
207	0xbd7206ba	-0.059088446
208	0xbd189557	-0.037251797
209	0x3cddc411	0.02707103
210	0xba909621	-0.001103107
211	0xbd14d42e	-0.036335163
212	0x3d66ea49	0.056375775
213	0x3d11f23e	0.03563141
214	0x3d5aecdd	0.053448547
215	0x3cee8908	0.029118076
216	0xbd729d44	-0.05923201
217	0xbd4b9177	-0.049699273
218	0x3d1ec2b4	0.038759902
219	0xbcd7310f	-0.02626851
220	0xbce7be7c	-0.028289072
221	0x3d8bd1ec	0.06827149
222	0x3d495893	0.049156737
223	0xbd0214d2	-0.031758137
224	0x3c5b5970	0.013388023
225	0xbdc6a469	-0.096993275
226	0xb8fd2f87	-0.00012072833
227	0x3d66ffee	0.056396417
228	0xbc957851	-0.018245848
229	0x3cbd7220	0.023125708
230	0xbd8798e3	-0.06620958
231	0xbd79ec57	-0.061016407
232	0x3ca89a17	0.020581288
233	0xbc9f87d5	-0.01947395
234	0x3d9c60f3	0.07635679
235	0xbdc3c2d8	-0.09558648
236	0xbd077767	-0.033072855
237	0x3cf926c7	0.030413998
238	0xbd8687fa	-0.06568904
239	0xbcd81099	-0.026375102
240	0x3d8962ab	0.067082725
241	0x3daf3840	0.08555651
242	0x3d20e57a	0.039281346
243	0xbdd533b5	-0.10410253
244	0x3d18f246	0.037340425
245	0xbd91666e	-0.07099615
246	0xbcea9373	-0.028634762
247	0xbd8234d5	-0.06357733
248	0x3c8bb8c7	0.017055882
249	0x3d46bb88	0.048518687
250	0xbcc3273c	-0.02382242
251	0xbd8e4d6e	-0.06948362
252	0x3cea6b1a	0.028615523
253	0x3cdbaefd	0.02681684
254	0xbd21a50e	-0.03946405
255	0xbdce5e1a	-0.10076542

fc.2.bias f4 [128]
0	0xbe468efb	-0.1939048
1	0xbd0a3cab	-0.033749264
2	0xbcebc4ba	-0.02878033
3	0x3e7d5264	0.24738461
4	0x3cb967a7	0.022632433
5	0x3ea16a2c	0.31526315
6	0xbe5d3cc3	-0.2160521
7	0xbe4224a2	-0.18959287
8	0x3da49c7d	0.0803766
9	0x3d9775ea	0.07395537
10	0x3e0528c2	0.13003829
11	0x3dea663e	0.114452824
12	0x3f07b507	0.530106
13	0x3da513bb	0.08060404
14	0x3e00bf8e	0.12573072
15	0x3e1a5900	0.15073013
16	0xbc86b79b	-0.016444972
17	0xbcb5e8ee	-0.022205796
18	0xbdb3558d	-0.08756552
19	0x3efd89ce	0.495192
20	0x3e6cd8e6	0.23129615
21	0xbcca0d80	-0.02466464
22	0x3e82bb45	0.255335
23	0x3e93e786	0.28887576
24	0x3e1a7c5a	0.15086499
25	0x3e0b957a	0.1363124
26	0x3db496b9	0.088178106
27	0x3ea95efe	0.33080286
28	0x3e289c40	0.16465855
29	0xbd9444db	-0.07239696
30	0x3e623347	0.22089873
31	0xbb963794	-0.004584262
32	0x3d3cfe0e	0.046140723
33	0x3eaa7d03	0.332985
34	0x3e717e14	0.23583251
35	0x3db5c814	0.088760525
36	0xbdb98362	-0.090582624
37	0x3cfb6c15	0.030691186
38	0x3de8013d	0.11328361
39	0xbd65d09a	-0.05610714
40	0xbdedbfd9	-0.11608858
41	0xbdad2a1b	-0.084552966
42	0xbe34422e	-0.1760337
43	0x3c54300f	0.012950911
44	0x3e9f1948	0.31073976
45	0x3e6ea3a5	0.23304613
46	0x3f216263	0.6304075
47	0x3e688a7d	0.22709079
48	0xbdeabd11	-0.11461843
49	0xbd975b06	-0.07390408
50	0x3e3dc5a3	0.18532424
51	0x3d43a9e9	0.04776946
52	0x3dd4ab63	0.10384252
53	0x3de474ec	0.111551136
54	0xbdd270d5	-0.10275427
55	0x3e9f9d11	0.3117452
56	0xbba2ac25	-0.004964369
57	0xbb252f12	-0.0025205058
58	0xbe0bfd60	-0.13670874
59	0x3cfd528a	0.030923147
60	0xbcdd520f	-0.027016668
61	0xbdcbc621	-0.099498995
62	0xbd61e79d	-0.055152524
63	0xbdd9d0a3	-0.106354974
64	0x3cfb6636	0.030688386
65	0xbd9b4131	-0.07580794
66	0xbabd7a98	-0.0014456091
67	0x3c27884d	0.010225368
68	0x3e59e856	0.21280035
69	0xbdb2bca2	-0.08727385
70	0xbd8543a7	-0.06507044
71	0x3f1b3552	0.60628235
72	0xbe76068c	-0.24025935
73	0x3d8b8198	0.068118274
74	0xbd60ed06	-0.054913543
75	0xbe1a6c38	-0.15080345
76	0x3e21eb5c	0.15812439
77	0xbe50bd18	-0.20384634
78	0x3d456345	0.048190374
79	0xbe2ed023	-0.17071585
80	0xbde3b353	-0.11118188
81	0x3de1b17c	0.110201806
82	0xbe250f83	-0.16119199
83	0x3e0b67d1	0.13613822
84	0x3c7547d1	0.014970736
85	0xbd7b38ab	-0.06133334
86	0xbcc080eb	-0.023498973
87	0x3e3c6f3c	0.18401808
88	0xbd9825bc	-0.07429072
89	0xbda9a188	-0.08282763
90	0x3e1dedca	0.1542274
91	0x3ea16b4a	0.31527168
92	0x3e29213c	0.16516584
93	0xbbdcb690	-0.0067356303
94	0x3f2cc3d2	0.674863
95	0xbd0e1bfd	-0.03469466
96	0x3f0804bd	0.5313223
97	0xbd9f23ce	-0.07770501
98	0x3ebbc01b	0.36670002
99	0xbd8d03e7	-0.0688551
100	0xbde17daa	-0.11010297
101	0x3f11991a	0.5687424
102	0x3ed9443a	0.42434865
103	0xbd8bf1c4	-0.068332225
104	0x3cd0bfa4	0.025482006
105	0xbbd3d92a	-0.006465097
106	0x3e57b4f2	0.21065119
107	0x3dca7909	0.09886367
108	0xbeb3e7a2	-0.3513766
109	0x3cb209c5	0.021733174
110	0x3ea46fb1	0.32116464
111	0x3d4a675b	0.049414974
112	0x3e135691	0.14388491
113	0x3dd19491	0.10233415
114	0x3ec97af4	0.39351618
115	0xbd7c7019	-0.061630342
116	0xbce9e155	-0.02854983
117	0x3d4226d6	0.047400318
118	0x3e94873b	0.29009423
119	0xbd441ac4	-0.04787709
120	0x3d67cda8	0.056592613
121	0x3d288aa5	0.041147847
122	0x3eba5509	0.36393002
123	0xbdad9010	-0.08474743
124	0x3dd85875	0.10563747
125	0x3e64c99c	0.22342533
126	0xbd1ffd75	-0.039060075
127	0xba45da18	-0.0007547452

mean.weight f4 [2, 128]
0	0xbdf8e7d7	-0.12153595
1	0x3b4e44d4	0.003147413
2	0xbe4081ea	-0.18799558
3	0x3e8be212	0.27320915
4	0x3b82264b	0.00397185
5	0x3ef3c4a7	0.4761097
6	0x3e38ca53	0.1804593
7	0x3ea5a8f4	0.32355464
8	0xbed21e7f	-0.41038892
9	0x3ea65832	0.32489163
10	0x3e3bdd11	0.18346049
11	0xbdef82f3	-0.116948985
12	0x3ef26ae4	0.47347176
13	0x3e456814	0.19277984
14	0xbd0a6924	-0.033791676
15	0x3e211f99	0.1573471
16	0xbe87ee6d	-0.26549092
17	0xb947cf82	-0.00019055422
18	0xbd3cc262	-0.046083815
19	0xbe970524	-0.2949611
20	0x3ea0af14	0.31383574
21	0xbc9bc9c7	-0.019017113
22	0xbe19acef	-0.15007375
23	0x3e3ccc3d	0.18437286
24	0xbea71378	-0.3263204
25	0x3e58e4ed	0.21181078
26	0xbcd977ed	-0.026546443
27	0xbea8faf4	-0.33003962
28	0xbe4f681c	-0.20254558
29	0x3d081ca1	0.033230428
30	0x3f1e7c8b	0.6190879
31	0x3e8a8afe	0.27059168
32	0xbcd02c38	-0.02541171
33	0x3ea385d9	0.31938055
34	0x3d217432	0.039417453
35	0x3da66565	0.08124808
36	0x3d8f78b2	0.07005443
37	0x3ac6e3cf	0.0015174093
38	0x3db4456a	0.08802302
39	0xbd1d4c2b	-0.038402718
40	0x3e425f3a	0.18981639
41	0xbdd6dc40	-0.10491228
42	0xbc1660a5	-0.009178315
43	0xbc92f95c	-0.01794117
44	0xbe904b54	-0.2818247
45	0xbf0b5a5b	-0.54434747
46	0x3d2e54f9	0.042561505
47	0x3e8ee631	0.27909997
48	0x3c2baca5	0.010478173
49	0x3e143da4	0.14476639
50	0x3e728f8f	0.23687576
51	0xbc6f8944	-0.014620129
52	0xbe5ed9b2	-0.21762732
53	0x3e95265f	0.29130837
54	0xbe6a3ca5	-0.22874697
55	0xbe81aaae	-0.2532553
56	0x3e00f117	0.12591968
57	0xbd1afda4	-0.037839547
58	0x3d7fbc60	0.062435508
59	0xbe6183f9	-0.22023
60	0xbd40d012	-0.04707343
61	0xbd6551c6	-0.05598619
62	0x3d86f695	0.065900005
63	0x3d151d45	0.036404867
64	0xbcfba32a	-0.030717451
65	0x3d2700b8	0.04077217
66	0x3c03422f	0.008011385
67	0x3c209e7b	0.00980341
68	0x3f6280df	0.8847789
69	0x3db02e31	0.0860256
70	0x3df2f966	0.11863975
71	0x3e8422ae	0.25807709
72	0xbebffc86	-0.37497348
73	0xbe8badb2	-0.27280957
74	0xbd37efff	-0.044906612
75	0xbd83d818	-0.06437701
76	0xbe487556	-0.1957601
77	0xbdc4bed8	-0.09606713
78	0xbca85257	-0.020547075
79	0xbd27b118	-0.040940374
80	0x3d8bf4be	0.0683379
81	0xbe2b1326	-0.16706523
82	0xbe9641a4	-0.29346955
83	0x3e859e82	0.26097494
84	0xbcb17d17	-0.021666093
85	0xbd35608a	-0.04428152
86	0x3b9d01b9	0.004791465
87	0x3f188df3	0.595916
88	0x3dca7bad	0.098868705
89	0x3d1cfa1c	0.03832446
90	0x3e86fe56	0.26365918
91	0xbe7903a4	-0.24317795
92	0xbea39cc2	-0.31955534
93	0xbbfce112	-0.00771726
94	0x3cce6920	0.025196612
95	0xbd00a877	-0.03141066
96	0xbdf2c182	-0.11853315
97	0x3dfc4e75	0.12319652
98	0xbdbc4514	-0.09192863
99	0x3e48a912	0.19595745
100	0xbc83c2df	-0.016084133
101	0xbed2e7ee	-0.41192573
102	0xbf0dee72	-0.55441964
103	0x3e6c2f45	0.23064907
104	0x3d42d031	0.047561828
105	0xbdfb06da	-0.12257166
106	0x3dc6f901	0.097154625
107	0x3e762f88	0.24041569
108	0xbeb547a5	-0.35406223
109	0xbdb274e0	-0.087136984
110	0xbe6704c0	-0.22560406
111	0x3cfab518	0.03060393
112	0xbeb170b6	-0.34656304
113	0xbf03406f	-0.5127019
114	0x3e8b7a07	0.27241537
115	0x3a899d62	0.0010499174
116	0xbd926aa9	-0.0714925
117	0x3e9662d2	0.2937227
118	0xbebb45a0	-0.36576557
119	0xbe151217	-0.14557682
120	0xbe53d707	-0.20687495
121	0xbb891ae4	-0.004184114
122	0xbe9fb91f	-0.31195924
123	0xbcd80d46	-0.026373517
124	0xbea94786	-0.3306238
125	0x3eccc278	0.39992118
126	0x3dacfd45	0.08446745
127	0xbc940b10	-0.018071681
128	0xbe5a25c7	-0.21303473
129	0xbb944ede	-0.0045260033
130	0x3d477542	0.04869581
131	0x3eb48caa	0.35263568
132	0x3951a669	0.00019993786
133	0xbec07311	-0.3758779
134	0x3ebc7d70	0.3681445
135	0xbe5d68c5	-0.21621998
136	0xbe754690	-0.23952699
137	0xbdd7cc6e	-0.10537039
138	0xbec84715	-0.3911673
139	0xbe78acbd	-0.24284644
140	0x3d544aad	0.05182903
141	0x3f265d71	0.6498633
142	0x3f012d73	0.50459975
143	0x3e1e69e3	0.1547008
144	0xbe6d2349	-0.23157991
145	0xbae8201a	-0.0017709762
146	0x3e5d59d4	0.21616298
147	0x3ec4abf8	0.38412452
148	0x3cd800b3	0.02636752
149	0x3da5885e	0.080826506
150	0xbe97c76f	-0.29644343
151	0xbe863314	-0.26210845
152	0xbddc77db	-0.10765048
153	0x3d46f16d	0.048570085
154	0xbe36dddf	-0.17858075
155	0xbda824c3	-0.08210137
156	0x3ee5d81f	0.4489145
157	0xbcf03dcc	-0.029326342
158	0x3c98b3f2	0.018640492
159	0x3eac6afd	0.33675376
160	0xbd412a38	-0.047159404
161	0xbe518662	-0.20461419
162	0x3e11caea	0.14237562
163	0xbf017444	-0.5056803
164	0xbe93a87e	-0.28839487
165	0xbee56d44	-0.44809926
166	0x3e06a28c	0.13147944
167	0x3e8093e2	0.25112826
168	0xbf216ad9	-0.6305366
169	0x3e034301	0.12818529
170	0xbf0ed216	-0.55789316
171	0x3cfb220c	0.030655883
172	0x3f0be807	0.5465092
173	0xbe27e264	-0.16394955
174	0xbee5a08a	-0.44849044
175	0xbced2a1c	-0.028950743
176	0xbcdfb6ea	-0.0273089
177	0xbe8d9436	-0.27652138
178	0x3dd27404	0.102760345
179	0xbd080df3	-0.033216428
180	0x3d160e91	0.036634985
181	0xbd4299f8	-0.047510117
182	0xbe7c66e6	-0.24648628
183	0xbe1073c9	-0.14106669
184	0xbe1f110c	-0.15533847
185	0xbd467303	-0.048449527
186	0x3e94ce69	0.29063728
187	0xbe56e615	-0.20986207
188	0xbc082252	-0.008308964
189	0x3cbc9b20	0.023023188
190	0xbd81a79c	-0.06330797
191	0xbcc2bba3	-0.023771113
192	0xbb5e1b98	-0.003389096
193	0x3d88be3e	0.06676911
194	0x3d5a2be5	0.053264517
195	0x3bfc65ec	0.0077025797
196	0xbeaed7f0	-0.34149122
197	0xbd44ffe0	-0.048095584
198	0xbe110e38	-0.1416558
199	0x3d3bb08c	0.045822665
200	0x3ebb24d3	0.36551532
201	0x3e772f69	0.2413918
202	0xbba6ee90	-0.005094357
203	0x3ee272a2	0.44228083
204	0x3e2f2b6b	0.17106406
205	0xbe266f6d	-0.16253443
206	0x3cbfd612	0.023417506
207	0xbe87d8dc	-0.26532638
208	0xbc8b531f	-0.017007409
209	0xbe40a25b	-0.18811934
210	0xbc119c30	-0.008887336
211	0xbd9b1b75	-0.075735964
212	0xbbad631a	-0.005291355
213	0xbeff43f3	-0.4985653
214	0x3d0bd1f7	0.034135785
215	0x3f1f1046	0.62134206
216	0x3dbb500e	0.091461286
217	0xbca648a7	-0.020298315
218	0xbe4a0a6f	-0.19730543
219	0x3e8852f1	0.2662578
220	0xbea2c885	-0.3179361
221	0xbd123153	-0.03569157
222	0x3ed9020a	0.42384368
223	0xbe1f6040	-0.1556406
224	0xbd4366b9	-0.047705386
225	0x3e575c16	0.21031222
226	0xbec1fb6a	-0.37887126
227	0xbe4d628d	-0.20057125
228	0x3ea3e0a7	0.32007334
229	0x3e2d13df	0.16902111
230	0x3e877f2a	0.26464206
231	0x3ee6f1b7	0.4510629
232	0x3daffaca	0.08592756
233	0x3f1952ba	0.59891856
234	0x3e5ecbff	0.21757506
235	0xbef288b5	-0.47369924
236	0x3d69f0bd	0.05711435
237	0x3e41cd99	0.18926086
238	0x3e00a11d	0.1256146
239	0x3cda0307	0.026612772
240	0x3e374cfd	0.17900462
241	0xbe75faa5	-0.24021395
242	0xbe4d33e5	-0.20039327
243	0xbd38787d	-0.04503678
244	0xbea07549	-0.3133948
245	0xbe82d595	-0.25553575
246	0xbeebbc1c	-0.46041954
247	0xbe70fad6	-0.23533186
248	0x3e308c1a	0.17240945
249	0x3e4e64bb	0.20155613
250	0xbea3b31e	-0.31972593
251	0xbce7fb62	-0.02831811
252	0xbe86eac6	-0.26350993
253	0x3d620223	0.05517782
254	0xbeb822fc	-0.3596419
255	0xbd1af62f	-0.037832435

mean.bias f4 [2]
0	0xbe6ccf90	-0.23126054
1	0x3f0eba46	0.5575298

log_std.weight f4 [2, 128]
0	0xbd418319	-0.047244165
1	0xbce051f3	-0.027382826
2	0x3cc435e7	0.023951484
3	0x3d2fcf3d	0.042922247
4	0xbc126de5	-0.008937334
5	0xbeb2696d	-0.34846058
6	0xbd94e605	-0.07270435
7	0x3e325921	0.17416812
8	0x3e1e27a6	0.15444812
9	0x3e77b092	0.2418845
10	0xbd822487	-0.06354623
11	0xb91837c9	-0.00014516631
12	0x3d9b159c	0.07572481
13	0x3d4f8bf9	0.050670598
14	0xbcc6e3c9	-0.024278538
15	0x3b3363e1	0.0027372765
16	0x3d5403ce	0.05176144
17	0x3dabb15b	0.08383437
18	0x3c36573b	0.011129196
19	0x3dae65b2	0.085154906
20	0x3bccc618	0.0062492006
21	0x3cc300b6	0.02380405
22	0x3c7a5430	0.015278861
23	0xbd193e0d	-0.03741269
24	0x3d982248	0.07428414
25	0x3e3e55be	0.18587396
26	0xbc5194f8	-0.012791865
27	0xbe034c05	-0.12821968
28	0x3d7e59c9	0.062097345
29	0x3c918e01	0.017767908
30	0xbe4eeca2	-0.20207456
31	0xba9aafce	-0.0011801661
32	0x3d970716	0.073743984
33	0x3e5d93f3	0.2163847
34	0x3b8a64b0	0.0042234287
35	0x3d75f61d	0.060049165
36	0x3e3bc9fe	0.18338773
37	0xbc1e36ac	-0.0096565895
38	0x3d57ecf9	0.05271623
39	0x3d91b258	0.071140945
40	0x3d792e2c	0.06083505
41	0x3d25db3f	0.040492292
42	0x3ce2bd40	0.027678132
43	0x3d2af3a0	0.041736245
44	0xbdac6e75	-0.084195055
45	0x3e8eb515	0.2787253
46	0x3bcf6986	0.006329718
47	0xbd3c8a0e	-0.046030097
48	0xbc13816b	-0.009003024
49	0x3d8eae19	0.069668
50	0x3dc0177c	0.09379479
51	0x3a6d51e8	0.00090530375
52	0xbc9019c7	-0.017590417
53	0xbd0e5711	-0.034751
54	0x3d2d1b17	0.042262163
55	0x3dab1045	0.083527125
56	0x3d2612d7	0.04054531
57	0x3ce6ce2e	0.028174486
58	0x3c872a9e	0.016499814
59	0x3db778dc	0.08958599
60	0x3dc0a992	0.09407343
61	0xbcf79a1b	-0.03022485
62	0xbbe5acf1	-0.0070091416
63	0x3d2157bf	0.03939032
64	0xbd347348	-0.044055253
65	0x3bc9c804	0.006157877
66	0xbd246010	-0.040130675
67	0xbcab8003	-0.020935064
68	0x3cdb09c6	0.026738059
69	0x3b773e5e	0.0037726383
70	0xbd47a02e	-0.048736744
71	0x3cd1eb00	0.025624752
72	0xbc287cb9	-0.010283642
73	0x3dd291e6	0.10281734
74	0xbd5bc842	-0.053657778
75	0x3ce7cf10	0.028296977
76	0x3ce5b394	0.028039731
77	0x3d5bcc4e	0.053661637
78	0x3d300368	0.042972
79	0x3d9d333e	0.07675789
80	0x3c063aa9	0.008192697
81	0xbe09dbfa	-0.1346282
82	0xbdbe9934	-0.09306565
83	0x3d79c055	0.060974438
84	0x3d802c19	0.06258411
85	0x3db1e7d3	0.08686795
86	0x3cc402a4	0.02392704
87	0xbf005cb2	-0.5014144
88	0x3db98411	0.09058393
89	0xbc711f76	-0.0147169735
90	0x3de9a09d	0.11407588
91	0xbdbfc23b	-0.093632184
92	0xbe3bba98	-0.18332899
93	0xbbf6cdea	-0.007531871
94	0xbce70b2b	-0.028203567
95	0xbc8acf72	-0.01694462
96	0xbf09c71b	-0.53819436
97	0xbcad6b48	-0.02116932
98	0x3c8f028c	0.01745727
99	0xbbecc340	-0.007225424
100	0x3dd98bb7	0.106223516
101	0xbe99dfea	-0.30053645
102	0xbdd2a87f	-0.10286044
103	0xbe06e1f4	-0.13172132
104	0xbe161133	-0.14654998
105	0x3d9c383d	0.07627914
106	0xbd03cd0c	-0.03217797
107	0xbc6f889f	-0.014619975
108	0xbd20166a	-0.039083876
109	0x3d353bab	0.044246357
110	0x3acdaed1	0.0015692358
111	0x3ce1e6b6	0.027575832
112	0x3e098689	0.13430227
113	0x3e1d6c76	0.15373406
114	0x3ce3a1a4	0.027787037
115	0x3db74bf7	0.08950036
116	0x3e227874	0.15866262
117	0x3d8259ec	0.063648075
118	0xbe7844e0	-0.24245024
119	0x3dbeac9e	0.09310268
120	0x3db7cc5f	0.089745276
121	0xbdae0bcd	-0.084983446
122	0x3d2925b4	0.041295722
123	0x3c214ef1	0.009845481
124	0x3dde0880	0.10841465
125	0x3d6519af	0.055932697
126	0xbb755e9d	-0.0037440427
127	0x3d472939	0.048623297
128	0x3d50ef6b	0.051009577
129	0xbcb37757	-0.021907492
130	0x3dc0df0a	0.09417541
131	0x3e002dae	0.12517425
132	0x3cac2ac8	0.021016493
133	0x3dc98aff	0.098409645
134	0x3e275bf6	0.16343674
135	0x3c38a1e6	0.011269068
136	0x3d01e1fc	0.031709656
137	0x3d33f650	0.043936074
138	0x3dd6c6da	0.10487147
139	0xbd803d4c	-0.062616915
140	0x3d844138	0.06457752
141	0x3e0e06a2	0.13869718
142	0xbe480a1a	-0.19535103
143	0x3d254c75	0.04035612
144	0x3d98340f	0.074318044
145	0xbc95e23d	-0.018296355
146	0x3de6e084	0.11273292
147	0x3e882b10	0.26595354
148	0x3da779d5	0.081775345
149	0x3d678fb8	0.056533545
150	0x3d44e201	0.048067097
151	0x3cfc05aa	0.03076442
152	0x3e0b4098	0.1359886
153	0x3dc55bbe	0.09636639
154	0xbcd03031	-0.025413604
155	0x3bdfa1b8	0.0068246983
156	0xbd20fa13	-0.03930099
157	0x3c6e0431	0.0145273665
158	0x3da80fbf	0.08206128
159	0x3da0c221	0.07849527
160	0xbd83217e	-0.064028725
161	0xbd7c5afc	-0.061610207
162	0xbb8fbd28	-0.004386563
163	0x3d8e14f9	0.06937594
164	0x3eb4acc7	0.3528807
165	0x3d34e5af	0.044164356
166	0x3e2040c8	0.15649712
167	0xbce87a02	-0.02837849
168	0x3d8dcf75	0.06924335
169	0x3d7fced9	0.062453125
170	0xbcd73db2	-0.026274536
171	0xbcc9800b	-0.024597188
172	0x3d0a7023	0.03379835
173	0xbc545ac7	-0.012961096
174	0x3d3f93ac	0.04677169
175	0xbd10ade0	-0.03532207
176	0xbc0aee81	-0.008479715
177	0xbcf35213	-0.029702222
178	0x3bf0111f	0.0073262597
179	0xbbbb703a	-0.0057201656
180	0xbd311463	-0.043232333
181	0x3d2b84a9	0.04187456
182	0x3e30ef21	0.1727872
183	0xbc8fa58e	-0.017534997
184	0x3e4f82f4	0.20264798
185	0x3d83e3d9	0.06439943
186	0x3a3c9664	0.0007194041
187	0xbd0b0323	-0.03393854
188	0xbc977200	-0.018486977
189	0x3be38970	0.006943874
190	0x3dac6db1	0.084193595
191	0x3d229537	0.039693084
192	0x3d985917	0.074388675
193	0xbd98f10f	-0.07467853
194	0xbd36ded9	-0.044646118
195	0x3ccac84f	0.024753718
196	0x3dfaeeb6	0.12252562
197	0x3d3b698f	0.045754965
198	0x3d4d6f52	0.05015499
199	0xbd032eec	-0.03202717
200	0xbe69263f	-0.22768496
201	0x3dc2c391	0.095099576
202	0xbc94aa05	-0.018147478
203	0xbc1a8c2b	-0.009432833
204	0xbd29bb26	-0.041438244
205	0xbdc41048	-0.09573418
206	0xbc4ba2c8	-0.012428947
207	0x3d8081a8	0.0627473
208	0x3d355764	0.044272795
209	0x3d8f0d37	0.069849424
210	0x3c55029d	0.013001111
211	0x3c13b4ab	0.009015243
212	0x3d0912a3	0.03346504
213	0xbb587af0	-0.003303226
214	0xbcbbaa83	-0.022908455
215	0xbe9bf88e	-0.3046307
216	0x3e5c432c	0.21509999
217	0xba3a89c2	-0.00071158644
218	0x3e2fdbdf	0.17173718
219	0x3e081da5	0.13292558
220	0x3b445fc2	0.0029964303
221	0xbc85dd72	-0.016340945
222	0xbefb3b84	-0.49068844
223	0x3cf72e40	0.03017342
224	0xbecf8653	-0.4053217
225	0x3c44b2d9	0.012005531
226	0xbce4b651	-0.027918966
227	0x3d31e09b	0.04342709
228	0x3e0250f2	0.1272619
229	0x3da2d55d	0.07950852
230	0x3d0f8449	0.035038266
231	0x3e06faf3	0.13181667
232	0xbe030370	-0.1279428
233	0x3dac3d93	0.08410182
234	0x3d3858ad	0.045006443
235	0xbb817fc1	-0.003951997
236	0x3d63d1ed	0.055620123
237	0x3d058bdc	0.032604083
238	0xbd891725	-0.066938676
239	0x3c4f278b	0.012643705
240	0xbb19cad0	-0.0023466833
241	0x3c8add4c	0.016951226
242	0x3c79b43b	0.015240724
243	0xbd312b37	-0.043254104
244	0x3de83872	0.11338891
245	0x3cdc8ac8	0.026921645
246	0xbece99ea	-0.40351802
247	0xbd8ea642	-0.06965305
248	0x3dcea08e	0.10089217
249	0x3d94e032	0.07269324
250	0x3cc9f090	0.024650842
251	0x3d37dbd0	0.044887364
252	0x3d331e95	0.043730337
253	0xbc786a9e	-0.015162138
254	0x3de425eb	0.11140045
255	0xbcb9f4c0	-0.022699714

log_std.bias f4 [2]
0	0xbfd1ed02	-1.6400454
1	0xbfa1ed88	-1.2650614
